expTD3_BipedalWalker-v2.pyBipedalWalkerHardcore-v3./actor.pth (torch, 527831 bytes, 6 tensors)

fc1.weight f4 [400, 24]
0	0xbdc5cdb0	-0.096583724
1	0x3fa31eb0	1.274374
2	0xc0ec6859	-7.3877378
3	0x3faeffe6	1.3671844
4	0xbfca325c	-1.5796618
5	0xbffb50e3	-1.963406
6	0xbf8f86be	-1.1212995
7	0x3fde1a49	1.7351772
8	0xbee7a809	-0.45245388
9	0x3f323cb9	0.69623905
10	0xbf1f3d9c	-0.62203383
11	0xbef58159	-0.47950247
12	0x3f9355b7	1.1510533
13	0xbf64f4d2	-0.89436066
14	0xbf95c2ce	-1.1700075
15	0xbf76e086	-0.96436346
16	0xbf16515f	-0.5871791
17	0xbe8539d6	-0.26020688
18	0x3da59d96	0.08086698
19	0x3d7a2cba	0.06107781
20	0x3d9275fd	0.07151411
21	0xbc6a9f6e	-0.014320238
22	0xbe390fdf	-0.1807246
23	0xbe91b7fd	-0.28460684
24	0x3f00b5e8	0.50277567
25	0x3ecf6f7d	0.40514746
26	0x3f884d20	1.0648537
27	0xbf8268d2	-1.0188239
28	0xbf0c85e4	-0.548918
29	0xbef7036b	-0.48244795
30	0x3f09eb63	0.53874797
31	0xc007768e	-2.116611
32	0xbef7f6cc	-0.4843048
33	0xbe51bf1e	-0.20483062
34	0xbdbba8eb	-0.09163078
35	0x3f134048	0.5751996
36	0xbe28b641	-0.16475774
37	0x3fa9b072	1.3256972
38	0xbf5e1fff	-0.8676757
39	0xbe9974f3	-0.29972038
40	0x3e8caa67	0.27473757
41	0x3ed2c132	0.4116302
42	0x3c747dd6	0.01492258
43	0xbf1f92f7	-0.62333626
44	0xbf9759e4	-1.1824307
45	0xbf89ba52	-1.0759985
46	0xbf9b68ce	-1.2141359
47	0xbf7e7968	-0.99404
48	0xbc4e9158	-0.012607895
49	0x3d80a096	0.06280629
50	0xbc9f3b4b	-0.019437453
51	0x3dc23b2d	0.09483943
52	0xbd4e6af8	-0.050394982
53	0x3e182b06	0.14860162
54	0x3d73a106	0.059479736
55	0x3d37c3ef	0.04486459
56	0x3d955ed9	0.072934814
57	0x3da39f5c	0.0798938
58	0x3e291ae7	0.16514169
59	0x3e5c5b50	0.21519208
60	0x3d7c4561	0.061589602
61	0xbe29ce77	-0.16582666
62	0xbaca6ec6	-0.001544439
63	0xbebade9c	-0.36497962
64	0xbe439d71	-0.19103028
65	0xbe7bb10d	-0.24579258
66	0xbe20ebda	-0.1571497
67	0xbe2be305	-0.1678582
68	0xbdd658db	-0.104661666
69	0xbe90316c	-0.28162706
70	0xbeab75da	-0.3348835
71	0xbe8b470f	-0.2720265
72	0x400690a2	2.1025777
73	0x3fefe639	1.8742133
74	0x3f72839b	0.94732064
75	0x3fcf36b1	1.6188565
76	0x3fb16b5f	1.3860892
77	0xbec36155	-0.38160196
78	0x3f9d817b	1.2305139
79	0x3f29de30	0.66354656
80	0xc01db0dd	-2.4639199
81	0xbf0d5217	-0.55203384
82	0x3e226bff	0.1586151
83	0x3f868244	1.0508504
84	0xbf4e3688	-0.8055196
85	0xbffbb875	-1.9665667
86	0xbeef68db	-0.46759686
87	0xbe6c6d75	-0.2308863
88	0x3fcdf953	1.6091713
89	0x3fc69fa0	1.5517464
90	0xbe9271cf	-0.28602454
91	0xbf53f7d4	-0.8280003
92	0xbeafab3c	-0.3431033
93	0x3eb42ab9	0.35188845
94	0xbf2b9200	-0.67019653
95	0xbf44e36e	-0.7690953
96	0xc01a451e	-2.4104686
97	0xc09982e1	-4.7972264
98	0x3f842b11	1.0325643
99	0xc05285a1	-3.289406
100	0xbf136615	-0.5757764
101	0xbf164715	-0.5870221
102	0x3f51349a	0.8172089
103	0xbe69d386	-0.22834596
104	0xc017c145	-2.3711712
105	0xbfa82a67	-1.313794
106	0x3f436ec9	0.7634092
107	0x3f002bbb	0.5006673
108	0x3d8ee371	0.06976975
109	0xbd8447b9	-0.064589925
110	0xbdc6e0d9	-0.09710855
111	0x3e0daedb	0.13836233
112	0x3da3334e	0.0796877
113	0xbded61c4	-0.11590913
114	0x3f2a63d5	0.6655858
115	0xbe1acf9f	-0.15118264
116	0xbf349f51	-0.705556
117	0xbf00d0fc	-0.50318885
118	0xbf0fe9ba	-0.56216013
119	0x3df58c6d	0.11989675
120	0x4007b33d	2.1203148
121	0xbd73c49e	-0.05951368
122	0xc004eebb	-2.077071
123	0x3fdec13e	1.7402723
124	0xbea8001c	-0.32812583
125	0x3eb34490	0.35013247
126	0xbfe5bd6e	-1.7948434
127	0xbf0431d8	-0.51638556
128	0x3faa022b	1.3281912
129	0x3e1e7d19	0.15477408
130	0xbf9c824d	-1.2227265
131	0x3cf1dccd	0.029524231
132	0xbf90fd50	-1.1327305
133	0xc02eac0c	-2.729251
134	0xbe7c32b5	-0.24628718
135	0xbf354162	-0.7080289
136	0xbf5862cf	-0.8452577
137	0xbf6bdff6	-0.9213861
138	0xbf6d48d7	-0.9268927
139	0xbf25b468	-0.64728403
140	0x3e67cf25	0.22637613
141	0x3eac1e05	0.33616653
142	0xbe8fe1d6	-0.28101987
143	0xbe4ca3cd	-0.1998436
144	0xbf4253b8	-0.75908995
145	0x3e5d568e	0.21615049
146	0xbf664310	-0.8994608
147	0x4056491c	3.3482122
148	0x3f1c5f9f	0.61083406
149	0xbefc7f93	-0.4931608
150	0x3f61bc5c	0.8817804
151	0xbf18b1c4	-0.5964625
152	0xc06eb37d	-3.729705
153	0x3f25ee63	0.64816874
154	0x3d016fe5	0.03160085
155	0x3f95afde	1.1694295
156	0x3e0687c0	0.13137722
157	0x40310350	2.7658272
158	0xbd5f73f1	-0.05455393
159	0xbeaaf012	-0.33386284
160	0xbe298711	-0.1655543
161	0xbe92da04	-0.28681958
162	0x3efea550	0.49735498
163	0x3e93bbf8	0.28854346
164	0x3f71bfe6	0.9443344
165	0x3f9297cf	1.1452578
166	0xbe11e86c	-0.14248818
167	0xbe68289c	-0.22671741
168	0xc033a800	-2.807129
169	0xbd3fa175	-0.046784837
170	0x3f0db980	0.55361176
171	0xbfd9d905	-1.7019354
172	0xbe2cf6ec	-0.16891068
173	0xbf5bd736	-0.8587526
174	0x3ff50472	1.9141982
175	0xbe9a3893	-0.30121288
176	0xbde02554	-0.1094462
177	0x4027439f	2.6135023
178	0xbe0c0cdc	-0.1367678
179	0xbf70f9c5	-0.9413112
180	0x3f835148	1.025918
181	0xbf6e6256	-0.931188
182	0x3e9c6a6c	0.30549943
183	0xbf336fad	-0.7009228
184	0xbf8b5aa5	-1.0887038
185	0xbfa22f13	-1.2670616
186	0xbf70599f	-0.9388675
187	0xbf55ec4f	-0.83563703
188	0xbea25332	-0.31704098
189	0xbf003235	-0.5007661
190	0xbed71531	-0.42008355
191	0x3c583916	0.013197204
192	0x3c718445	0.014741008
193	0x3da14c9f	0.078759424
194	0xbedb52e7	-0.42836687
195	0x3efdab25	0.49544635
196	0x3d608837	0.054817405
197	0xbbf9017b	-0.0075990534
198	0x3ca28e16	0.019843142
199	0x3d90885c	0.070572585
200	0xbeb7e860	-0.35919476
201	0xbd5f72ba	-0.05455277
202	0x3e6d2892	0.23160008
203	0xbcba4cac	-0.022741638
204	0xbe02fb03	-0.12791066
205	0xbd0b0c10	-0.03394705
206	0xbd57891b	-0.05262099
207	0xbeb6d739	-0.35711077
208	0xbc88b963	-0.016689962
209	0xbdb82cc3	-0.089929126
210	0xbeaf2044	-0.34204304
211	0xbd719a18	-0.058984846
212	0xbe913344	-0.28359425
213	0xbdf94208	-0.121707976
214	0xbe8a5329	-0.2701657
215	0xbdd31911	-0.103075154
216	0x400c0fec	2.1884718
217	0xbe840f26	-0.25792807
218	0x3f6f4672	0.93466866
219	0xbfee38ce	-1.8611085
220	0x3fab7860	1.339611
221	0x3dc1abc3	0.09456589
222	0x4040cc2e	3.0124621
223	0x3fa2e26d	1.272535
224	0xbef44b90	-0.477139
225	0x3e139124	0.14410836
226	0xbf8f3506	-1.1188056
227	0xbf9136bb	-1.1344827
228	0xbc7baa3d	-0.015360412
229	0xbf1cd592	-0.6126338
230	0xbfb4c492	-1.4122488
231	0xbf94c4b7	-1.1622533
232	0x3ee6611a	0.44995958
233	0x400ef576	2.2337317
234	0x3fc59777	1.5436848
235	0xbf4ac250	-0.7920275
236	0xc0067638	-2.1009655
237	0xbfedb472	-1.8570693
238	0xbeb0cda8	-0.34531903
239	0xbf27f206	-0.65603673
240	0xbe3359a3	-0.17514662
241	0x3e001793	0.12508993
242	0xc0a025ad	-5.004599
243	0x3f8bd13a	1.0923226
244	0x3fd56658	1.6671858
245	0xbe32a297	-0.17444836
246	0xbe33e314	-0.17567092
247	0xbd933259	-0.071873374
248	0x3ed387a5	0.41314426
249	0x3e800eb6	0.25011224
250	0xbe6634c9	-0.22481073
251	0xbee68232	-0.45021206
252	0xbeff68f5	-0.49884763
253	0xbf856f19	-1.0424529
254	0x3ea1866e	0.31547874
255	0xbb81b070	-0.0039578006

fc1.bias f4 [400]
0	0xbf34db3c	-0.70647025
1	0xbfa19267	-1.2622803
2	0xbda536c8	-0.08067089
3	0xbf41d94d	-0.757222
4	0x3cc6a3f9	0.02424811
5	0xbec062e4	-0.37575448
6	0xbed40eb7	-0.41417477
7	0x3e8a952f	0.27066943
8	0xbeafbea9	-0.3432515
9	0xbf1eceb7	-0.6203417
10	0xbe27aff6	-0.16375718
11	0xbe939241	-0.2882252
12	0xbf3b0aaa	-0.7306315
13	0x3f1018af	0.56287664
14	0xbf347dba	-0.70504344
15	0xbe722653	-0.23647432
16	0x3f29cb1c	0.66325545
17	0xbe13e24d	-0.14441796
18	0xbed471e5	-0.41493145
19	0xbf9a3080	-1.2046051
20	0x3f82bfcd	1.0214783
21	0xbcc16e92	-0.023612294
22	0xbe43675a	-0.19082394
23	0xbf99e3f4	-1.2022691
24	0xbda43f67	-0.080199055
25	0xbefc28bd	-0.4924983
26	0xbfafc30b	-1.3731397
27	0x3f88d81a	1.0690949
28	0xbf515630	-0.81772137
29	0x3e06c460	0.13160849
30	0xbd21311e	-0.039353482
31	0xbe854d02	-0.26035315
32	0x3ed5763f	0.41691777
33	0xbf292882	-0.66077435
34	0xbf2d893c	-0.6778753
35	0xbf45a8ea	-0.7721087
36	0x3e84396d	0.25825062
37	0xbe986d7b	-0.29771027
38	0xbf1728bd	-0.59046537
39	0xbe18fa76	-0.14939293
40	0xbe9fa1b0	-0.31178045
41	0xbf06dcd4	-0.52680707
42	0xbed4df91	-0.41576818
43	0x3e11cf5b	0.14239256
44	0x3f46e534	0.77693486
45	0xbf0e141d	-0.5549944
46	0x3ec16b5d	0.37777224
47	0xbf20134f	-0.6252946
48	0xbea822f0	-0.32839155
49	0x3e34c000	0.17651367
50	0xbf00fcaf	-0.50385565
51	0xbf064b35	-0.52458507
52	0x3ce2967e	0.02765965
53	0xbf2ee800	-0.68322754
54	0xbe822414	-0.2541815
55	0xbf5a19f1	-0.85195833
56	0xbe92c079	-0.2866247
57	0x3f54effd	0.83178693
58	0xbefb2104	-0.49048626
59	0x3f02a35e	0.5103053
60	0xbe43b430	-0.19111705
61	0xbf606ba0	-0.8766422
62	0xbf6bedf8	-0.92159986
63	0x3ff6bf1b	1.9277071
64	0xbe21d4b4	-0.15803796
65	0xbedc0399	-0.42971495
66	0xbe90210e	-0.2815022
67	0x3d097a28	0.033563763
68	0xbebb84aa	-0.36624652
69	0xbea2f0d0	-0.3182435
70	0xbed245bf	-0.41068837
71	0xbd28f603	-0.04125024
72	0x3eb028a5	0.3440601
73	0xbef2f8ae	-0.47455353
74	0x3f0bd961	0.5462857
75	0xbe9f4efd	-0.3111495
76	0xbfbb648e	-1.4640062
77	0xbec3b1ac	-0.3822149
78	0xbeab9b5c	-0.33516967
79	0xbf693a41	-0.91104513
80	0xbf2b0a97	-0.66813034
81	0xbefb0d6f	-0.49033687
82	0xbf0c3fa8	-0.5478463
83	0xbf9f52a9	-1.2447101
84	0xbc5f71bf	-0.013637959
85	0x3e1c9878	0.15292537
86	0xbf5ffdd9	-0.87496716
87	0x3f08efcf	0.5349092
88	0xbec95042	-0.39319044
89	0x3e17b817	0.14816318
90	0xbe537e77	-0.20653711
91	0xbf3945c8	-0.723721
92	0xbe6f3c4c	-0.23362845
93	0xbf959e05	-1.1688849
94	0xbf3aafed	-0.7292469
95	0xbf430b97	-0.7618956
96	0x3ee821a3	0.45338163
97	0xbed05dbc	-0.40696514
98	0x3f13ee92	0.57785904
99	0xbe57897c	-0.2104854
100	0xbeda1ef5	-0.42601743
101	0xbe83441d	-0.25637904
102	0xbee77bb3	-0.45211563
103	0x3f64fdaf	0.8944959
104	0xbddff1e1	-0.109348066
105	0xbe8ef4ed	-0.2792124
106	0xbe0f08f6	-0.13968262
107	0xbdfdeada	-0.1239831
108	0xbee15754	-0.4401194
109	0x3e4e834f	0.20167278
110	0xbe646c09	-0.22306837
111	0xbf1aa100	-0.60401917
112	0x3f14ea74	0.5817025
113	0x3fa8caed	1.3186928
114	0xbf1d5f72	-0.61473763
115	0xbf423dae	-0.75875366
116	0xbf82a5f6	-1.0206897
117	0x3c7a8db4	0.015292574
118	0xbf310a36	-0.69156206
119	0xbe8ebb9c	-0.2787751
120	0x3eaff691	0.34367803
121	0xbe2e4dd7	-0.17021881
122	0xbedb0769	-0.4277909
123	0x3f01898b	0.506005
124	0xbe46702d	-0.19378729
125	0xbef4ac3b	-0.4778765
126	0xbe8baae2	-0.2727881
127	0x3f083a98	0.53214407
128	0xbf277220	-0.65408516
129	0xbf390ab0	-0.7228193
130	0xbed849dd	-0.42243853
131	0xbf7cd800	-0.9876709
132	0x3eb93347	0.36171934
133	0xbecd9c29	-0.40158203
134	0xbe4313e1	-0.19050552
135	0xbf14f15b	-0.5818078
136	0x3f1694a4	0.5882056
137	0xbe2010e2	-0.1563144
138	0xbf982219	-1.1885406
139	0xbf2727b2	-0.65294945
140	0xbee9f3f6	-0.4569394
141	0x3e980332	0.29689938
142	0xbf0b29a6	-0.54360425
143	0x3e938511	0.2881246
144	0x3e0076ad	0.12545271
145	0xbf8000b5	-1.0000216
146	0xbf6cc75d	-0.92491704
147	0x3e5a9e42	0.21349433
148	0x3d0cc48d	0.034367133
149	0xbed5695d	-0.41681948
150	0xbf064e10	-0.52462864
151	0xbbfd8eaa	-0.007737954
152	0x3da1e806	0.07905583
153	0xbf3fe6c1	-0.7496148
154	0xbb870b32	-0.0041212076
155	0xbdced472	-0.100991145
156	0xbea23675	-0.31682172
157	0xbe1f8c64	-0.15580899
158	0x3e1481f2	0.14502695
159	0x3e2487fe	0.16067502
160	0xbdb9ada7	-0.09066325
161	0xbed07a82	-0.40718466
162	0xbd370a2d	-0.04468744
163	0xbf53b5e0	-0.82699394
164	0x3daf4f27	0.08560019
165	0xbe8573c7	-0.26064894
166	0x3eaa775d	0.33294192
167	0xbe8841db	-0.26612744
168	0xbde8e0e1	-0.11371017
169	0xbe16e6c1	-0.14736463
170	0x3d019f69	0.031646166
171	0xbe8ac705	-0.27104965
172	0xbee20360	-0.441432
173	0x3ea73eb4	0.32665026
174	0x3f3af4b9	0.7302967
175	0xbe0ac8cf	-0.13553165
176	0xbeadc9be	-0.3394298
177	0xbd9dc83a	-0.07704206
178	0xbda74ea3	-0.08169296
179	0xbe9548a1	-0.29156974
180	0xbf416552	-0.7554523
181	0xbf162bce	-0.5866059
182	0x3fb309cf	1.3987368
183	0xbf170098	-0.5898528
184	0x3ed4effb	0.4158934
185	0xbe5ba89a	-0.21451035
186	0xbf54d8c9	-0.8314329
187	0xbea663cf	-0.32498023
188	0xbe87c191	-0.26514867
189	0xbf7cab1c	-0.9869859
190	0xbe20414f	-0.15649913
191	0x3f51cc3d	0.8195227
192	0xbf03b7e8	-0.51452494
193	0xbf22f3b2	-0.636531
194	0x3f680456	0.90631616
195	0xbc8117c6	-0.015758406
196	0xbf98d871	-1.1941053
197	0xbe866981	-0.26252368
198	0xbe9add18	-0.30246806
199	0xbc7817ec	-0.015142422
200	0xbf042c47	-0.5163006
201	0xbe77a634	-0.24184495
202	0xbef89e09	-0.4855807
203	0x3daba854	0.083817154
204	0xbed1fda9	-0.4101384
205	0x3f271552	0.6526691
206	0x3d2caf9c	0.04215966
207	0x3f5d45aa	0.86434424
208	0xbf4241c9	-0.7588163
209	0xbebc7dbc	-0.36814678
210	0xbe764529	-0.2404982
211	0xbe90651d	-0.28202143
212	0xbf8704bb	-1.0548319
213	0xbf9a415f	-1.20512
214	0xbf4a4a61	-0.79019743
215	0xbf0d7720	-0.55259895
216	0xbe8162a6	-0.25270575
217	0x3f5d6877	0.86487526
218	0xbe774360	-0.24146795
219	0xbec32a5a	-0.3811825
220	0xbf5865bd	-0.8453024
221	0xbef55ea4	-0.47923768
222	0xbe9bdd25	-0.30442157
223	0xbf4ccc9f	-0.79999727
224	0xbbfe1fcf	-0.0077552567
225	0xbe7bd335	-0.24592288
226	0xbf09d8dd	-0.5384653
227	0x3f090eeb	0.5353839
228	0xbee17749	-0.4403632
229	0xbdbc5f4f	-0.09197866
230	0x3f0f370d	0.55943376
231	0xbe337c4b	-0.17527883
232	0xbf278eb1	-0.65452105
233	0xbe51e0d3	-0.2049592
234	0xbc6fa584	-0.014626864
235	0xbe23c5d4	-0.15993434
236	0xbe8a7399	-0.2704132
237	0x3f8220e0	1.0166283
238	0xbf5bad1a	-0.8581101
239	0x3cce0b7a	0.025151957
240	0xbf00e6fe	-0.50352466
241	0xbd31affa	-0.043380715
242	0xbee5b84d	-0.44867173
243	0x3f025b02	0.50920117
244	0xbf171f61	-0.59032255
245	0xbed0d3d9	-0.40786627
246	0xbee9c807	-0.4566042
247	0x3c8085d5	0.015688816
248	0xbe870207	-0.26368734
249	0xbd0ee0a2	-0.034882195
250	0xbef5801c	-0.47949302
251	0xbf0a0dc1	-0.53927237
252	0xbe8c149b	-0.2735947
253	0xbf5e2603	-0.8677675
254	0x3e36b83e	0.1784372
255	0x3e89b033	0.26892242

fc2.weight f4 [300, 400]
0	0x3ffcf917	1.9763516
1	0xbf231233	-0.63699645
2	0xbb5abbb9	-0.0033376052
3	0x3f2f9d03	0.68598956
4	0xbbd4ef0b	-0.0064982227
5	0xbf60889d	-0.87708455
6	0xbfa2c833	-1.2717346
7	0xbfa2909d	-1.2700382
8	0x3d3ed542	0.046590097
9	0x401a9add	2.415702
10	0x3f9151d9	1.1353103
11	0x3ca485d5	0.020083347
12	0x3ec3ff5c	0.3828076
13	0xbf0866cc	-0.53281856
14	0xbe541c4c	-0.2071392
15	0xbc7114b5	-0.01471441
16	0x3e43b0fc	0.19110483
17	0xbf9ae61b	-1.2101473
18	0xbe196a4c	-0.14981955
19	0x3f3ef4a1	0.74592024
20	0xbfc2b994	-1.5212884
21	0xbf0ccf95	-0.55004245
22	0x3db2e00d	0.087341405
23	0xbf97e280	-1.1865997
24	0xbefdbe66	-0.49559325
25	0x3f1dc855	0.6163381
26	0xbea9d6e8	-0.33171773
27	0x3f6bd07b	0.9211499
28	0x4019cc4a	2.4030938
29	0xbdc389b3	-0.095477484
30	0xbfda9ce3	-1.7079128
31	0x3d822c86	0.063561484
32	0xbfa9040b	-1.3204359
33	0xbe16df16	-0.14733538
34	0xbf0685a0	-0.52547646
35	0xbe88c8fb	-0.26715836
36	0xbf05fa6b	-0.5233523
37	0xbd653193	-0.05595548
38	0xbfbe6b3c	-1.4876475
39	0x3e40466c	0.18776864
40	0x3e1dc4fd	0.15407176
41	0xbd9dd8e0	-0.07707381
42	0xbf70067e	-0.93759906
43	0xbd566aea	-0.052348055
44	0x400d42b8	2.2071972
45	0xbed105d4	-0.4082476
46	0xbff7fd88	-1.9374247
47	0x3e09108a	0.13385215
48	0xbfc584a3	-1.5431103
49	0xc0247fbd	-2.5702965
50	0x3f9b5e3a	1.2138131
51	0xbf98d1d8	-1.1939039
52	0xbece0344	-0.40236866
53	0xc00052f7	-2.0050638
54	0xbd519fd7	-0.051177826
55	0xbea197b2	-0.31561047
56	0xbf6f59dd	-0.93496495
57	0x3dc1a687	0.09455591
58	0xbfc66249	-1.5498744
59	0xbfa0765e	-1.2536123
60	0xbbcd3682	-0.0062626014
61	0x3f0595d8	0.5218177
62	0xbe71b3a5	-0.23603685
63	0x3df9d949	0.12199647
64	0xbc93aadd	-0.01802581
65	0x3e875411	0.26431325
66	0x3d1b3602	0.037893303
67	0xbfe7893d	-1.8088757
68	0x3fc88921	1.5666848
69	0x3f7ec5b8	0.99520445
70	0xbf86fcf5	-1.0545946
71	0x3e06d445	0.13166912
72	0x3e87fb63	0.2655898
73	0xbbf5effd	-0.0075054155
74	0xc005cf14	-2.090764
75	0x3d0885b1	0.033330623
76	0x3f82d3f5	1.0220934
77	0xbe9aafac	-0.30212152
78	0x3ef07178	0.4696157
79	0xbd688501	-0.056767467
80	0xbfc3c4d4	-1.5294442
81	0x3f832c8e	1.0247972
82	0xbec96cbc	-0.3934077
83	0xbecda74b	-0.40166697
84	0xc00defb2	-2.2177548
85	0x3f5e3840	0.8680458
86	0xbfe2aa72	-1.7708266
87	0xbfd1ebe7	-1.6400117
88	0xbdf32042	-0.11871387
89	0xbfb1f941	-1.3904191
90	0x3fd334a6	1.6500442
91	0xbe455d5c	-0.19273895
92	0xbfce8748	-1.6135035
93	0x3f405b13	0.7513897
94	0xbf6d82bc	-0.9277761
95	0x4006dc6e	2.107204
96	0x3f2a1972	0.66445076
97	0xbf8259e8	-1.0183687
98	0x3fa590f2	1.2934859
99	0xbd2c9e43	-0.042143118
100	0xbf75a818	-0.95959616
101	0x3d1569bd	0.036477793
102	0xbfb1fd64	-1.3905454
103	0xbb8ca8f0	-0.0042926
104	0xc034a886	-2.8227859
105	0xbd5d993e	-0.05410122
106	0x3e160ce3	0.14653353
107	0xbf36797e	-0.7127913
108	0xbd794bbf	-0.060863253
109	0x3e2b3442	0.16719154
110	0x3e3ee344	0.18641382
111	0xbf91208b	-1.1338056
112	0xbf369f32	-0.7133666
113	0xbca9d28c	-0.02073028
114	0xbfb8f22e	-1.4448907
115	0x3f78f176	0.9724344
116	0x400a30b3	2.1592224
117	0xbbbe8d5b	-0.0058151907
118	0x3e1e05a3	0.15431838
119	0xbf6d538e	-0.9270562
120	0xbe825f4d	-0.25463334
121	0x3d2fc1de	0.042909496
122	0x3f0144ba	0.50495493
123	0x3edcfc09	0.43161038
124	0x3eccbe48	0.39988923
125	0x3fb0d24b	1.3814176
126	0xbd3047dd	-0.043037284
127	0x3f1c639b	0.61089486
128	0xc05b3005	-3.4248059
129	0xc018ec2b	-2.3894145
130	0xbf8987eb	-1.0744604
131	0xbf9694bd	-1.1764141
132	0xbeb8b175	-0.3607289
133	0x3f6458f7	0.8919825
134	0x3f9b1fd9	1.2119094
135	0x3f089063	0.53345317
136	0x3efdc09b	0.4956101
137	0x3f01c7ed	0.5069569
138	0xbf68970e	-0.9085549
139	0x3f856417	1.042117
140	0x3e32fccb	0.17479245
141	0xc0282ed2	-2.6278577
142	0x3f53ee58	0.8278556
143	0xbfabe669	-1.3429691
144	0x3f36cc8d	0.7140587
145	0x3e2c94c8	0.1685363
146	0x3f080f68	0.5314851
147	0xbdf36ea6	-0.11886339
148	0x3f07f6a4	0.5311072
149	0xbd8430a3	-0.06454589
150	0xc0017063	-2.0224845
151	0xbf737bf8	-0.95111036
152	0xc00a0aa8	-2.1569004
153	0x3eb91ef4	0.36156428
154	0x3ea0f215	0.31434694
155	0x3d40969c	0.047018632
156	0x3c30899e	0.010774998
157	0xc01370c2	-2.3037572
158	0xbff1ec6c	-1.8900275
159	0x3e7d9978	0.24765575
160	0x3ef845b2	0.48490673
161	0xbe1f846b	-0.15577857
162	0x3f132608	0.57479906
163	0xbf333f0d	-0.7001808
164	0x3ed7dc57	0.42160293
165	0xbc456730	-0.012048528
166	0x3f97f4c0	1.1871567
167	0x3dd817d7	0.10551422
168	0xbfa8c648	-1.3185511
169	0x3eb17144	0.34656727
170	0x3ece9b22	0.40352732
171	0x3f9a07e0	1.2033653
172	0x3eecf9b4	0.46284258
173	0x3fc5bb20	1.5447731
174	0x3fbc24b7	1.4698704
175	0x3f5b1d0e	0.8559121
176	0x3d9d4ccb	0.07680663
177	0xc059980c	-3.3999052
178	0x3f42d1ef	0.76101583
179	0xbdff8a96	-0.12477605
180	0x3ea2b9d0	0.3178239
181	0x3f0a755c	0.54085326
182	0xbfea6f32	-1.8315184
183	0xbebe2f1c	-0.37145317
184	0xbf762300	-0.96147156
185	0x3e59c2c4	0.21265703
186	0x3f08dd79	0.5346294
187	0xbfcd6270	-1.6045666
188	0x3c7e6e02	0.015529158
189	0xbfa978b9	-1.3239967
190	0x3e9a53e8	0.3014214
191	0xbf11cf7f	-0.5695724
192	0xbf765178	-0.9621806
193	0xbfde445c	-1.7364612
194	0xbf2860db	-0.6577279
195	0xbffcfd93	-1.9764885
196	0xbe33c698	-0.17556226
197	0xbec9fdae	-0.39451355
198	0xc01e3284	-2.4718332
199	0x3f64f8b8	0.89442015
200	0xbe19b278	-0.15009487
201	0x3f89ded4	1.0771127
202	0x3f927981	1.144333
203	0xbe5f6f4b	-0.21819799
204	0x3d9de6ee	0.07710062
205	0xbe0d50c4	-0.13800341
206	0x3f6b9a4a	0.920323
207	0xbfa2209e	-1.2666204
208	0x3f2d97a0	0.67809486
209	0xbe3e479e	-0.18582007
210	0xc02c89e5	-2.6959164
211	0x3e81e47c	0.25369632
212	0xbe8acc4c	-0.2710899
213	0x3f00625c	0.50150084
214	0xbe022922	-0.12711003
215	0xbf32a40b	-0.6978156
216	0xbe35725c	-0.17719406
217	0x3f3d6327	0.7397942
218	0x3d838b25	0.06423024
219	0xbf41dac2	-0.7572442
220	0x3e34e001	0.17663576
221	0xbfdbcdd6	-1.7172191
222	0xbf8acba0	-1.0843391
223	0xbfb45fd5	-1.4091746
224	0xc00a18ea	-2.1577706
225	0x3e214cf3	0.1575201
226	0xbc268c8e	-0.010165347
227	0xbe2692f0	-0.1626699
228	0xbe38a95c	-0.18033355
229	0x3b12fbf6	0.0022428012
230	0xbe63247b	-0.22181885
231	0xbfc53f94	-1.5410028
232	0xbf11cf19	-0.5695663
233	0x3c3ed257	0.011646829
234	0x3f1d8fa3	0.615473
235	0xbfa2de17	-1.2724026
236	0xbf6cbed0	-0.92478657
237	0xbfe5d384	-1.7955174
238	0xbfcdf0f0	-1.6089153
239	0xbf542266	-0.8286499
240	0xbed65d9a	-0.41868287
241	0xbfe6c8b0	-1.8029995
242	0x3d263668	0.04057923
243	0xbf0b4e80	-0.54416656
244	0x3d7fe243	0.06247164
245	0xbeb80bc6	-0.35946482
246	0x3d944435	0.07239572
247	0xbf29a2d2	-0.6626407
248	0x3f479ae0	0.77970695
249	0xbf5d116b	-0.863547
250	0xbf4e5963	-0.80605143
251	0x3f6098fd	0.8773344
252	0xbd606c2a	-0.054790653
253	0x3f27844c	0.65436244
254	0x3fa7fcd4	1.3124032
255	0xc02c9a7d	-2.6969292

fc2.bias f4 [300]
0	0x3f0f0289	0.55863243
1	0xbe200428	-0.15626585
2	0xbdd7e92c	-0.10542521
3	0xbd8770e7	-0.06613331
4	0xbfb1322f	-1.384344
5	0xbed6385c	-0.41839874
6	0xbd91105b	-0.07083198
7	0xbe3260c8	-0.17419732
8	0xbf03a645	-0.5142558
9	0xbdb2704f	-0.087128274
10	0xbd794e1f	-0.060865518
11	0xbe6d8ba7	-0.23197804
12	0xbdbd04ae	-0.09229408
13	0xbdc4d357	-0.096106224
14	0xbdc8bbf1	-0.09801472
15	0xbf80f6bd	-1.0075299
16	0xbe0175af	-0.12642549
17	0x3d9f43c1	0.07776595
18	0xbf363a00	-0.7118225
19	0xbdc9a113	-0.098451756
20	0xbfa89c40	-1.3172684
21	0xbf6b75ac	-0.9197643
22	0xbee625a2	-0.44950587
23	0xbe31c804	-0.17361456
24	0x3e5bd8a8	0.21469367
25	0x3eaa56ba	0.33269292
26	0xbed5a454	-0.41726935
27	0xbdfd7a68	-0.12376863
28	0xbf2a0eca	-0.66428816
29	0xbfc0cfd5	-1.5063425
30	0xbd97281c	-0.07380697
31	0x3fdafc1b	1.7108186
32	0xbd9cf3f5	-0.076637186
33	0xbd996ac3	-0.07491066
34	0x3e99cd33	0.30039367
35	0xbcc48381	-0.023988487
36	0xbd99632a	-0.07489617
37	0xbd5a41a6	-0.053285263
38	0xbe07eae5	-0.13273199
39	0xbda13429	-0.07871277
40	0xbd8a6d4b	-0.06759127
41	0xbd42e57d	-0.04758214
42	0xbf553d87	-0.8329701
43	0xbcdf446e	-0.02725431
44	0xbf3586ff	-0.7090911
45	0xbd7fa671	-0.06241459
46	0xbecc42bc	-0.39894664
47	0x3bfe17f0	0.0077543184
48	0xbdd0b06d	-0.101899005
49	0xbe15492b	-0.14578693
50	0x3c3cbc9a	0.0115195755
51	0x3f867c81	1.0506746
52	0xbde4852d	-0.11158214
53	0xbd8f6aae	-0.070027694
54	0xbe812032	-0.25219876
55	0xbeab70d5	-0.33484522
56	0xbe96f61b	-0.2948464
57	0xbc9f03b0	-0.019410938
58	0xbef013bc	-0.46890056
59	0x3cb0c698	0.021579072
60	0x3d0d7e93	0.03454454
61	0xbf07967f	-0.52964014
62	0xbf0dc5f7	-0.55380195
63	0x3edae1c0	0.4275036
64	0x3ef3b041	0.4759541
65	0xbd5fccae	-0.054638557
66	0xbf818ff3	-1.0122055
67	0xbe01c7cd	-0.12673874
68	0x3e9d0e8d	0.30675164
69	0x3f5e5bbe	0.8685874
70	0xbe1e5068	-0.1546036
71	0xbd871b83	-0.06597044
72	0xbeddda15	-0.43330446
73	0xbe0d8794	-0.1382125
74	0xbda71226	-0.081577584
75	0xbf5c80f5	-0.8613427
76	0xbd5953cf	-0.05305844
77	0xbe97364d	-0.29533616
78	0xbe72e4c5	-0.23720081
79	0xbf742845	-0.95373946
80	0xbfc9ec4e	-1.577524
81	0xbd1af30a	-0.037829436
82	0xbeb0b6c9	-0.34514454
83	0xbd68d3ff	-0.0568428
84	0xbe328209	-0.17432417
85	0x3f2e3225	0.68045264
86	0xbd691f55	-0.056914646
87	0xbef3f4e3	-0.4764777
88	0xbf33f580	-0.7029648
89	0xbd539114	-0.05165203
90	0xbf2e270b	-0.68028325
91	0xbe749033	-0.23883133
92	0x3ea7c305	0.32765976
93	0xbd4f498b	-0.050607245
94	0xbddbb2ce	-0.10727464
95	0xbd527d7b	-0.0513892
96	0xbec8b05d	-0.39197055
97	0xbe45d540	-0.1931963
98	0xbef0d66c	-0.4703859
99	0xbe1af95b	-0.15134184
100	0xbea9c1d0	-0.3315568
101	0xbf6df21e	-0.92947567
102	0xbea33d67	-0.31882784
103	0xbdca0d53	-0.09865823
104	0xbf3225ed	-0.6958912
105	0x3f0a5618	0.5403762
106	0x3dce4b57	0.10072964
107	0x3f70c15d	0.9404505
108	0xbf1df76c	-0.6170566
109	0xbf1f5d16	-0.6225141
110	0xbe6d6e03	-0.23186497
111	0xbfa3d5c6	-1.2799613
112	0xbdbe2580	-0.09284496
113	0xbfafb04d	-1.3725678
114	0xbe57e1a9	-0.21082176
115	0xbdb3ad9d	-0.087733485
116	0xbf3a7e36	-0.7284883
117	0xbf171a68	-0.5902467
118	0xbf44e303	-0.7690889
119	0xbd0b8a9c	-0.034067735
120	0xbf00d009	-0.50317436
121	0xbf7f47dc	-0.99719024
122	0xbf69d570	-0.91341305
123	0xbee98d52	-0.4561563
124	0xbebcc1d1	-0.3686662
125	0xbdf88fef	-0.12136828
126	0xbf2cce4e	-0.67502296
127	0xbe7825db	-0.2423319
128	0xbe525b03	-0.2054253
129	0xbe464efe	-0.1936607
130	0xbd1ab218	-0.0377675
131	0xbe224e40	-0.15850163
132	0xbdcca01b	-0.09991475
133	0xbfb9a7a2	-1.4504282
134	0xbe2ad271	-0.1668184
135	0xbe89d81b	-0.26922688
136	0xbd62f467	-0.05540886
137	0xbe4c2550	-0.19936109
138	0xbe04f632	-0.12984541
139	0xbd04d58b	-0.032430213
140	0x3dac28f2	0.08406247
141	0x3d2a6010	0.04159552
142	0xbd60b8b0	-0.05486363
143	0xbdcb0a19	-0.09914035
144	0xbef1655b	-0.4714764
145	0xbef49c50	-0.47775507
146	0xbd5b2ec4	-0.053511396
147	0xbdfd285c	-0.123612136
148	0x3ed907e1	0.42388824
149	0xbd7e0035	-0.062011916
150	0xbf185563	-0.5950529
151	0xbc93f5d1	-0.01806155
152	0xbe0b2094	-0.13586646
153	0xbe2e0625	-0.16994531
154	0xbf88b504	-1.0680242
155	0xbeb092c6	-0.3448698
156	0xbddbedeb	-0.107387386
157	0xbf25f954	-0.6483357
158	0xbb25fd4c	-0.0025327979
159	0xbe9518f2	-0.29120594
160	0xbd0553e6	-0.032550715
161	0xbdfc2551	-0.12311805
162	0xbe37a4e0	-0.17933989
163	0xbe48d0c3	-0.19610886
164	0x3e8bd38a	0.2730983
165	0xbe7abeea	-0.2448689
166	0x3b74ceb6	0.0037354655
167	0xbdb1fe0c	-0.08691034
168	0xbd5de697	-0.054174986
169	0xbe00d3a3	-0.12580733
170	0xbdf83cb1	-0.12120951
171	0xbfb227a1	-1.3918344
172	0xbdfbbf27	-0.12292319
173	0xbd314d40	-0.043286562
174	0x3e86a571	0.26298097
175	0xbd84bdc5	-0.06481508
176	0xbdd5b8ec	-0.10435662
177	0xbe9ff662	-0.31242663
178	0xbdb12462	-0.086495176
179	0xbdbd7c7d	-0.0925226
180	0xbd164a11	-0.03669173
181	0xbee24ae3	-0.4419776
182	0xbe8ebfcc	-0.27880704
183	0xbdf7c501	-0.120981224
184	0xbeed6e36	-0.46373147
185	0xbed80eb8	-0.4219873
186	0xbd9199b0	-0.07109392
187	0xbd867a0a	-0.06566246
188	0xbce7397a	-0.02822565
189	0xbdce4608	-0.10071951
190	0xbe141a33	-0.14463119
191	0xbf565110	-0.8371744
192	0xbf24abde	-0.6432475
193	0xbe160cdb	-0.14653341
194	0x3f0c1add	0.5472849
195	0xbd653927	-0.055962708
196	0xbf4ed9b3	-0.8080093
197	0xbe9beee3	-0.30455694
198	0x3f2cbd6a	0.6747652
199	0xbf459fd6	-0.77197015
200	0xbdebb49b	-0.11509057
201	0x3eaea670	0.34111357
202	0xbd5f787c	-0.054558262
203	0xbd39652a	-0.045262493
204	0xbec05ff3	-0.37573203
205	0xbf465c4a	-0.7748457
206	0xbd857ecc	-0.06518325
207	0xbf215227	-0.6301598
208	0xbfdb2fac	-1.7123923
209	0xbe709cfe	-0.23497388
210	0xbdd512ca	-0.10403974
211	0xbe12980f	-0.14315818
212	0xbe34bb51	-0.1764958
213	0xbfffeb21	-1.9993631
214	0x3cdd8b53	0.027043974
215	0xbf37c08f	-0.71778196
216	0xbdd493e6	-0.10379772
217	0xba47685a	-0.0007606797
218	0x3d0b0c0e	0.033947043
219	0xbcc4f5d8	-0.024043009
220	0xbf1e612e	-0.61867034
221	0xbfa0a0cf	-1.2549075
222	0xbf3db2d6	-0.74101007
223	0xbf1b06d3	-0.6055729
224	0xbd4aea43	-0.049539816
225	0xbdacc4bc	-0.084359616
226	0x3ebeb2d9	0.37245825
227	0x39a8290b	0.00032074036
228	0xbd20791b	-0.039177995
229	0xbd8e5b7c	-0.06951043
230	0xbd3d6b03	-0.046244632
231	0xbbb4cdef	-0.0055177133
232	0x3e50af59	0.2037939
233	0xbe5704ac	-0.20997876
234	0xbe61ad3f	-0.22038744
235	0xbe425f27	-0.1898161
236	0xbf2f7f41	-0.6855355
237	0xbd106a97	-0.035257902
238	0xbed6ff01	-0.41991428
239	0xbec468ce	-0.3836121
240	0xbd500fe1	-0.050796393
241	0xbe881c39	-0.26584032
242	0xbe8074c6	-0.2508909
243	0xbdcfbee9	-0.10143835
244	0xbd5e8488	-0.05432561
245	0xbe20a23b	-0.15686886
246	0xbfae9f07	-1.3642281
247	0xbe9eb4d6	-0.30997342
248	0xbe7ba15b	-0.24573271
249	0xbedf95c2	-0.43668944
250	0xbdfa23cd	-0.1221386
251	0xbc5c29d0	-0.013437703
252	0xbd1b2de4	-0.03788556
253	0xbf0855b6	-0.53255785
254	0xbc11392b	-0.008863728
255	0xbcbcdd6a	-0.023054797

fc3.weight f4 [4, 300]
0	0x3fa7199d	1.3054692
1	0x3d15bb9d	0.036555875
2	0x3d2cf942	0.0422299
3	0xbd099cd8	-0.033596843
4	0xbfaac27e	-1.3340604
5	0xbf6d6334	-0.92729497
6	0x3da340e0	0.07971358
7	0x3e09dbc1	0.13462736
8	0x3fac9152	1.3481848
9	0x40173c83	2.3630683
10	0xbd3f4ff0	-0.046707094
11	0x3d4a307f	0.049362656
12	0xbb83ed6e	-0.0040261066
13	0x3c967346	0.018365514
14	0x3d81db9a	0.06340714
15	0xbfdcad83	-1.7240452
16	0x3d638863	0.05554999
17	0xbf185d2f	-0.59517187
18	0xbf177340	-0.5916023
19	0x3d0cc218	0.03436479
20	0xbf53c34e	-0.82719886
21	0xc007bf7a	-2.1210618
22	0x3dc99e95	0.098447
23	0xbcf2140a	-0.029550571
24	0xbd83ac13	-0.06429305
25	0x3f3888a3	0.7208349
26	0xbf482878	-0.7818675
27	0xbca3bb23	-0.019986695
28	0x3ed99285	0.42494598
29	0xbfd732f8	-1.681243
30	0x3d434454	0.047672585
31	0xbddef3f9	-0.10886378
32	0x3be6cb68	0.007043291
33	0x3b5b0e22	0.0033425172
34	0x3f554f14	0.8332379
35	0x3c8ad3dd	0.016946727
36	0x3d54b3c2	0.051929243
37	0x3e2a1fa1	0.16613628
38	0x3dbfe7e5	0.09370402
39	0xbd54561a	-0.051839925
40	0x3c8caa2c	0.017170988
41	0xbcab4fb0	-0.020912021
42	0xbf74a841	-0.95569235
43	0x3c9315d4	0.017954744
44	0x3efdb83d	0.49554625
45	0x3c3758bb	0.011190589
46	0x3ccedc7d	0.025251621
47	0x3f462312	0.77397263
48	0x3e9d6d42	0.3074742
49	0x3dc5bdd3	0.09655347
50	0x3dd844b0	0.10559976
51	0xbf2004e8	-0.62507486
52	0x3dc16f89	0.09445102
53	0x3c5af878	0.013364904
54	0xbe274a6b	-0.16336982
55	0xbf10d602	-0.5657655
56	0xbecd88a4	-0.4014331
57	0xbf1e3123	-0.61793727
58	0x3fe7019e	1.8047369
59	0x3db675cd	0.089091875
60	0x3e880a51	0.2657037
61	0xbeea1041	-0.45715526
62	0x3f1cbab3	0.6122238
63	0xbcb4bfb6	-0.022064071
64	0x3f123538	0.57112455
65	0x3d404d6e	0.046948843
66	0xbed5e5fa	-0.4177702
67	0xbbccef58	-0.006254118
68	0xbf33e68f	-0.7027368
69	0x3efce3fa	0.49392682
70	0x3ea0a0bc	0.3137263
71	0x3f097ad6	0.5370306
72	0xbf97d5ad	-1.1862084
73	0x3d419258	0.047258705
74	0xba7b8701	-0.0009595007
75	0xbf94deb5	-1.1630465
76	0x3ffd6422	1.9796183
77	0x3df3d64d	0.11906109
78	0xbf78dc02	-0.97210705
79	0x3f638787	0.88878673
80	0x3f2cba8e	0.6747216
81	0x3a4ef1b1	0.0007894291
82	0xbe801178	-0.25013328
83	0x3ac062a8	0.0014677839
84	0x3e9670be	0.2938289
85	0xbf8ef763	-1.1169246
86	0xbd0ec17e	-0.034852497
87	0xbf23080e	-0.63684165
88	0xbe53ba19	-0.2067646
89	0xc021bd75	-2.5271885
90	0xbf45e793	-0.7730648
91	0xbddfde99	-0.10931129
92	0xbfa8499e	-1.3147466
93	0x3ce8cfca	0.028419394
94	0xbc358a53	-0.011080342
95	0x3e9ca66f	0.3059573
96	0xbe543545	-0.20723446
97	0x3c13e9bb	0.009027894
98	0x3e50d717	0.2039455
99	0x3cd559da	0.026043821
100	0xbf1dd887	-0.6165852
101	0xbfe022cf	-1.7510623
102	0xbe57bebc	-0.21068853
103	0xbcf5abc4	-0.02998913
104	0x3fb348f1	1.4006635
105	0x3f80b9e3	1.0056728
106	0xbec39a53	-0.38203678
107	0x3e486d5e	0.1957297
108	0x3d66c105	0.05633642
109	0xbe918858	-0.28424335
110	0xbf8a8cd5	-1.0824229
111	0x3ea34ebc	0.31896007
112	0x3d685f83	0.056731712
113	0xbf244c2e	-0.6417874
114	0xbf1f2b35	-0.62175304
115	0xbd416ac8	-0.047220975
116	0x3d6eeb89	0.058330093
117	0xbedd3f78	-0.43212485
118	0xbeb72770	-0.35772276
119	0x3d5e99e0	0.054345965
120	0xbe897fa0	-0.26855183
121	0x3f74bd5e	0.9560145
122	0x3f1809ed	0.59390146
123	0xbf78d452	-0.97198975
124	0xbe4683a5	-0.19386156
125	0x3c90ed6f	0.017691342
126	0x3e80a37f	0.25124738
127	0x400894f7	2.134092
128	0x3eb98c59	0.3623989
129	0x3f97bff0	1.185545
130	0x3dfd4e25	0.123684205
131	0xc02bc48f	-2.683872
132	0xbda51f88	-0.08062655
133	0xbf5e6a53	-0.8688099
134	0x3eeea826	0.46612662
135	0xbba99f59	-0.0051764664
136	0xbeae79b6	-0.34077233
137	0xbdac627f	-0.08417224
138	0x3e403831	0.18771435
139	0x3dbba9bb	0.09163233
140	0xbdca99e6	-0.09892635
141	0xbe518239	-0.20459832
142	0x3cddfe43	0.02709878
143	0xbe5e4501	-0.2170601
144	0x3f8fb383	1.1226658
145	0x3f8560ad	1.0420128
146	0x3ef34a61	0.47517684
147	0x400e7b17	2.2262628
148	0x3e11a0cf	0.142215
149	0x3d85cf7c	0.06533715
150	0x3f83b70d	1.0290238
151	0x3d6f4528	0.058415562
152	0xbbabcb48	-0.005242739
153	0xbcd7193c	-0.02625715
154	0xbfb85e48	-1.4403772
155	0xbcc06005	-0.023483286
156	0xbfb330b5	-1.3999239
157	0xbdbd6ff9	-0.09249873
158	0x3de6ba95	0.112660564
159	0xbecff7b7	-0.4061868
160	0xbc88582d	-0.016643608
161	0x3d06c3e1	0.03290165
162	0xbc05aaa1	-0.008158357
163	0xbd31d158	-0.043412536
164	0xbf333225	-0.6999839
165	0xbd59987c	-0.053123936
166	0x3eab2b92	0.3343168
167	0xbd08c7b0	-0.03339356
168	0xbd132c6c	-0.035931036
169	0x3eb1ceb5	0.34728017
170	0xbcbe6776	-0.023242693
171	0xbf2567aa	-0.64611304
172	0x3cb08457	0.02154748
173	0xbdc661f6	-0.09686653
174	0x3fcbf7b9	1.5934974
175	0x3dcbcdac	0.09951338
176	0x3bd0d841	0.0063734357
177	0x3f0f6c18	0.5602431
178	0x3c955dc9	0.018233197
179	0xbdb9e371	-0.09076584
180	0xbdf692b6	-0.12039702
181	0x3fac9a15	1.3484522
182	0xbf567ccf	-0.8378419
183	0xbdaed9f1	-0.08537663
184	0x3fe51d8e	1.7899644
185	0x3f0de8cd	0.5543335
186	0xbc1c781e	-0.009550123
187	0x3fac7396	1.3472774
188	0x3f8c84fb	1.0978082
189	0x3d80ebd9	0.06294984
190	0xbf2510e5	-0.64478904
191	0x3d0f859c	0.03503953
192	0x3f828dd8	1.0199537
193	0xbdbb1025	-0.09133939
194	0x3f9b9c9b	1.2157167
195	0x3c647f1e	0.013946323
196	0x3e31e0b6	0.17370877
197	0xbf84fe76	-1.0390155
198	0x3e888ede	0.266715
199	0xbda95f16	-0.08270089
200	0x3e9f8749	0.31157902
201	0x3f4e9c79	0.8070751
202	0x3d92f112	0.07174887
203	0xbd2fbc2a	-0.042904057
204	0xbe84789a	-0.25873262
205	0x3deaf658	0.114727676
206	0xbdde0e99	-0.10842628
207	0x3ecada25	0.39619556
208	0xbfe9c190	-1.8262196
209	0x4016fc71	2.3591578
210	0x3dfb7b20	0.122793436
211	0x3d78c81c	0.060737714
212	0x3f6511b9	0.8948017
213	0xbf22c7e1	-0.6358624
214	0x3d8158db	0.06315776
215	0x3fad3af8	1.3533621
216	0xbede0ada	-0.43367654
217	0x3e047d48	0.12938416
218	0xbf1a6739	-0.60313755
219	0xbc87561c	-0.016520552
220	0xbf914e17	-1.1351956
221	0xbf17c723	-0.59288234
222	0x3f7bc579	0.98348194
223	0xbfc7b10a	-1.5600903
224	0x3c03b343	0.008038345
225	0x3e557beb	0.20848052
226	0xbf580fa0	-0.8439884
227	0x3f78f4d9	0.9724861
228	0x3eec7c83	0.46188745
229	0x3d992e49	0.07479531
230	0xb9ea432e	-0.0004468201
231	0x3ef1c61c	0.47221458
232	0x3dec07c3	0.11524918
233	0xbed93818	-0.4242561
234	0xbd386269	-0.045015726
235	0x3e5c1609	0.2149278
236	0xbfdd855a	-1.7306321
237	0xbf911f8e	-1.1337755
238	0xbf3d10bd	-0.73853666
239	0x3f285072	0.6574775
240	0x3d52af47	0.05143669
241	0x3cebbf55	0.028777758
242	0xbedb6542	-0.4285069
243	0xbc0fcb0f	-0.00877644
244	0xbc2a1186	-0.0103801545
245	0xbde83791	-0.113387235
246	0x3f8660c5	1.0498282
247	0xbef82fea	-0.48474056
248	0x3dff2f6a	0.124602154
249	0xbf3e4bf4	-0.74334645
250	0xbc5c6fc3	-0.01345438
251	0x3d365fd1	0.04452497
252	0x3e587644	0.21138865
253	0x3d4f9917	0.050683107
254	0xbec300ec	-0.3808664
255	0xbf01ada4	-0.5065558

fc3.bias f4 [4]
0	0xbfa1d68b	-1.2643598
1	0x3eb206ae	0.3477072
2	0x404bedcb	3.1863887
3	0x3e76483d	0.24050994
