expTD3_BipedalWalker-v2.pyBipedalWalkerHardcore-v3./actor_target.pth (torch, 527831 bytes, 6 tensors)

fc1.weight f4 [400, 24]
00000000: 047f ccbd 25bf 9f3f 03a4 ecc0 6bc1 af3f
00000010: 319f cabf a888 f9bf a2e1 8dbf 5666 dd3f
00000020: 82f1 f4be aaeb 353f 1f3d 19bf 4a3d f2be
00000030: ce8f 913f 2de1 64bf a77f 97bf 844e 7abf
00000040: 4bc6 19bf ef59 8cbe 0577 883d 560d 403d
00000050: 8cca 6b3d 15bc e7bc cbca 48be bc73 98be
00000060: 6cb6 003f c96e cf3e 644d 883f 9469 82bf
00000070: dd85 0cbf 9b03 f7be adea 093f 5477 07c0
00000080: 94f6 f7be c1bf 51be 48a8 bbbd be3f 133f
00000090: 0eb7 28be 0eb1 a93f ba1f 5ebf ce74 99be
000000a0: 94aa 8c3e 91c1 d23e 4b7e 743c 6e92 1fbf
000000b0: be59 97bf 3dba 89bf ce68 9bbf fc78 7ebf
000000c0: e990 4ebc 5ba0 803d b53b 9fbc 193b c23d
000000d0: 686b 4ebd 1d2b 183e 33a1 733d 68c3 373d
000000e0: 7d5f 953d ee9f a33d 0e1b 293e 615b 5c3e
000000f0: b345 7c3d bece 29be 516e caba f0dd babe
00000100: 019d 43be 7cb0 7bbe bfeb 20be c7e2 2bbe
00000110: 5258 d6bd ee30 90be 6775 abbe 5546 8bbe
00000120: e604 0640 7bec ef3f 9240 733f 31cf d03f
00000130: f3e0 b03f 1427 cabe 2d06 9e3f b2d5 2a3f
00000140: 33ba 1dc0 aa66 0ebf 478f 1e3e 6de3 863f
00000150: 77a7 4fbf 4416 fdbf 1525 efbe 1ff9 6bbe
00000160: 3bd1 cd3f 4a8f c63f b29e 92be b326 54bf
00000170: 3760 b0be 9eaf b33e 5a91 2bbf 6eed 44bf
00000180: 8008 1ac0 e368 99c0 aa75 843f 4be1 52c0
00000190: 09b5 16bf b305 15bf 6591 543f 10b2 6bbe
000001a0: 2679 18c0 602c a6bf 8df1 423f 6f7e f93e
000001b0: 0953 883d 507f 81bd b9bc dbbd 78d0 023e
000001c0: 1058 8b3d f1bb 03be 6429 273f 9542 27be
000001d0: 048e 37bf 73aa 03bf 315d 12bf 8f01 e13d
000001e0: 2282 0840 9823 6abd 3b8c 04c0 aa71 dd3f
000001f0: 5d3e 9ebe b1bf b23e 709f e6bf 1160 01bf
00000200: 9596 aa3f 68ee 203e 9fdf 9bbf 9d36 d23b
00000210: 41ec 94bf f132 2ec0 5eba 6cbe 2196 31bf
00000220: dfbc 54bf 2c26 68bf 47f8 69bf cf74 22bf
00000230: 8707 753e 03c2 b23e 095c 89be 732b 3ebe
00000240: 6542 43bf 1a56 5f3e 3310 67bf 360c 5640
00000250: 7cf5 1f3f 3450 fcbe 9af6 613f 0966 19bf
00000260: b1f0 6dc0 d4b8 223f c57b 0d3d 8763 973f
00000270: 8ecb 063e a04f 3140 67cc 43bd 9956 a7be
00000280: 63ee 22be 79e2 90be 6512 003f 0e05 953e
00000290: e647 723f 8de7 923f d32e 0dbe cf9b 62be
000002a0: d753 33c0 c5cd 26bd 128e 0b3f 2fa6 d8bf
000002b0: 35ce 2fbe 0f88 5bbf 791e f53f 7545 98be
000002c0: 64a0 02be a563 2740 1106 0cbe 564a 71bf
000002d0: 3322 813f 7306 6ebf 8514 983e bb9c 35bf
000002e0: 828b 8cbf 9b61 a3bf 5c8e 72bf e01e 58bf
000002f0: cbb8 a6be e77f 02bf 919d dbbe 8bce 693b
00000300: 9384 713c 664d a13d 5153 dbbe bcaa fd3e
00000310: ea88 603d c301 f9bb 7e8e a23c 6d88 903d
00000320: 20e8 b7be 0272 5fbd f228 6d3e 674d babc
00000330: acfb 02be bd0b 0bbd 0289 57bd b0d6 b6be
00000340: 35b9 88bc 182c b8bd af1f afbe ac99 71bd
00000350: be32 91be d441 f9bd 9552 8abe 1219 d3bd
00000360: 0aba 0c40 e05a 80be 4c39 733f 4f5a f1bf
00000370: 1299 ad3f 91f3 b33d ade5 4040 5906 a43f
00000380: c3e1 f0be 2eb1 103e e241 90bf 3ef8 91bf
00000390: 7d1f fbbc b12f 18bf 233c b3bf b759 93bf
000003a0: 0592 ed3e 22fb 0f40 9d8b c73f 1076 46bf
000003b0: ce4b 05c0 4963 ebbf f44b a8be e802 24bf
000003c0: 4a8e 35be 6a03 023e 2438 a0c0 0fd3 8d3f
000003d0: 229b d53f acbe 34be 3fd1 41be d91b b9bd
000003e0: 4a78 d43e 2b7e 723e 9ab4 65be 2208 e9be
000003f0: dd68 f8be c3e0 84bf 07ed a03e a624 a7bb
-0.09985164 1.2480208 -7.395021 1.3730901 -1.5829831 -1.9494829 -1.1084483 1.7296855
-0.47840506 0.7106272 -0.5985889 -0.47312385 1.1372011 -0.8940609 -1.1835831 -0.97776055
-0.60068196 -0.27412364 0.06663326 0.04688772 0.05756621 -0.028287927 -0.1960861 -0.29775798
0.50278354 0.4051421 1.0648618 -1.018847 -0.5489176 -0.48244938 0.5387371 -2.1166582
-0.48430312 -0.20483305 -0.091629565 0.5751914 -0.1647608 1.3257158 -0.8676716 -0.29971927
0.2747389 0.41163304 0.014922689 -0.6233281 -1.1824262 -1.075996 -1.2141359 -0.9940336
-0.012607791 0.062805854 -0.01943765 0.09483928 -0.0503954 0.14860196 0.059479903 0.04486409
0.072936036 0.079894885 0.16514227 0.21519233 0.061589908 -0.16582772 -0.0015444254 -0.3649745
-0.19102861 -0.24579042 -0.1571493 -0.16785727 -0.104660645 -0.2816233 -0.33488008 -0.27202097
2.094049 1.8744043 0.950204 1.631323 1.3818649 -0.3948294 1.2345635 0.66732323
-2.4644897 -0.556254 0.15484343 1.0538155 -0.81114906 -1.977242 -0.4670798 -0.23044251
1.6079477 1.5512478 -0.286367 -0.8287155 -0.34448406 0.35094923 -0.67018664 -0.7692479
-2.4067688 -4.7940536 1.0348408 -3.2950008 -0.5886999 -0.5821182 0.83034354 -0.23017144
-2.3823943 -1.2982292 0.7614983 0.48729274 0.06656463 -0.06323111 -0.10729355 0.12774837
0.06803906 -0.12864663 0.6529753 -0.16333993 -0.71701074 -0.5143196 -0.5717345 0.109866254
2.1329427 -0.05716285 -2.071059 1.7300313 -0.30906954 0.34911874 -1.8017406 -0.5053721
1.3327204 0.15715945 -1.2177619 0.006415202 -1.1634599 -2.7218592 -0.23117968 -0.69369704
-0.83100694 -0.90683246 -0.91394466 -0.63459486 0.23928653 0.34913644 -0.2682803 -0.18571262
-0.76273185 0.21810189 -0.90259093 3.3444953 0.62483954 -0.4927994 0.8826691 -0.5992132
-3.7178156 0.63563275 0.034541864 1.1827248 0.13163587 2.770485 -0.047802355 -0.32683256
-0.1591125 -0.28297785 0.5002807 0.2910542 0.9464096 1.1476914 -0.13787393 -0.22129749
-2.8019922 -0.04072358 0.5451366 -1.6925715 -0.17168505 -0.85754484 1.9149925 -0.29740492
-0.12756497 2.6154568 -0.13674189 -0.9425405 1.0088562 -0.9297859 0.29703155 -0.70942277
-1.0980074 -1.2764162 -0.94748473 -0.8442211 -0.3256286 -0.50976413 -0.4289365 0.0035676088
0.014741081 0.07876091 -0.42837003 0.49544322 0.05481807 -0.007599087 0.019843336 0.07057271
-0.35919285 -0.054552086 0.2316015 -0.022741986 -0.12791318 -0.03394674 -0.052620895 -0.3571067
-0.016689876 -0.08992785 -0.3420386 -0.058984444 -0.28359026 -0.12170759 -0.2701613 -0.10307516
2.198855 -0.25069332 0.95009303 -1.8855685 1.3562338 0.08786691 3.0140183 1.2814437
-0.47047243 0.14130089 -1.1270106 -1.1403883 -0.030654663 -0.5944777 -1.4002727 -1.1511754
0.46400467 2.249703 1.5589482 -0.775239 -2.0827518 -1.8389674 -0.32870448 -0.64066935
-0.1773006 0.12696615 -5.006853 1.1080035 1.6687968 -0.1765086 -0.18927477 -0.09038515
0.41498023 0.23680942 -0.22432175 -0.45514017 -0.48517504 -1.0381092 0.31430838 -0.0051008044

fc1.bias f4 [400]
00000000: f464 38bf 2792 a1bf 2f36 a5bd 09c6 41bf
00000010: 245e 5f3c d2c9 b8be c5bc d0be 6df4 853e
00000020: 47be afbe aaf2 1abf fc8f 26be c691 93be
00000030: f21a 3dbf d745 103f cf03 34bf 4c26 72be
00000040: 23dc 283f e81a 17be 9a71 d4be c5ec 99bf
00000050: 936d 823f 668c a7bc 1967 43be bee3 99bf
00000060: c8b0 92bd 00e4 febe 61b1 afbf e548 8a3f
00000070: e5f9 52bf 3799 113e dfa2 50bd a54c 85be
00000080: 1f14 d33e 9c95 29bf bf55 2fbf eefd 44bf
00000090: ff2f 7e3e be6c 98be 2cc6 16bf 26fa 18be
000000a0: 46a1 9fbe 1423 07bf fade d4be 75d3 0f3e
000000b0: d7b9 453f 6197 0dbf 9257 bf3e 5713 20bf
000000c0: d772 adbe 6d8d 353e fad0 00bf 3aea 04bf
000000d0: c331 e13c 1e52 2ebf b2c2 8cbe 567b 5cbf
000000e0: a2cd 95be dcb6 543f 38ab fdbe 84c4 023f
000000f0: a9b3 43be f820 60bf 53ed 6bbf fd73 f73f
00000100: 56d5 21be 1a03 dcbe 8620 90be bd40 1b3d
00000110: 1fb8 b8be b9a2 9ebe 2146 d2be 3f39 29bd
00000120: 02d2 ac3e ebf5 f2be 7b4d 0c3f 764e 9fbe
00000130: 6b7c bbbf 86e7 c4be c2cd a9be eb39 69bf
00000140: a2e2 2bbf 122a f9be 171f 0cbf 6ec8 9fbf
00000150: 10aa 90bc 90bf 1c3e dafd 5fbf f8bf 0b3f
00000160: 5c2b cdbe 77e1 1e3e 447d 57be 94a7 39bf
00000170: 40be 70be 94ed 95bf 66dd 39bf 66cc 43bf
00000180: c8b7 e63e 4c10 d1be 9534 183f 0289 57be
00000190: 0d47 d8be 8d43 83be 3321 e9be 62fe 623f
000001a0: 0a3f dbbd 85f4 8ebe 3244 11be e651 f1bd
000001b0: 2b57 e1be f9b7 443e 736b 64be 467a 1cbf
000001c0: cdff 123f e1ca a93f 4880 1ebf 22a5 42bf
000001d0: 45ac 82bf 456e fa3b 7321 30bf 17bc 8abe
000001e0: 6a7b ac3e 874d 2ebe 64e2 ddbe dd57 003f
000001f0: 7d3b 43be 9cab f4be 55aa 8bbe a2c9 063f
00000200: fa64 26bf 96af 3abf 2dc2 d5be 9bcc 7dbf
00000210: ccdc b83e 2502 d0be 43b6 49be 574b 14bf
00000220: 3ac8 153f 3ae9 1ebe 9162 97bf 26e4 24bf
00000230: dacf ecbe fc62 973e d896 0abf f18f 913e
00000240: 6d25 f43d 9096 7fbf 6781 76bf af71 5a3e
00000250: a765 f93c f466 cfbe add4 0bbf a1f3 afb9
00000260: aaed 9b3d ffe6 3fbf 1315 4f39 5e89 cdbd
00000270: 3736 a2be 0e33 1bbe f670 123e 3a21 263e
00000280: d2f8 bebd 58e5 d8be 49e4 40bd de85 53bf
00000290: 278b a33d b573 85be 7714 aa3e ad41 88be
000002a0: 3f73 01be cea6 11be fcb8 f63c 825c 8fbe
000002b0: e8b9 e1be 666e ac3e 4523 3b3f 31ac 0ebe
000002c0: 7fc9 adbe a410 aabd 7dbf 9fbd 1c06 94be
000002d0: 0965 41bf 9e45 16bf 829b b13f 1744 16bf
000002e0: 414f d63e 7aa8 5bbe bad8 54bf bf63 a6be
000002f0: 8dc1 87be 465e 79bf d8b3 15be 6cc4 503f
00000300: 853e 03bf 9a0f 25bf c8c1 683f c7a7 8cbb
00000310: ffa9 98bf c93b 86be d27e 96be 2834 21bc
00000320: 952b 04bf a50e 6dbe d8f6 fbbe 5e24 a03d
00000330: 7cee d7be 90c5 283f 4430 263d ab0f 5f3f
00000340: 69b8 40bf df3b b5be 5f6a 77be 0694 97be
00000350: 070c 87bf b640 9abf 2517 4bbf fb5f 0cbf
00000360: 2500 7cbe d137 5f3f e442 77be 292a c3be
00000370: 35ea 56bf ecf2 f5be 6e9f 96be 7176 4bbf
00000380: 37f4 0ebc dcd2 7bbe f5c3 08bf 8ce7 063f
00000390: 3377 e1be 185f bcbd 0af7 103f bbb4 30be
000003a0: 083d 27bf 92e0 51be 3201 71bc 2a0b 1ebe
000003b0: d8d6 87be d5eb 813f eb2f 59bf 3759 fb3c
000003c0: dde6 00bf 846e 4dbd c132 dfbe 3bd7 033f
000003d0: 3b55 17bf cd0c ccbe 53c7 e9be fd35 af3c
000003e0: a134 8cbe d161 1dbd 73cc fdbe 0c6d 0abf
000003f0: 9514 8cbe adf8 5cbf bca7 383e 9e58 8c3e
-0.7202904 -1.2622727 -0.08066975 -0.756928 0.013633285 -0.36091477 -0.4076902 0.26163045
-0.34324858 -0.60526526 -0.16265863 -0.28822154 -0.7386924 0.5635657 -0.7031831 -0.23647422
0.659609 -0.14756358 -0.4149292 -1.2025381 1.0189689 -0.02045269 -0.19082297 -1.2022626
-0.071626246 -0.49783325 -1.3726007 1.0803496 -0.8241256 0.14218603 -0.050936576 -0.26035038
0.4122629 -0.6624391 -0.68490213 -0.76949966 0.24822997 -0.29770464 -0.58896136 -0.14939174
-0.3117773 -0.527879 -0.41576368 0.14045508 0.77236694 -0.5530911 0.37371498 -0.6252951
-0.33876678 0.17729731 -0.5031887 -0.519199 0.027489549 -0.6809405 -0.2749229 -0.86125696
-0.29258448 0.8309152 -0.49544692 0.5108111 -0.19111504 -0.87550306 -0.92159003 1.9332272
-0.15804037 -0.42971116 -0.28149813 0.037903536 -0.36077973 -0.30983523 -0.4106913 -0.04131436
0.33753973 -0.47453246 0.54805726 -0.31114548 -1.4647344 -0.38457888 -0.33164793 -0.91104
-0.6714269 -0.4866491 -0.5473494 -1.2483041 -0.017659217 0.1530745 -0.8749672 0.54589796
-0.40072143 0.15515696 -0.21043879 -0.7252133 -0.23510075 -1.1713128 -0.7260345 -0.7648376
0.4506209 -0.40832746 0.59455234 -0.21048358 -0.42241707 -0.25637475 -0.45533141 0.8866941
-0.10705383 -0.2792093 -0.1418617 -0.11783199 -0.44011816 0.19210805 -0.22306614 -0.61124074
0.5742157 1.3265039 -0.6191449 -0.7603322 -1.0208822 0.0076425397 -0.6880104 -0.27096626
0.33687907 -0.17021762 -0.43336785 0.5013407 -0.19065662 -0.47787178 -0.2727839 0.5265142
-0.6499783 -0.7292417 -0.41749707 -0.9914033 0.36105955 -0.40626636 -0.19698434 -0.5792746
0.58508646 -0.15518656 -1.1826955 -0.64410627 -0.46252328 0.29567707 -0.5413642 0.2843013
0.11921201 -0.99839115 -0.962912 0.2133243 0.03044398 -0.40508235 -0.5462139 -0.0003356012
0.0761369 -0.7496185 0.00019748909 -0.10035966 -0.31681988 -0.15156195 0.14300904 0.16223612
-0.093248025 -0.42362475 -0.04709271 -0.8262614 0.079855256 -0.2606484 0.33218738 -0.26612607
-0.12641619 -0.14223787 0.030117504 -0.28000265 -0.44087148 0.33677977 0.7310069 -0.13932873
-0.33942792 -0.08303955 -0.07800195 -0.2891091 -0.7554479 -0.5869998 1.3875582 -0.58697647
0.4185734 -0.21450987 -0.831432 -0.32497975 -0.26514855 -0.97409475 -0.14619386 0.81549716
-0.5126727 -0.6447693 0.90920687 -0.0042924616 -1.1926879 -0.26217487 -0.2939363 -0.009839095
-0.51629 -0.23150118 -0.49211764 0.078194365 -0.42174137 0.65926456 0.040573373 0.8713328
-0.7528139 -0.3539724 -0.24161671 -0.2960512 -1.0550545 -1.2050998 -0.7933219 -0.54833955
-0.2460943 0.87194544 -0.2414661 -0.38118103 -0.8395112 -0.48036897 -0.2941851 -0.794776
-0.008725218 -0.24592155 -0.53424007 0.5269706 -0.44036254 -0.09197825 0.5662695 -0.17256443
-0.653275 -0.20495823 -0.014709758 -0.15433946 -0.265311 1.0150095 -0.8483874 0.03068219
-0.5035227 -0.050154224 -0.4359341 0.5150029 -0.59114426 -0.39853516 -0.45659885 0.021388048
-0.27383903 -0.038423363 -0.49570045 -0.5407264 -0.27359453 -0.8631695 0.18032736 0.2741136

fc2.weight f4 [300, 400]
00000000: 9cf8 fc3f 8612 23bf c2bb 5abb 769d 2f3f
00000010: 9aee d4bb 2388 60bf 87c7 a2bf d690 a2bf
00000020: c8d4 3e3d 8e9a 1a40 fd51 913f 6686 a43c
00000030: a9fe c33e 6566 08bf aa1b 54be 1414 71bc
00000040: 50b1 433e 55e6 9abf de69 19be cff4 3e3f
00000050: e1b8 c2bf 4dcf 0cbf d8df b23d 76e2 97bf
00000060: 0bbf fdbe 9dc8 1d3f 8fd6 a9be 32d1 6b3f
00000070: 4ecc 1940 7989 c3bd 829c dabf dd2b 823d
00000080: 9f03 a9bf 16df 16be 2585 06bf 9cc9 88be
00000090: dcfa 05bf 1b31 65bd 4f6b bebf 5146 403e
000000a0: b6c4 1d3e 3ed8 9dbd 5307 70bf 4a6a 56bd
000000b0: ec42 0d40 9906 d1be d4fc f7bf ed0f 093e
000000c0: 8184 c5bf 5f7f 24c0 de5d 9b3f 86d1 98bf
000000d0: b902 cebe 6653 00c0 ba9f 51bd 6698 a1be
000000e0: e359 6fbf a8a6 c13d 6062 c6bf c775 a0bf
000000f0: 0936 cdbb 1496 053f 74b3 71be 63d9 f93d
00000100: c6aa 93bc 6553 873e 0636 1b3d 1b89 e7bf
00000110: 2989 c83f 53c6 7e3f adfc 86bf d4d4 063e
00000120: 24fc 873e d4ef f5bb 56ce 05c0 a585 083d
00000130: 9cd4 823f a6af 9abe 9371 f03e 7285 68bd
00000140: d9c4 c3bf 1d2c 833f 816c c9be 51a7 cdbe
00000150: 95ef 0dc0 b938 5e3f 3baa e2bf 49ec d1bf
00000160: 1321 f3bd 98f8 b1bf 6a34 d33f 705d 45be
00000170: c186 cebf 685b 403f 0482 6dbf a4dc 0640
00000180: be19 2a3f f459 82bf 9691 a53f 479e 2cbd
00000190: f4a7 75bf 6d6a 153d 48fd b1bf 3da8 8cbb
000001a0: dfa8 34c0 9298 5dbd ed0c 163e f078 36bf
000001b0: fb4b 79bd 8e34 2b3e 9fe3 3e3e fe1f 91bf
000001c0: 389f 36bf dfd1 a9bc c0f1 b8bf 23f2 783f
000001d0: fc30 0a40 e88c bebb 5506 1e3e ea53 6dbf
000001e0: a55e 82be 2ec2 2f3d 6445 013f 51fc dc3e
000001f0: 80be cc3e d7d2 b03f dd47 30bd 9663 1c3f
00000200: 2930 5bc0 16ec 18c0 3c88 89bf dd94 96bf
00000210: e8b0 b8be 7a59 643f 2520 9b3f cd8f 083f
00000220: 63c1 fd3e a4c8 013f a396 68bf dc64 853f
00000230: 87fd 323e 572e 28c0 21ef 533f aee6 abbf
00000240: 4fcd 363f e694 2c3e ac0f 083f 6c6e f3bd
00000250: e6f5 073f 0c31 84bd 2471 01c0 b47b 73bf
00000260: ed09 0ac0 481e b93e fff1 a03e 0196 403d
00000270: 2f8a 303c 2e70 13c0 7aec f1bf c498 7d3e
00000280: 4346 f83e 2585 1fbe bd26 133f 603e 33bf
00000290: 99dc d73e d166 45bc 35f5 973f f917 d83d
000002a0: aec6 a8bf 6f71 b13e d89b ce3e 7508 9a3f
000002b0: 12fa ec3e 30bb c53f 4725 bc3f 691d 5b3f
000002c0: 664c 9d3d 5998 59c0 e1d1 423f 338b ffbd
000002d0: 77b9 a23e bc75 0a3f 836e eabf 602e bebe
000002e0: 9c22 76bf 51c3 593e 25dd 083f c961 cdbf
000002f0: 0c6e 7e3c ce78 a9bf 3d54 9a3e fece 11bf
00000300: 7c51 76bf aa43 debf 5760 28bf 4cfd fcbf
00000310: 50c6 33be d0fd c9be 1632 1ec0 13f8 643f
00000320: beb1 19be f4de 893f 157a 923f e26e 5fbe
00000330: 15e7 9d3d fc50 0dbe 829a 6b3f 5720 a2bf
00000340: 7f97 2d3f 6047 3ebe 2f89 2cc0 c4e4 813e
00000350: adcb 8abe db61 003f bd28 02be 77a4 32bf
00000360: a871 35be 7862 3d3f 6c8b 833d 00db 41bf
00000370: 57e0 343e f9cd dbbf e5ca 8abf 705f b4bf
00000380: c518 0ac0 664d 213e 268d 26bc 6693 26be
00000390: 18a9 38be 8dfc 123b 1b24 63be f93e c5bf
000003a0: fece 11bf 6fd2 3e3c 968f 1d3f 67dd a2bf
000003b0: b3be 6cbf d3d2 e5bf c1f0 cdbf ea21 54bf
000003c0: 025d d6be 23c8 e6bf 6f36 263d 254e 0bbf
000003d0: b3e2 7f3d 480b b8be ad44 943d 37a2 29bf
000003e0: e19a 473f 6a11 5dbf a958 4ebf 5299 603f
000003f0: 036c 60bd ce84 273f 1efd a73f 5f9a 2cc0
1.976337 -0.6370014 -0.0033376073 0.6859964 -0.00649817 -0.8770773 -1.2717141 -1.270045
0.046589643 2.4156833 1.1353146 0.020083617 0.38280228 -0.5328124 -0.20713678 -0.01471426
0.19110608 -1.2101542 -0.14981791 0.745923 -1.521267 -0.55003816 0.08734101 -1.1865985
-0.49559817 0.61634237 -0.33171508 0.9211608 2.4030948 -0.09547705 -1.7079012 0.063560225
-1.320423 -0.14733538 -0.5254691 -0.26716316 -0.52335906 -0.055955034 -1.4876498 0.18776824
0.1540707 -0.077072605 -0.93761176 -0.05234746 2.2072096 -0.40825346 -1.9374032 0.13384981
-1.5431062 -2.570274 1.2138021 -1.1938941 -0.40236452 -2.0050902 -0.051177718 -0.31561583
-0.9349653 0.09455615 -1.5498772 -1.2535943 -0.006262545 0.52182126 -0.23603612 0.12199666
-0.018025767 0.26430812 0.037893318 -1.8088716 1.5666858 0.9952137 -1.054586 0.13167125
0.26559556 -0.0075053964 -2.0907187 0.03333058 1.0221133 -0.30212134 0.4696165 -0.05676789
-1.5294448 1.0247837 -0.39340594 -0.40166715 -2.217748 0.868053 -1.77082 -1.6400234
-0.11871543 -1.390399 1.650037 -0.19273925 -1.6134874 0.75139475 -0.92776513 2.1072168
0.6644553 -1.0183702 1.2935054 -0.042143133 -0.959594 0.03647845 -1.390542 -0.0042925165
-2.822807 -0.05410058 0.14653368 -0.71278286 -0.060863476 0.16719267 0.18641518 -1.1337888
-0.713367 -0.020729957 -1.4448776 0.9724447 2.1592398 -0.005815137 0.15432103 -0.9270617
-0.25462833 0.042909794 0.50496507 0.43161252 0.3998909 1.3814343 -0.043037284 0.61089456
-3.4248145 -2.3894095 -1.07447 -1.176418 -0.3607247 0.8919903 1.2119185 0.5334442
0.49561605 0.5069678 -0.90854853 1.0421405 0.17479526 -2.6278284 0.82786757 -1.3429773
0.71407026 0.16853675 0.53148913 -0.11886296 0.53109586 -0.064546674 -2.0225306 -0.9511063
-2.1568558 0.36155915 0.31434628 0.047018055 0.010775133 -2.303722 -1.8900292 0.24765307
0.48491105 -0.15578134 0.57480985 -0.7001705 0.4216049 -0.012048439 1.1871706 0.105514474
-1.3185632 0.34656855 0.40353274 1.2033831 0.46284539 1.544775 1.4698876 0.8559175
0.076805875 -3.3999236 0.761015 -0.12477722 0.31782123 0.540859 -1.8314976 -0.37144756
-0.9614656 0.21265914 0.5346244 -1.6045467 0.015529167 -1.3239992 0.30142394 -0.5695647
-0.96218085 -1.73644 -0.65772 -1.97648 -0.17556119 -0.39451456 -2.471807 0.8944103
-0.1500921 1.0771165 1.1443506 -0.21819642 0.07710091 -0.13800424 0.92032635 -1.2666119
0.6780929 -0.18581915 -2.695873 0.25369847 -0.27108517 0.50149316 -0.12710853 -0.69782203
-0.17719138 0.73978376 0.06423077 -0.7572479 0.17663704 -1.7172233 -1.0843168 -1.4091625
-2.1577618 0.15752181 -0.010165488 -0.16267166 -0.18033254 0.0022428364 -0.22181742 -1.5409843
-0.5695647 0.011646851 0.6154722 -1.2723817 -0.92478484 -1.7954963 -1.6089097 -0.8286425
-0.41867834 -1.8029827 0.040579256 -0.54416114 0.062472057 -0.35946107 0.07239661 -0.66263145
0.779707 -0.86354697 -0.80604035 0.8773395 -0.054790508 0.6543702 1.312412 -2.696922

fc2.bias f4 [300]
00000000: 9402 0f3f b703 20be 1ae9 d7bd 4d70 87bd
00000010: 2832 b1bf 4a38 d6be 5e10 91bd 8060 32be
00000020: c4a6 03bf 2070 b2bd 8c4d 79bd 638b 6dbe
00000030: b804 bdbd 29d3 c4bd f1bb c8bd 7df6 80bf
00000040: 0d75 01be 4ed0 b13d a839 36bf d9a0 c9bd
00000050: b79b a8bf 0375 6bbf a325 e6be 60c7 31be
00000060: 4b93 593e 5c41 a93e daa3 d5be 4c7a fdbd
00000070: cf0e 2abf d1cf c0bf be27 97bd 8fcb db3f
00000080: 56f3 9cbd a66a 99bd ddcd 993e 7983 c4bc
00000090: d662 99bd 1a41 5abd 2dea 07be 9f33 a1bd
000000a0: 256d 8abd 69e5 42bd 823d 55bf ea43 dfbc
000000b0: 69b1 34bf c4a5 7fbd 4942 ccbe 1b18 fe3b
000000c0: e2af d0bd d648 15be d7bc 3c3c c316 863f
000000d0: 7484 e4bd 7d6a 8fbd e51f 81be b770 abbe
000000e0: bef5 96be 7603 9fbc 0c13 f0be 1fc7 b03c
000000f0: 147f 0d3d cd95 07bf 65c5 0dbf 09e2 da3e
00000100: b5e5 f93e a2cc 5fbd 9d8f 81bf 15c7 01be
00000110: ad0e 9d3e e15b 5e3f c64f 1ebe 251b 87bd
00000120: 6ad9 ddbe e586 0dbe f711 a7bd e280 5cbf
00000130: 9a53 59bd 9536 97be 24e4 72be 9427 74bf
00000140: d9eb c9bf d6f2 1abd b8b6 b0be 93d3 68bd
00000150: 5081 32be f632 2e3f 5b1f 69bd ccf4 f3be
00000160: 30f5 33bf 9a90 53bd 7726 2ebf 7c8f 74be
00000170: 39bb a73e 4949 4fbd a2b2 dbbd d27c 52bd
00000180: 39b0 c8be f9d4 45be 5cd6 f0be 16f9 1abe
00000190: 77c1 a9be bbf1 6dbf b73c a3be a90c cabd
000001a0: 79d6 36bf 7c56 0a3f e1cc d03d 9510 713f
000001b0: 7df7 1dbf 865c 1fbf 4112 6ebe ae04 a3bf
000001c0: 0025 bebd 37b0 afbf ba31 58be 50ad b3bd
000001d0: d87d 3abf ae19 17bf c9e2 44bf 4d8a 0bbd
000001e0: 6dcf 00bf 3c47 7fbf 63d5 69bf bb8c e9be
000001f0: 88c1 bcbe b48f f8bd efcd 2cbf 7425 78be
00000200: 725a 52be d94e 46be feb1 1abd a74d 22be
00000210: 09a0 ccbd 00a7 b9bf 1fd2 2abe edd7 89be
00000220: 73f4 62bd 9924 4cbe edf5 04be 1dd5 04bd
00000230: 1629 ac3d 2b44 163d 93b8 60bd c909 cbbd
00000240: 5465 f1be fc9b f4be 9a2e 5bbd 4428 fdbd
00000250: 1520 d53e e4ff 7dbd 1556 18bf c6f5 93bc
00000260: 0d20 0bbe a705 2ebe 85b4 88bf c892 b0be
00000270: 2a4e dabd b7f8 25bf 9ffc 25bb 6618 95be
00000280: ad53 05bd e424 fcbd 28a4 37be 41d0 48be
00000290: b635 8f3e 4cbe 7abe c4ce 743b dea0 b0bd
000002a0: eae5 5dbd 55d3 00be 1c3c f8bd 7827 b2bf
000002b0: 8cbe fbbd b84c 31bd b9fc 823e adbd 84bd
000002c0: f2b8 d5bd a6f5 9fbe 1824 b1bd 407c bdbd
000002d0: de49 16bd 429d e1be 65bf 8ebe 94c4 f7bd
000002e0: b36d edbe 9a0e d8be 1699 91bd 6d79 86bd
000002f0: 6b39 e7bc e945 cebd 270d 17be 8250 56bf
00000300: e7ab 24bf 260c 16be 9c1b 0c3f eb38 65bd
00000310: 91d9 4ebf 66ee 9bbe 86bd 2c3f d99f 45bf
00000320: 4bb4 ebbd 96a6 ae3e 4278 5fbd 9864 39bd
00000330: 1860 c0be 215c 46bf a57e 85bd 1752 21bf
00000340: 622f dbbf 8c9c 70be 8a12 d5bd c697 12be
00000350: d8ba 34be 84ea ffbf 118c dd3c 48c0 37bf
00000360: 3293 d4bd 1968 47ba 5328 423d 89f5 c4bc
00000370: f660 1ebf bfa0 a0bf 28b2 3dbf 2507 1bbf
00000380: c1e9 4abd 8fc4 acbd 6ef7 b33e a629 a839
00000390: e778 20bd 655b 8ebd 486a 3dbd 98cd b4bb
000003a0: e1af 503e 3204 57be 1bad 61be 095f 42be
000003b0: ff7e 2fbf 3564 10bd f631 d6be 2168 c4be
000003c0: ba0f 50bd 2d1c 88be d979 85be 79be cfbd
000003d0: 8284 5ebd 87a1 20be bb4c aebf 8eb4 9ebe
000003e0: dca0 7bbe 2a95 dfbe 9c23 fabd 6229 5cbc
000003f0: 6e2d 1bbd 3555 08bf c539 11bc a7dd bcbc
0.5586331 -0.15626417 -0.105425075 -0.066132165 -1.3843431 -0.4183982 -0.070832 -0.17419624
-0.5142634 -0.087127924 -0.06086497 -0.23197703 -0.09229416 -0.09610588 -0.09801472 -1.0075222
-0.12642308 0.08682309 -0.71181726 -0.098451324 -1.317252 -0.9197542 -0.4495059 -0.17361212
0.21247594 0.33057678 -0.4172657 -0.12376842 -0.66428846 -1.506342 -0.07380627 1.7171496
-0.076636 -0.07491045 0.30039874 -0.023988472 -0.074895546 -0.053284742 -0.13272925 -0.07871174
-0.06759099 -0.047582064 -0.8329698 -0.027254064 -0.70583206 -0.062413946 -0.39894322 0.0077543384
-0.10189797 -0.14578566 0.011519632 1.0475696 -0.11158076 -0.07002733 -0.25219646 -0.33484432
-0.2948436 -0.01941083 -0.46889532 0.021579323 0.03454502 -0.5296295 -0.55379325 0.42750576
0.48808065 -0.054638512 -1.0121952 -0.126736 0.3067526 0.86858946 -0.15460119 -0.06596974
-0.43329936 -0.1382099 -0.081577234 -0.8613416 -0.053058244 -0.2953383 -0.23719841 -0.9537289
-1.57751 -0.037829243 -0.34514403 -0.056842398 -0.17432141 0.6804651 -0.05691467 -0.47647703
-0.70296 -0.051651575 -0.6802744 -0.2388286 0.32760027 -0.050607 -0.10727431 -0.05138857
-0.39196947 -0.19319524 -0.47038543 -0.15134081 -0.33155414 -0.92946976 -0.3188226 -0.09865696
-0.7142101 0.54038215 0.101953276 0.9416593 -0.6170576 -0.62250555 -0.23249151 -1.2735803
-0.09284401 -1.3725652 -0.21112719 -0.08773291 -0.7284827 -0.5902356 -0.76908547 -0.03406744
-0.50316507 -0.9971807 -0.9134123 -0.4561518 -0.36866403 -0.12136784 -0.6750173 -0.24233037
-0.20542315 -0.19366015 -0.037767403 -0.15849935 -0.09991462 -1.4504089 -0.16681717 -0.2692255
-0.055408906 -0.19935836 -0.12984438 -0.032429803 0.08406274 0.036686104 -0.054863524 -0.09913976
-0.4714762 -0.47775257 -0.05351124 -0.12361196 0.4162604 -0.062011614 -0.5950635 -0.01806153
-0.13586445 -0.16994344 -1.068009 -0.34486985 -0.1065944 -0.64832634 -0.0025327576 -0.29120177
-0.032550503 -0.12311724 -0.17933714 -0.19610693 0.27970666 -0.24486655 0.0037354687 -0.08624433
-0.05417434 -0.12580617 -0.1212084 -1.3918295 -0.12292203 -0.043286055 0.25583437 -0.0648149
-0.10435666 -0.31242102 -0.086494625 -0.092522144 -0.03669154 -0.4406529 -0.27880397 -0.12098041
-0.46372756 -0.4219864 -0.07109277 -0.06566129 -0.028225621 -0.10071928 -0.14751111 -0.83716595
-0.643248 -0.14653072 0.5472963 -0.055962484 -0.8080073 -0.3045532 0.6747669 -0.77197033
-0.115089975 0.3411147 -0.054558046 -0.04526195 -0.37573314 -0.7748433 -0.06518296 -0.63015884
-1.7123835 -0.23497218 -0.10403927 -0.1431571 -0.176494 -1.9993443 0.027044328 -0.7177777
-0.10379638 -0.00076067593 0.047401737 -0.024042862 -0.618667 -1.2549056 -0.7409997 -0.60557777
-0.04953933 -0.08435928 0.3514971 0.00032074488 -0.0391778 -0.06951026 -0.046243936 -0.0055176727
0.20379592 -0.20997694 -0.22038691 -0.18981566 -0.68553156 -0.035251815 -0.41834992 -0.38360694
-0.050796248 -0.26583996 -0.26069525 -0.10143752 -0.054325588 -0.15686618 -1.3617166 -0.30997127
-0.24573082 -0.4366849 -0.12213823 -0.013437601 -0.037885122 -0.53255016 -0.008863871 -0.02305491

fc3.weight f4 [4, 300]
00000000: c619 a73f adbb 153d aef9 2c3d 8d9c 09bd
00000010: 46c3 aabf 8a63 6dbf 6641 a33d 0ddb 093e
00000020: c691 ac3f d53c 1740 704f 3fbd 9830 4a3d
00000030: 15ed 83bb 4673 963c 2cdc 813d 6aad dcbf
00000040: e288 633d 0f83 18bf 8573 17bf ccc2 0c3d
00000050: 9ac2 53bf 35bf 07c0 489f c93d 5314 f2bc
00000060: 0385 8dbd a480 373f 4928 48bf 46bb a3bc
00000070: e192 d93e 1133 d7bf f143 433d c38f d8bd
00000080: 43cb e63b 910e 5b3b 794f 553f 7dd3 8a3c
00000090: 01b4 543d fe1f 2a3e 8fe8 bf3d 7a55 54bd
000000a0: 94aa 8c3c e64f abbc 7ba8 74bf 5516 933c
000000b0: 0e7f 023f 2759 373c e9db ce3c e023 463f
000000c0: 366d 9d3e 89bd c53d 4945 d83d 1632 20bf
000000d0: 316f c13d eaf7 5a3c 374a 27be 8dd6 10bf
000000e0: 1188 cdbe 8630 1ebf f201 e73f d075 b63d
000000f0: fc0a 883e c210 eabe 15bb 1c3f 88bf b4bc
00000100: 8657 123f 204e 403d 41e6 d5be b8ef ccbb
00000110: 1fe7 33bf 4be4 fc3e 86a1 a03e 2d7a 093f
00000120: 2ed5 97bf 2093 413d 4c86 7bba 96de 94bf
00000130: a463 fd3f 54d6 f33d 43dc 78bf 5387 633f
00000140: 2ebb 2c3f 01f1 4e3a ff10 80be 7162 c03a
00000150: ed70 963e a4f7 8ebf bcc1 0ebd 5e08 23bf
00000160: c9ba 53be e6bd 21c0 f1e6 45bf 9ade dfbd
00000170: ae49 a8bf abcf e83c a78a 35bc fea5 9c3e
00000180: 7135 54be 46e9 133c b9d7 503e a259 d53c
00000190: 05d9 1dbf 5a23 e0bf 22be 57be dbab f5bc
000001a0: bb5e b33f 54ba 803f f775 c7be 18dc 463e
000001b0: 53c0 663d ad88 91be 2c8d 8abf 30f1 9f3e
000001c0: 2b5f 683d 964c 24bf a926 1fbf 486b 41bd
000001d0: baeb 6e3d 4940 ddbe 2827 b7be 9a99 5e3d
000001e0: 6c80 89be 93bd 743f 8609 183f 73d4 78bf
000001f0: f883 46be 36ed 903c dea3 803e 4495 0840
00000200: a88b b93e 15c0 973f 8b4e fd3d 16c5 2bc0
00000210: 4e20 a5bd b96a 5ebf 8aa8 ee3e de9f a9bb
00000220: 4779 aebe e662 acbd 4038 403e 10a9 bb3d
00000230: 109a cabd 5bc1 62be 22fe dd3c 7244 5ebe
00000240: ecb3 8f3f 2d60 853f b449 f33e 6c7b 0e40
00000250: a36f 143e e4cf 853d 2cb7 833f cb44 6f3d
00000260: 56cb abbb 101a d7bc df5e b8bf 1860 c0bc
00000270: 954a b3bf 8770 bdbd 13ba e63d 48f8 cfbe
00000280: 5458 88bc 6cc4 063d 65aa 05bc c0d0 31bd
00000290: 92d8 32bf 2199 59bd 2f2b ab3e 7e97 08bd
000002a0: fd2c 13bd 2fcf b13e 6867 bebc 2e68 25bf
000002b0: f083 b03c 6062 c6bd 3acb cb3f 19cd cb3d
000002c0: bad7 d03b 0d6c 0f3f 265d 953c efe3 b9bd
000002d0: 5492 f6bd d49e ac3f 097d 56bf 5fd9 aebd
000002e0: 931d e53f 8de8 0d3f e677 1cbc 1674 ac3f
000002f0: 1485 8c3f 8deb 803d a2d4 1bbf d485 0f3d
00000300: 4c8e 823f f00f bbbd 259d 9b3f fb7e 643c
00000310: 27e1 313e 84fe 84bf 048f 883e 075f a9bd
00000320: 7d87 9f3e a09c 4e3f 9df1 923d efbb 2fbd
00000330: ec78 84be abf5 ea3d 510f debd 21da ca3e
00000340: 13c1 e9bf c5fc 1640 5b7b fb3d bbc8 783d
00000350: 1311 653f 4ec8 22bf ec58 813d 4e3b ad3f
00000360: a20a debe d57c 043e dbf7 19bf bd55 87bc
00000370: dd4e 91bf 1ec7 17bf ccc4 7b3f 88b1 c7bf
00000380: 45b3 033c 017c 553e 620f 58bf 43f5 783f
00000390: 127d ec3e 7d2e 993d 6a43 eab9 6cc5 f13e
000003a0: e207 ec3d 7a37 d9be c762 38bd da15 5c3e
000003b0: d185 ddbf 361f 91bf 6df9 3cbf b650 283f
000003c0: d2ae 523d 02c0 eb3c 1c95 d5be 95ca 0fbc
000003d0: ee11 2abc 5337 e8bd 3461 863f 6330 f8be
000003e0: cb2f ff3d 484b 3ebf b26f 5cbc 285f 363d
000003f0: 8176 583e f998 4f3d 8801 c3be 14ae 01bf
1.305474 0.036555935 0.0422303 -0.033596564 -1.3340843 -0.9273001 0.07971458 0.13462467
1.3481987 2.363088 -0.046706617 0.04936275 -0.004026065 0.018365514 0.063408226 -1.7240422
0.055550463 -0.5957498 -0.59160644 0.03436546 -0.82718813 -2.1210454 0.098448336 -0.029550707
-0.069101356 0.71680665 -0.7818647 -0.01998676 0.42494872 -1.6812459 0.047672216 -0.10574295
0.0070432737 0.003342543 0.8332439 0.016946549 0.051929478 0.16613767 0.09370529 -0.05183933
0.017171182 -0.020912122 -0.9556958 0.017954985 0.5097512 0.011190689 0.025251346 0.7739849
0.30747384 0.096552916 0.1056009 -0.62576425 0.09445036 0.013364771 -0.16336904 -0.5657738
-0.40142873 -0.6179279 1.8047469 0.0890919 0.2657088 -0.4571591 0.61222965 -0.022063985
0.571648 0.046949506 -0.41777232 -0.0062541626 -0.7027454 0.49392924 0.31373233 0.5370205
-1.1861932 0.04725945 -0.0009594902 -1.1630428 1.9796033 0.11906114 -0.9721109 0.88878363
0.67473114 0.0007894189 -0.25012967 0.0014677775 0.2938303 -1.1169324 -0.03485273 -0.6368464
-0.20676722 -2.5272155 -0.77305514 -0.1093113 -1.3147485 0.028419336 -0.011080421 0.30595392
-0.20723511 0.009027785 0.20394792 0.026043717 -0.6165927 -1.7510788 -0.21068624 -0.029989174
1.4013284 1.0056863 -0.38957188 0.19419897 0.05633576 -0.28424588 -1.0824332 0.312387
0.056731384 -0.6417936 -0.62168366 -0.047221452 0.058330275 -0.43213108 -0.3577206 0.054345705
-0.2685579 0.9560177 0.5938953 -0.9719917 -0.1938628 0.017691236 0.2512502 2.1341105
0.36239362 1.1855494 0.123684965 -2.6839042 -0.08062802 -0.86881596 0.4661296 -0.0051765284
-0.34076902 -0.08417301 0.18771458 0.091631055 -0.09892666 -0.22144072 0.027098719 -0.21705797
1.1226783 1.0419976 0.4751717 2.226283 0.14495711 0.065337926 1.0290275 0.058415215
-0.0052427454 -0.026257545 -1.4403952 -0.023483321 -1.4007136 -0.092499785 0.112659596 -0.4061911
-0.01664368 0.032902166 -0.008158301 -0.04341197 -0.6986171 -0.05312455 0.33431384 -0.0333476
-0.035931576 0.3472838 -0.023242667 -0.6461209 0.021547288 -0.09686732 1.5921395 0.09951229
0.006373373 0.5602425 0.018232893 -0.09076678 -0.120396286 1.348597 -0.8378454 -0.08537554
1.789965 0.5543297 -0.00955007 1.3472927 1.0978112 0.06294928 -0.60871327 0.035039738
1.0199676 -0.09133899 1.2157332 0.01394629 0.17371045 -1.0390172 0.26671612 -0.08270078
0.31158057 0.8070774 0.0717499 -0.042903837 -0.25873506 0.11472639 -0.10842765 0.39619544
-1.8262047 2.3591778 0.122793876 0.060738306 0.8947918 -0.6358689 0.063157886 1.3533723
-0.43367487 0.12938245 -0.6014382 -0.016520375 -1.1352192 -0.59288204 0.98347163 -1.5601053
0.008038347 0.20848085 -0.8439847 0.9724924 0.4618917 0.0747957 -0.00044682185 0.47220933
0.11524941 -0.42425138 -0.045016076 0.2149271 -1.7306463 -1.133765 -0.73818094 0.65748155
0.051436253 0.02877808 -0.41715324 -0.008776327 -0.010380251 -0.11338677 1.0498414 -0.48474416
0.12460288 -0.7433362 -0.013454365 0.04452434 0.21138956 0.050682995 -0.38087106 -0.5065625

fc3.bias f4 [4]
00000000: 86ba a1bf 1967 b03e 5718 4c40 9f28 763e
-1.2635047 0.34453657 3.1889856 0.24038933
