expTD3_BipedalWalker-v2.pyBipedalWalkerHardcore-v3./critic_2.pth (torch, 530647 bytes, 5 tensors)

fc1.weight f4 [400, 28]
0	0x3f3658ff	0.7122955
1	0x3f490332	0.785205
2	0xbfa32d60	-1.2748222
3	0xc02d7f85	-2.7109082
4	0xbf7a96f7	-0.97886604
5	0x3f3545a1	0.7080937
6	0x4049d320	3.153511
7	0xbf5eb717	-0.8699812
8	0xc003397d	-2.0503838
9	0xbf0c4ae1	-0.54801756
10	0xbfc42789	-1.5324565
11	0x3f953416	1.165652
12	0xbfd05f81	-1.6279145
13	0xbd390914	-0.045174673
14	0x3dcd4bf9	0.10024256
15	0xbf98f784	-1.1950536
16	0xbfbbbd11	-1.4667073
17	0xbfcea040	-1.6142654
18	0xbff74b7f	-1.9319915
19	0xbfe585a7	-1.7931412
20	0xbfa7868a	-1.3087933
21	0xbe8befac	-0.27331293
22	0xbf15d42d	-0.5852688
23	0xbee9d7ba	-0.456724
24	0x3ed534b6	0.41641778
25	0x3ec0d11c	0.37659538
26	0x3f099e4a	0.53757155
27	0x3e48a70b	0.19594972
28	0x40302dc6	2.7527938
29	0x3f3f6d72	0.74776375
30	0xbfad0543	-1.3517231
31	0xbd2ae681	-0.041723732
32	0x3fb085c6	1.3790824
33	0xbeb100e5	-0.34570995
34	0xbff974d3	-1.9488777
35	0xbf9100b9	-1.1328346
36	0x3f06a01c	0.5258806
37	0xbf079062	-0.52954686
38	0x3f638650	0.8887682
39	0xbfca247e	-1.5792387
40	0xbef73737	-0.48284313
41	0x3f04885b	0.5177056
42	0xbf6bd759	-0.9212547
43	0xbf81b42b	-1.0133108
44	0x3fda60ac	1.7060752
45	0x3f9dbf54	1.2324014
46	0x3f7c8c2a	0.98651373
47	0x3f14eab2	0.58170617
48	0xbf8950bf	-1.0727767
49	0x3ecf6838	0.405092
50	0x3f219717	0.6312117
51	0xbf587b26	-0.8456291
52	0xbce4b1fa	-0.027916897
53	0xbf040e0c	-0.51583934
54	0xbf1fbcbd	-0.62397367
55	0xbf717a77	-0.9432749
56	0xc0008b8e	-2.0085177
57	0xc001a8f9	-2.0259383
58	0xc0b85a7d	-5.761046
59	0xc032cd24	-2.7937708
60	0x3f25bbd9	0.6473976
61	0xc0538f48	-3.3056202
62	0xbd8cdc3e	-0.06877945
63	0xbfa686fc	-1.3009944
64	0x3e2ce496	0.16884074
65	0xbe9d148d	-0.30679742
66	0x3f87f2fe	1.062103
67	0xc0a8250d	-5.254523
68	0xbe5f3505	-0.21797569
69	0xbf5a78fb	-0.8534085
70	0xbf6f1e41	-0.9340554
71	0xbf697337	-0.9119143
72	0xbf199e05	-0.60006744
73	0xbfd78948	-1.683877
74	0xbff52e01	-1.9154664
75	0xbfccabe4	-1.5989957
76	0xbfca8a05	-1.582337
77	0xbf3cdfef	-0.73779196
78	0xbf39de8a	-0.7260519
79	0xbf43b3bd	-0.76446134
80	0xbf890107	-1.0703439
81	0xbdadfca2	-0.084954515
82	0x3f606306	0.876511
83	0xbec09f4f	-0.37621543
84	0x3feeda28	1.8660326
85	0x3ff15852	1.8855078
86	0xbf99f178	-1.2026815
87	0xc0187931	-2.382397
88	0x3e4f13fb	0.20222466
89	0x3f1909f6	0.59780824
90	0x3e1506e3	0.14553408
91	0xbfe5fb88	-1.7967386
92	0x401b6741	2.428177
93	0x3fa47355	1.2847697
94	0xbf8eb36b	-1.1148504
95	0xbf6b982b	-0.92029065
96	0x3f7a5760	0.97789574
97	0x3ebb3dc9	0.36570576
98	0xc059a996	-3.4009757
99	0xc030bc25	-2.7614834
100	0xc0324060	-2.7851791
101	0xc00cab7f	-2.1979673
102	0xc0145f5e	-2.3183208
103	0xc0156b73	-2.3346832
104	0xc022c708	-2.543398
105	0xc00ef121	-2.2334673
106	0xc00b0eb1	-2.1727717
107	0xc00915b5	-2.14195
108	0xbe74321b	-0.23847239
109	0xbd12533c	-0.03572391
110	0x3f5a8f13	0.85374564
111	0xbf07cf1b	-0.5305039
112	0xbef8cdc2	-0.4859448
113	0xbfaac92a	-1.334264
114	0xc014125c	-2.3136206
115	0xbd9b5086	-0.07583718
116	0xbf7a0372	-0.9766151
117	0xbe6dcad4	-0.23221904
118	0x3fbe11a9	1.484914
119	0xbfff618a	-1.9951642
120	0x401734e5	2.3626034
121	0xbf87a73f	-1.0597914
122	0xbff75d03	-1.932526
123	0xc04d2bd9	-3.2058012
124	0x3e3affb5	0.18261607
125	0xbf47d8be	-0.780651
126	0xbf67f65a	-0.9061028
127	0xbf2ef79f	-0.6834659
128	0xbe97aa0b	-0.2962192
129	0x3d417372	0.047229238
130	0xbf05411f	-0.5205249
131	0xbf99bc93	-1.2010673
132	0xbfea49be	-1.8303754
133	0xbfb72c7a	-1.4310448
134	0xbf85643b	-1.0421213
135	0xbfd48b8e	-1.6605089
136	0x3f40845a	0.7520195
137	0xbeb817eb	-0.35955748
138	0x3e941a77	0.2892644
139	0x3fc222a7	1.5166825
140	0xbfa99fba	-1.325187
141	0xc0604a79	-3.5045455
142	0x408437fb	4.1318336
143	0xc04c80c6	-3.1953597
144	0xbf2a5750	-0.6653948
145	0x3f8b13ce	1.0865419
146	0x40281a96	2.6266227
147	0xbf2946f5	-0.66123897
148	0x3dbe7e71	0.093014605
149	0x3f13ab5f	0.57683367
150	0x3f6f249d	0.9341524
151	0x3f6cb75b	0.9246728
152	0xbf78f92e	-0.9725522
153	0x3f2e5579	0.6809917
154	0xbf0e28e0	-0.5553112
155	0xbf2ef479	-0.68341786
156	0xc042ba30	-3.042614
157	0xbf81c91f	-1.0139502
158	0xbd964a4d	-0.073383905
159	0xbf9ce8dd	-1.2258564
160	0xbfef8c43	-1.871468
161	0xc0057186	-2.085054
162	0xbf0ac1b6	-0.5420183
163	0xbf96334c	-1.1734405
164	0x401c3ed3	2.4413345
165	0xc0098232	-2.1485715
166	0x3f9d6db0	1.2299099
167	0x3fa71720	1.3053932
168	0x3d908cfc	0.07058141
169	0x3fd0a5a2	1.6300547
170	0xbfb0603e	-1.3779371
171	0xbfff18fc	-1.99295
172	0x3ffe3caa	1.9862263
173	0xbfc93e37	-1.5722111
174	0x400ac7de	2.168449
175	0x3f86f19b	1.0542482
176	0xc05e73b9	-3.4758132
177	0x402eaa30	2.7291374
178	0x3f2ae01e	0.66748226
179	0x3f3ad83a	0.72986186
180	0x402d2a9e	2.7057261
181	0x3fd95b4d	1.6980988
182	0xbf0de008	-0.5541997
183	0xbfbc0196	-1.4687984
184	0xbfdf1142	-1.7427142
185	0xbffa4b00	-1.9554138
186	0xbf538e68	-0.8263917
187	0x3e245015	0.16046174
188	0x3e165409	0.14680494
189	0xbeec4b4a	-0.4615119
190	0xbe6475a8	-0.22310507
191	0xbe6952d9	-0.2278551
192	0xbe750db8	-0.23931015
193	0xbfcd35f8	-1.6032095
194	0x3e2ed870	0.17074752
195	0x3fac0f21	1.3442117
196	0x3f2ed51e	0.6829394
197	0xc038f59f	-2.8899915
198	0xbe4a2d34	-0.19743806
199	0xbf73a2e3	-0.9517042
200	0x4051fa5c	3.2809057
201	0xbfd05082	-1.6274569
202	0x3f0665bd	0.5249899
203	0x3f2bea80	0.67154694
204	0x3fb4fd35	1.4139773
205	0xbfc83fa4	-1.5644422
206	0xbf08d306	-0.53446996
207	0xbfe9e060	-1.8271599
208	0xbdb32480	-0.08747196
209	0xbf37fdf9	-0.71871907
210	0x3eb65341	0.35610393
211	0x3f498891	0.7872401
212	0xbfb6a1d4	-1.4268136
213	0xc01ce243	-2.45131
214	0xbf14963f	-0.5804176
215	0xbf8d6f0a	-1.1049511
216	0xbf1dec1a	-0.6168839
217	0xbfba369f	-1.4547919
218	0xbeeea2d8	-0.46608615
219	0xbf7ff11f	-0.99977297
220	0xbf95a326	-1.1690414
221	0x3fb11cd9	1.3836929
222	0xbedc6113	-0.43042812
223	0xbe7406ad	-0.23830672
224	0xbe787dd4	-0.2426675
225	0x408ea602	4.4577646
226	0xc0cdd9bf	-6.4328303
227	0xbfb81fc6	-1.4384696
228	0x3f6e6923	0.93129176
229	0x3fdd6b9e	1.7298467
230	0x3eed3024	0.4632579
231	0xbeb39433	-0.35074005
232	0xbf0ca2d8	-0.5493598
233	0xbfce3ecd	-1.6112915
234	0xbf72268c	-0.9459007
235	0x3e5e981a	0.2173771
236	0xbf21a81e	-0.6314715
237	0xbf8bc8b3	-1.0920624
238	0x3f094c2b	0.5363185
239	0x3fa57823	1.2927288
240	0x40007423	2.0070884
241	0x3fad5a19	1.3543121
242	0x3f0feb2e	0.5621823
243	0xbfd760fe	-1.6826475
244	0xbff947f4	-1.9475083
245	0x3e826119	0.25464705
246	0xbfaabbc5	-1.3338553
247	0xbf152359	-0.5825706
248	0x3edca6de	0.4309606
249	0xbefe00c4	-0.4960996
250	0xbef36d28	-0.47544217
251	0x3ea991a6	0.33118933
252	0xbfb2f33d	-1.398048
253	0xc0bd135b	-5.9086127
254	0x40c46171	6.1368947
255	0xbe196332	-0.14979246

fc1.bias f4 [400]
0	0xbf60960f	-0.8772897
1	0xc01e7e9a	-2.4764771
2	0xbf8eb5c1	-1.1149217
3	0xbf854c8d	-1.0413986
4	0xbf8f0448	-1.1173182
5	0xbf310186	-0.6914295
6	0xbf9f0886	-1.2424476
7	0xbf91f741	-1.1403581
8	0x3d17c562	0.037053473
9	0xbea4aa94	-0.3216139
10	0xbf96d0c7	-1.1782464
11	0x3d751b2e	0.059840374
12	0xbd39a7a4	-0.04532589
13	0xbfca89d7	-1.5823315
14	0x3fc5db7c	1.5457606
15	0xbecc2170	-0.3986926
16	0xbe8a02c0	-0.26955223
17	0xbeca95fb	-0.3956755
18	0xbfa5f68c	-1.2965865
19	0xbf5bd713	-0.8587505
20	0xbe0c1b80	-0.13682365
21	0xbf9cc7c0	-1.2248459
22	0xbf03cb74	-0.5148232
23	0xbea44d80	-0.32090378
24	0x3ef7ac92	0.48373848
25	0xbfd15e22	-1.6356852
26	0x3d6994f2	0.05702681
27	0xbff65985	-1.9246069
28	0x3ef970e5	0.48718944
29	0xbfb2b9ef	-1.3962992
30	0xbf3e068b	-0.74228734
31	0xbfaf4657	-1.3693341
32	0xbe95fc6a	-0.2929414
33	0xbfcf9f31	-1.6220456
34	0x3cbcc2b2	0.023042057
35	0xbeac99fb	-0.33711228
36	0xbe793099	-0.24334945
37	0xbfa7e218	-1.3115873
38	0xbfb5ae68	-1.419385
39	0xbf1dab88	-0.6158986
40	0xbfc49e89	-1.5360881
41	0xbfda9a92	-1.7078421
42	0xbcf478bf	-0.029842732
43	0xbf0c7dd8	-0.5487952
44	0xbf758fcf	-0.9592256
45	0x3bdf1961	0.0068084453
46	0xbe34de13	-0.1766284
47	0xbf44b84b	-0.7684371
48	0xbf9b5d1f	-1.2137793
49	0xbfe3133f	-1.7740248
50	0x3e5ceb9b	0.21574251
51	0xbdffdb66	-0.12493019
52	0xbf63f293	-0.89042014
53	0xc00141b5	-2.0196354
54	0xbdc84996	-0.097796604
55	0xbef7c694	-0.4839369
56	0xc014f915	-2.3277028
57	0xbed3288f	-0.4124188
58	0x3e974018	0.29541087
59	0xbe06b004	-0.13153082
60	0xbf9285da	-1.1447098
61	0xbd1e0f8b	-0.03858904
62	0xbdc20939	-0.09474415
63	0xbfbb8e18	-1.4652739
64	0xbdf1e0eb	-0.11810478
65	0xbf14deba	-0.58152354
66	0xbfbb1626	-1.4616134
67	0xbe97b4d3	-0.29630145
68	0xbeeb6be5	-0.45980754
69	0xbf05f0d1	-0.5232058
70	0xbefa0c43	-0.4883748
71	0xbfab4ba8	-1.3382463
72	0xbef026e4	-0.4690467
73	0x3f85a0fc	1.0439754
74	0xbca557bb	-0.020183435
75	0xbeabec0d	-0.3357853
76	0xbf643749	-0.8914686
77	0xbd874315	-0.06604592
78	0xbfbeac69	-1.4896365
79	0xbeeda4bc	-0.46414745
80	0xbf19ad67	-0.60030216
81	0xbf525eb5	-0.8217576
82	0xbf7a0b8e	-0.9767388
83	0xbeee3329	-0.46523407
84	0xbf2e97c8	-0.6820035
85	0xbf520df0	-0.82052517
86	0xbf00502a	-0.5012232
87	0xbd5a8dc5	-0.05335786
88	0x3e60dad1	0.21958472
89	0xbf91a1c6	-1.1377494
90	0x3e5371e6	0.20648918
91	0xbf9a55b9	-1.205741
92	0xbef52f1c	-0.47887504
93	0xbe2dd801	-0.1697693
94	0xbf53b83a	-0.8270298
95	0xbdeebb10	-0.11656773
96	0x3ece5078	0.40295768
97	0xbf215e54	-0.6303456
98	0x3cd7f20f	0.02636054
99	0xbe6b3710	-0.22970223
100	0x3dfdfafe	0.124013886
101	0x3cb408c1	0.02197683
102	0xbcfca83b	-0.030841937
103	0xbfd007e3	-1.6252407
104	0xbfc04c2c	-1.5023246
105	0xbeb56383	-0.35427484
106	0xbebc629f	-0.36793992
107	0xbfdd1ac7	-1.7273797
108	0xbe5bad28	-0.21452773
109	0xbe495877	-0.19662653
110	0xbf8540b5	-1.0410372
111	0xbeda6d6d	-0.4266161
112	0xbf1239fb	-0.5711972
113	0xbe86e935	-0.26349798
114	0xbfe7ecab	-1.81191
115	0xbea036d2	-0.31291825
116	0xbde9c18c	-0.11413869
117	0xbfdf6962	-1.7454035
118	0xbf93f120	-1.155796
119	0xbd2d5408	-0.042316467
120	0xbe6d82a8	-0.23194373
121	0xbf258267	-0.64652103
122	0xbf8cd4fd	-1.1002499
123	0x3ef88ace	0.485434
124	0xbfc35be3	-1.5262417
125	0xbe4bcecd	-0.19903107
126	0x3d1069e3	0.03525723
127	0xbfcfc6a7	-1.6232499
128	0xbfa5665d	-1.2921864
129	0xc039064b	-2.891009
130	0x3f708a45	0.9396098
131	0xbf1a2666	-0.6021484
132	0xbf23f90f	-0.6405191
133	0xbfd43243	-1.6577839
134	0x3e15452b	0.14577167
135	0x3ef4109d	0.47668925
136	0xc045d63c	-3.0912008
137	0xbee22060	-0.44165325
138	0xbec55b65	-0.3854629
139	0xbe8e47cd	-0.27789155
140	0xbe2f8863	-0.17141871
141	0xbf898a1e	-1.0745275
142	0xbe7ee5e0	-0.24892378
143	0xbf2125f9	-0.62948567
144	0xbcb1e8b1	-0.021717401
145	0x3df222a0	0.118230104
146	0xbf90cb49	-1.1312038
147	0x3eaf2c0a	0.34213287
148	0xbbd421d8	-0.006473761
149	0xbe8818cc	-0.2658142
150	0xbf90c43d	-1.1309887
151	0xbf536902	-0.82582104
152	0xbf34e588	-0.70662737
153	0xbe83b404	-0.2572328
154	0xbfa5c2ae	-1.2950037
155	0xbed3ed3b	-0.4139193
156	0xbf492a86	-0.7858051
157	0xbe12bd1b	-0.1432995
158	0x3f50678d	0.81408006
159	0xc00bf3f1	-2.186764
160	0x3dd76330	0.105169654
161	0xbf92145d	-1.1412464
162	0xbd9eaf95	-0.07748333
163	0xbea44f65	-0.32091823
164	0xbf872794	-1.0558953
165	0x3ec6c5b5	0.38822713
166	0xbfda2c4e	-1.7044771
167	0x3ec8aa4a	0.3919242
168	0x3f7574e8	0.9588151
169	0xbfbcc16a	-1.4746525
170	0xbf03e631	-0.5152312
171	0xbed37f85	-0.41308227
172	0xbf6b477f	-0.9190597
173	0xbe753f36	-0.23949894
174	0xbf8a7cd4	-1.0819345
175	0xbe146619	-0.14492072
176	0xbff6d3fd	-1.9283444
177	0x3f088229	0.5332361
178	0xbf78af38	-0.9714236
179	0x3e4685b5	0.19386943
180	0xbe9ef874	-0.3104893
181	0xbf334d69	-0.70039994
182	0xbe3b3f05	-0.18285759
183	0xbf052bbb	-0.5201985
184	0xbebe5db6	-0.3718087
185	0xbf9fa072	-1.2470839
186	0xbea7c0f9	-0.32764414
187	0xc0074ece	-2.1141849
188	0xbe9b8e1f	-0.30381867
189	0xbd9b72bd	-0.07590244
190	0xbf5eb494	-0.8699429
191	0x3e25b4f5	0.16182311
192	0xbdebd862	-0.11515881
193	0xbfbb7326	-1.4644516
194	0xc0312271	-2.7677271
195	0xbeb6fe9a	-0.3574112
196	0x3f546c52	0.82977784
197	0xbff5387f	-1.9157866
198	0xc012a5ab	-2.2913616
199	0xbde989c1	-0.114032276
200	0xbe13d2dd	-0.14435907
201	0xbf3b2c7b	-0.73114747
202	0xbe80d1fd	-0.25160208
203	0xbcd22ea0	-0.025656998
204	0xbfd9240a	-1.6964123
205	0xbf55039a	-0.8320862
206	0xbf360990	-0.7110834
207	0x3df9abcc	0.12190971
208	0x3ec43579	0.38322046
209	0xbfcc2e0d	-1.5951554
210	0xbf0d3d64	-0.551718
211	0xbddcf332	-0.10788573
212	0xbf25dd77	-0.64791054
213	0x3f96af6e	1.1772287
214	0xbf1ce66e	-0.6128911
215	0xbe8ccac3	-0.27498445
216	0xbfece74a	-1.8508084
217	0xbee37508	-0.44425225
218	0xbf91d098	-1.1391783
219	0xbf9e7039	-1.2377998
220	0xbe8873ca	-0.2665084
221	0xbf78bba5	-0.9716132
222	0xbf33da69	-0.7025514
223	0xbf861eab	-1.0478109
224	0x3c43fc41	0.0119619975
225	0xbf95820f	-1.1680316
226	0xbf94bbce	-1.1619813
227	0xc00308b4	-2.0474062
228	0xbf2b6270	-0.6694708
229	0xbdb83aab	-0.08995565
230	0xbe81b3b7	-0.25332424
231	0x3d9255ef	0.07145297
232	0xbea969fe	-0.33088678
233	0xbfc68ed6	-1.551234
234	0x3e77d650	0.24202847
235	0xbd85b8da	-0.06529398
236	0xbfacb47c	-1.349258
237	0xbd4b2508	-0.049595863
238	0xbe3feecf	-0.18743442
239	0xbfa636fa	-1.2985528
240	0xbeea159f	-0.4571962
241	0x3e93df02	0.2888108
242	0xbf0ee4c2	-0.55817807
243	0xbf7cd7e5	-0.9876693
244	0xbfc82b14	-1.5638146
245	0xbe22e00f	-0.15905784
246	0xbe60ee7c	-0.21965975
247	0xbff1b9ef	-1.8884867
248	0xbfc7cd2b	-1.5609487
249	0xbf40402a	-0.75097907
250	0x3bce341e	0.006292834
251	0xbf50a032	-0.8149444
252	0x3ebd27f3	0.3694454
253	0xbe8e1965	-0.2775375
254	0x3ed0603c	0.4069842
255	0x3e8c076d	0.27349415

fc2.weight f4 [300, 400]
0	0xbfb86b17	-1.4407681
1	0x3f3068b2	0.6890975
2	0xbf8534ad	-1.04067
3	0x401091dc	2.2589025
4	0x3f629c6d	0.88519937
5	0xbffd96cf	-1.9811648
6	0x3fb8e095	1.4443537
7	0x3ed470d1	0.41492322
8	0xbe8327de	-0.25616354
9	0xbf90c057	-1.1308697
10	0x3fb251bd	1.3931195
11	0xbf22ae55	-0.6354726
12	0x40a4de57	5.152141
13	0x3f60ac80	0.87763214
14	0xbf5fc8ed	-0.87415963
15	0xbfd86508	-1.6905832
16	0x3db1a0a8	0.08673221
17	0xbf9ca022	-1.2236369
18	0x403ac333	2.918164
19	0xc03178c1	-2.7729952
20	0x3f4ed33a	0.80791056
21	0x3ee4341d	0.4457101
22	0xc09fba9e	-4.9915304
23	0xbf1b7680	-0.6072769
24	0xc10f3eeb	-8.952861
25	0xbfa29e70	-1.2704601
26	0x405744da	3.3635774
27	0xc0177f5b	-2.3671482
28	0x3f507fe3	0.8144514
29	0x3eadd85c	0.33954132
30	0x3f43ce2b	0.7648646
31	0x3fa78449	1.3087245
32	0xbd717dc9	-0.05895785
33	0x3f2516ee	0.6448811
34	0x3ed2154d	0.41031876
35	0xbed83d34	-0.42234194
36	0x3f02d15d	0.51100713
37	0x3f858d98	1.0433836
38	0x3ff3feb7	1.9062108
39	0xbf4af64a	-0.7928206
40	0x403497a2	2.821755
41	0xc03af536	-2.9212165
42	0xc07a1917	-3.9077814
43	0x3ee39b0f	0.44454238
44	0x3fde9305	1.7388617
45	0x3f9752a7	1.1822098
46	0x3dfe46cc	0.12415847
47	0xbfe10379	-1.7579185
48	0x3fe77585	1.8082739
49	0xc0e3f289	-7.1233563
50	0x3f658f78	0.8967204
51	0xbd69ecae	-0.05711048
52	0xc07266d1	-3.7875254
53	0xbfeb48cf	-1.8381594
54	0xbe01830d	-0.12647648
55	0xbf36a92f	-0.71351904
56	0xbf551f83	-0.8325121
57	0xc0107df7	-2.2576883
58	0xbdbb8180	-0.091555595
59	0xbd59b8cf	-0.053154763
60	0xbf10f005	-0.5661624
61	0x3e468abf	0.19388865
62	0x3d6d9027	0.057998803
63	0x3fffc4bd	1.9981915
64	0x3dca827a	0.09888168
65	0x3f7d15ef	0.98861593
66	0xbfe36ea6	-1.7768142
67	0xbf94dda7	-1.1630143
68	0xbe6184c1	-0.22023298
69	0x3e798365	0.2436653
70	0xbf9e52fe	-1.2369077
71	0x3ff0c9ab	1.8811544
72	0xbf687980	-0.90810394
73	0xc0085e1a	-2.1307435
74	0x4082c207	4.086185
75	0xbfa7e158	-1.3115644
76	0xbfa925c3	-1.3214649
77	0xbd5570b2	-0.052109428
78	0x3f98406b	1.1894659
79	0xbd928dd6	-0.07155959
80	0x3f31d1c7	0.6946072
81	0xbf7a244a	-0.9771162
82	0xbfbbf677	-1.468459
83	0x3ec78f6d	0.38976613
84	0x3ff2428a	1.8926556
85	0x3fefee73	1.8744644
86	0xbfc8867f	-1.5666045
87	0x3d55c7b1	0.052192394
88	0x3f7082bc	0.93949485
89	0xc04291a0	-3.0401382
90	0x3f3ff026	0.7497581
91	0x3f97ea37	1.1868352
92	0x3ffdb5a3	1.9821056
93	0x3e2ab12b	0.16669147
94	0x3dcb6f5d	0.0993335
95	0x3dd2eb44	0.102987796
96	0x3fd701cb	1.6797422
97	0x40200be9	2.500727
98	0x3cba5425	0.022745201
99	0xbde3c9dd	-0.11122487
100	0xbfd58766	-1.6681945
101	0x3c1b2ddc	0.009471383
102	0xbda77114	-0.08175865
103	0x3c3bf1f4	0.01147126
104	0xc03718ce	-2.860889
105	0x3f6c2145	0.92238265
106	0xbf8dbbf0	-1.1072979
107	0x3fc6c18a	1.5527813
108	0xbe6ea7d5	-0.2330621
109	0x3dd69ef1	0.104795344
110	0x3ff408eb	1.9065222
111	0x3b314319	0.002704805
112	0xbf661f74	-0.89891744
113	0xc09a357d	-4.8190293
114	0x3e478e34	0.1948784
115	0x3fb01d3e	1.3758924
116	0xbd7266a1	-0.059179906
117	0x3ea48945	0.32135978
118	0xbf6f9f0b	-0.93602055
119	0xbe1093fd	-0.14118953
120	0x400f1138	2.235426
121	0xbf220822	-0.6329366
122	0x40144ce7	2.3171937
123	0xbf8bc1b8	-1.0918493
124	0xbe7579c5	-0.23972233
125	0x3da39327	0.079870515
126	0x3e860c04	0.26181042
127	0xbfa8594a	-1.3152249
128	0x3f6e3b09	0.9305883
129	0x3f3ca868	0.7369447
130	0xbf303173	-0.68825454
131	0x3da98ea7	0.08279162
132	0xc00b660f	-2.1781042
133	0x3f171340	0.5901375
134	0xbfa41d30	-1.2821407
135	0xbd36915c	-0.04457222
136	0xbf81590c	-1.01053
137	0x3c1c2b05	0.009531741
138	0x3ee5199b	0.44746098
139	0xbe25bf3b	-0.1618623
140	0x3ebbadb6	0.36655968
141	0x403231c6	2.784288
142	0xbf054121	-0.52052504
143	0x3ecf4217	0.4048011
144	0x3de38dcf	0.11111032
145	0xbd461e13	-0.048368525
146	0xc0d2ba62	-6.585252
147	0xc05825d6	-3.3773093
148	0x3ec12d80	0.37730026
149	0x3f0a0e35	0.5392793
150	0x404dfa0a	3.2183862
151	0x405424ed	3.3147538
152	0x3f8d6f03	1.1049503
153	0x3e6d4bbb	0.2317342
154	0x3e86137d	0.26186743
155	0x3fed356e	1.853193
156	0xbfc45955	-1.5339762
157	0xbdeb7009	-0.114959784
158	0xbf818381	-1.0118257
159	0x3f338eb6	0.70139635
160	0x3fc17ba8	1.5115862
161	0x3f49b2fb	0.7878873
162	0x3d4a3669	0.049368296
163	0x3fa2e6b8	1.272666
164	0x3f3c204d	0.7348679
165	0x3fc70590	1.5548573
166	0xc00d43f9	-2.2072737
167	0x3f0c63d2	0.54839814
168	0x3f9f7702	1.2458193
169	0xbf14b4ef	-0.5808858
170	0xbed3268f	-0.41240355
171	0x3d200818	0.03907022
172	0x3d3ad663	0.04561461
173	0xbd3c5ad1	-0.045985047
174	0xbfca886d	-1.5822884
175	0x3df6e67b	0.120556794
176	0x3f45fcb4	0.7733872
177	0xc034f850	-2.8276558
178	0xbe41b72e	-0.18917534
179	0x3f0eadfb	0.55734223
180	0x4064b29c	3.5734015
181	0xbf850e75	-1.0395037
182	0xc00ad955	-2.169515
183	0x3f08bda0	0.53414345
184	0xbec9563d	-0.39323607
185	0xbfc81c2e	-1.56336
186	0xbeac86cb	-0.3369659
187	0xbeabe1c3	-0.3357068
188	0xbf165a83	-0.5873186
189	0xbc191c35	-0.009345104
190	0x3efbab57	0.4915416
191	0x3ec65d74	0.38743174
192	0x3e218f93	0.15777425
193	0x3ffb6f7d	1.9643399
194	0x3f7eb6a8	0.9949746
195	0xbcb45ec9	-0.022017853
196	0x3f2e205d	0.6801813
197	0xbf9cd3bb	-1.2252115
198	0xbffd8d50	-1.980875
199	0xbe3e83e6	-0.18605003
200	0x3fb0e468	1.3819704
201	0x3f1a133d	0.60185605
202	0xbbd06a49	-0.0063603264
203	0x3f62746b	0.8845889
204	0x3f3bd4ba	0.7337147
205	0xbf45dc6a	-0.7728945
206	0x400fd481	2.2473452
207	0x3ea41acd	0.32051697
208	0x3fbe986a	1.4890263
209	0xc01f210f	-2.4863927
210	0x4030894a	2.7583795
211	0x3f71aad1	0.9440127
212	0x3f8ebfde	1.1152303
213	0x3f33c707	0.70225567
214	0x3fbe7024	1.4877973
215	0x3ffd9b96	1.9813106
216	0x3fb4de41	1.4130327
217	0x3e323b93	0.17405538
218	0x3d54902d	0.05189531
219	0xbfcb72e3	-1.5894436
220	0x3eb2d756	0.34929913
221	0xbffe0361	-1.9844781
222	0xbe7e1039	-0.24810876
223	0x3f2cecc2	0.67548764
224	0x3fef2c85	1.8685461
225	0xc0045a7f	-2.0680234
226	0x3f8476f7	1.0348805
227	0x3fd7b471	1.6851941
228	0xc00530ed	-2.0811112
229	0x409bb0fc	4.8653545
230	0x3e086387	0.13319217
231	0xc057c562	-3.3714223
232	0x3e36c152	0.17847183
233	0xbf22d2fa	-0.63603175
234	0x3eff51a0	0.49866962
235	0xbfcbe44f	-1.5929049
236	0xbf06602f	-0.52490515
237	0xbea28c0f	-0.3174748
238	0xbe7ad061	-0.24493553
239	0x3e868280	0.2627144
240	0xc0765d06	-3.8494277
241	0x3ff31ffa	1.8994133
242	0xc0020cae	-2.032024
243	0xbbdf4c90	-0.006814547
244	0xbe87985f	-0.26483437
245	0xbf06e621	-0.526949
246	0x3d3c8f6d	0.04603522
247	0xc0449f73	-3.072232
248	0xbea44849	-0.320864
249	0xbfbff1ca	-1.4995663
250	0x3e15facc	0.14646453
251	0x3fefe762	1.8742487
252	0x3cfada3f	0.030621646
253	0x3d3fabc1	0.046794657
254	0xbe30594c	-0.17221564
255	0x3e0442d5	0.1291612

fc2.bias f4 [300]
0	0xbf564f3e	-0.83714664
1	0xbe1581b2	-0.14600256
2	0xbd848a7a	-0.06471725
3	0xbd00e61c	-0.03146945
4	0xbfe200cc	-1.7656493
5	0xbfb4efae	-1.4135644
6	0x405e46d4	3.473073
7	0xbdb394ba	-0.08768602
8	0xbd439d69	-0.04775754
9	0x3f3e9210	0.74441624
10	0xbd857e2b	-0.06518205
11	0xbd93e6c0	-0.072217464
12	0xbf306eda	-0.68919146
13	0xbd11a8b6	-0.035561286
14	0x3d657c5f	0.056026813
15	0xbe78818c	-0.24268168
16	0xbd9d6b83	-0.07686522
17	0x3f333d11	0.70015055
18	0xbdb25c16	-0.0870897
19	0x3db57309	0.08859832
20	0x3f12378b	0.57116
21	0xbf663e39	-0.89938694
22	0x3cba51b0	0.02274403
23	0xbda889f0	-0.082294345
24	0x3ea392f8	0.31948066
25	0x3f816e49	1.0111781
26	0x40b1561a	5.5417604
27	0xbbaff1b4	-0.0053693894
28	0xbd8c8129	-0.06860573
29	0xbf5adf08	-0.8549657
30	0xbdb1c322	-0.08679797
31	0x3e39e0ad	0.18152113
32	0xbdbc10ce	-0.09182893
33	0x409b7e48	4.859165
34	0xbfd0ff6a	-1.6327946
35	0xbd5d95eb	-0.05409805
36	0xbf1a2bf3	-0.6022331
37	0xbd834b87	-0.0641089
38	0xbd2ee7e1	-0.042701606
39	0x400896f8	2.1342144
40	0xbf767415	-0.9627088
41	0xbe0aa3e9	-0.1353909
42	0x3f50e528	0.81599665
43	0x408fd1d6	4.4943647
44	0x3e046d0f	0.12932228
45	0xbd973b5c	-0.07384369
46	0xbd1bcedc	-0.038039073
47	0xbc401b81	-0.011725307
48	0xbdeb7640	-0.11497164
49	0xbeab5155	-0.3346049
50	0x39beba1c	0.00036378286
51	0xbdecea35	-0.11568109
52	0xbd97f549	-0.07419831
53	0xbd367614	-0.0445462
54	0x3f474aee	0.7784871
55	0x3ba43bda	0.0050120177
56	0xbd567f01	-0.052367214
57	0xbd32097f	-0.043466087
58	0xbb71e921	-0.0036912637
59	0xbf00b8f5	-0.5028222
60	0xbd1b346d	-0.037891794
61	0xbf262b85	-0.64910156
62	0xbf83dd8f	-1.0301989
63	0xbe0b86aa	-0.13625589
64	0xbcde0a8a	-0.027104635
65	0xbe30b59c	-0.17256778
66	0x3f88f675	1.0700213
67	0xbd5af376	-0.05345484
68	0x405da438	3.463148
69	0x406843cb	3.6291378
70	0xbd00bfea	-0.031433024
71	0xbfd7f621	-1.6871988
72	0xbd01cc2f	-0.031688865
73	0x3fbf9f94	1.4970574
74	0xbe088d1e	-0.13335082
75	0xbde89f66	-0.11358528
76	0xbe6fb2b3	-0.23408012
77	0xbd2a5857	-0.041588154
78	0xbe8e1ad5	-0.27754846
79	0x3d9b9511	0.075967915
80	0xbddedbdc	-0.108817786
81	0xbe11f7cc	-0.14254683
82	0x3e231e73	0.15929584
83	0xbd33db79	-0.043910477
84	0x3fd48e84	1.6605992
85	0xbdd9daaa	-0.1063741
86	0xbde9bd28	-0.11413032
87	0xbc015750	-0.007894352
88	0x3b4bdafb	0.0031105864
89	0xbd9a51a0	-0.075351
90	0xbdd26be7	-0.10274487
91	0x3ea3d5aa	0.3199895
92	0x3b6ebc7a	0.0036428259
93	0xbd7914bc	-0.06081079
94	0xbd7d05fe	-0.061773293
95	0xbf3403cf	-0.7031831
96	0xbdbf0064	-0.093262464
97	0xbd0309f6	-0.03199192
98	0xbc58d766	-0.013234949
99	0xbabe9194	-0.0014539235
100	0xbd858fd3	-0.06521573
101	0x400784f7	2.1174905
102	0xbe04887d	-0.12942691
103	0x4060ce2a	3.5125833
104	0xbcba0b3d	-0.022710437
105	0xbe98e80a	-0.29864532
106	0xbebfb69a	-0.37444
107	0xbe2475a7	-0.16060506
108	0xbd5f46d3	-0.054510903
109	0x3f2e3f58	0.68065405
110	0xbf0c2324	-0.5474112
111	0xbe68b267	-0.22724305
112	0xbd997223	-0.07492473
113	0x3e2caa84	0.16861922
114	0xbaa05f05	-0.0012235349
115	0x405b4c88	3.426546
116	0xbe168248	-0.14698136
117	0xbc27e679	-0.01024782
118	0x402678d3	2.6011245
119	0x3f6f0df1	0.9338065
120	0xbdc2685f	-0.094925635
121	0xbd7957d9	-0.060874794
122	0x3f553054	0.8327687
123	0x3f1bd9e9	0.6087938
124	0x3ed09307	0.40737173
125	0x3e8fce98	0.28087306
126	0x3c010fa3	0.007877263
127	0xbdad3cb5	-0.084588446
128	0xbd1e83a8	-0.038699776
129	0xbeda6577	-0.42655537
130	0xbca8af13	-0.020591294
131	0xbe0ede4e	-0.1395199
132	0xbdfd3970	-0.12364471
133	0xbde075fa	-0.10960002
134	0xbc3663df	-0.01113221
135	0xbbb9533c	-0.0056556743
136	0xbd877f62	-0.06616093
137	0xbded013a	-0.115724996
138	0x40783851	3.8784373
139	0x3d5a0032	0.053222843
140	0xbc512e5b	-0.0127674
141	0x4092cd46	4.587558
142	0xbf7dfe1c	-0.99215865
143	0xbbae2272	-0.005314165
144	0x40053a26	2.081674
145	0x4043469d	3.051185
146	0xbe0e36e8	-0.13888133
147	0xc0380df2	-2.8758512
148	0x3b9d206a	0.004795124
149	0xbe2a05b8	-0.16603744
150	0x3e49ef41	0.19720174
151	0x3c38333d	0.011242685
152	0xbe70fd2f	-0.23534082
153	0xbd3efa9c	-0.04662572
154	0x40267c86	2.6013503
155	0xbf7fa37b	-0.99858826
156	0xbd7c03b7	-0.06152698
157	0xbcbbeb12	-0.022939239
158	0x3fc47705	1.5348822
159	0xbcb0cae0	-0.021581113
160	0xbd357e8e	-0.044310145
161	0xbf01d55e	-0.507162
162	0x3fe8b7be	1.8181074
163	0xbd5c068e	-0.05371719
164	0x3f409795	0.75231296
165	0xbd307445	-0.043079633
166	0x409386e8	4.610218
167	0xbf78787f	-0.9705886
168	0xba5e187f	-0.0008472278
169	0xbe03aaca	-0.1285812
170	0xbecdb247	-0.40175077
171	0xbed3b710	-0.41350603
172	0x3e0b9025	0.13629206
173	0x3ea1c08d	0.31592217
174	0xbd9ba67e	-0.07600115
175	0xbdc2eabf	-0.095174305
176	0xbcfd17e4	-0.030895181
177	0xbd82c3e3	-0.06385019
178	0xbf3720b9	-0.71534306
179	0x3da3585b	0.07975837
180	0xbddc3ed7	-0.10754173
181	0x3f4f4d4f	0.8097734
182	0x40172d67	2.3621461
183	0xbd110cd0	-0.03541261
184	0x3fdd5d0e	1.7294023
185	0xbcc1abd2	-0.0236415
186	0xbdb87cae	-0.09008156
187	0xbd26b691	-0.040701453
188	0xbe82052f	-0.2539458
189	0xbdc06e79	-0.09396071
190	0xbd31b376	-0.043384038
191	0xbd9df3f8	-0.07712549
192	0xbdeeef7d	-0.116667725
193	0xbd19be0e	-0.037534766
194	0x3ff63592	1.9235098
195	0x3febbcc7	1.8416985
196	0xbecf0d13	-0.40439662
197	0xbebca680	-0.3684578
198	0xbdabcfc5	-0.08389238
199	0x3e4d6b6e	0.20060512
200	0x3f9aa9ad	1.2083031
201	0xbdb17c27	-0.08666258
202	0x3e9c9b26	0.3058712
203	0xbf30ea6c	-0.691077
204	0x3f09d3fb	0.5383908
205	0x3d37a524	0.044835225
206	0x3c0966ec	0.008386355
207	0xbdb53741	-0.088484295
208	0xbddaefcc	-0.10690269
209	0x3f1012da	0.56278765
210	0xbd230c2d	-0.039806534
211	0xbd44eb88	-0.048076183
212	0xbd24a7ad	-0.04019897
213	0x3e611c74	0.2198351
214	0xbe0e405d	-0.1389174
215	0xbf0ddeea	-0.55418265
216	0xbf48af27	-0.7839226
217	0xbd6b2530	-0.05740851
218	0x4077f44d	3.874286
219	0xbd85a666	-0.065258786
220	0xbca60cbc	-0.020269744
221	0xbd936885	-0.0719767
222	0x3def093f	0.116716854
223	0x3d59448c	0.053043887
224	0xbf397688	-0.7244649
225	0xbfa5167c	-1.2897487
226	0x3f98fa8d	1.1951462
227	0x3ef734b5	0.482824
228	0xbdd53ebf	-0.104123585
229	0x3d9019c0	0.070361614
230	0xbd84770f	-0.06468021
231	0xbd922a59	-0.071369834
232	0x3dfa20c4	0.12213281
233	0x3eda69a1	0.42658713
234	0xbea1604a	-0.31518775
235	0xc03456c4	-2.8177958
236	0x3d868b94	0.06569591
237	0x3ef3a7c0	0.4758892
238	0xbcf123a1	-0.029435934
239	0xbdc379d6	-0.09544723
240	0x40077829	2.116709
241	0xbce6a56e	-0.028155055
242	0xbef56fc2	-0.47936827
243	0xbd94d86e	-0.07267843
244	0x401c0a22	2.4381185
245	0xbdbaad52	-0.091150895
246	0xbd9a8e14	-0.075466305
247	0xbdf36947	-0.118853144
248	0x3fc71b16	1.5555141
249	0xbb809bf0	-0.003924839
250	0xbf09dfc4	-0.53857064
251	0xbd6e0ec7	-0.05811956
252	0xbd80adba	-0.06283136
253	0xbf278142	-0.65431607
254	0xbf603190	-0.87575626
255	0x3ee1f51e	0.44132322

fc3.weight f4 [1, 300]
0	0x3f7bd30d	0.9836891
1	0xbf6819dc	-0.9066446
2	0x3cd6c6d0	0.026217848
3	0xbcba0593	-0.022707736
4	0x3f0984c9	0.5371824
5	0x3ca1c8c7	0.019749058
6	0xbf7a9138	-0.97877836
7	0xbeb294e3	-0.34879217
8	0x3c96dfe9	0.018417316
9	0xbf9f3382	-1.2437594
10	0x3cb710a2	0.022346798
11	0x3bc09d84	0.0058781523
12	0x3f476e25	0.7790244
13	0xbe87964c	-0.26481855
14	0xc024a5d0	-2.5726204
15	0xbf8d4ab9	-1.1038429
16	0xbe8ec6bf	-0.27886006
17	0xbf352968	-0.70766306
18	0xbc822c6c	-0.015890323
19	0x3fb579cd	1.4177796
20	0x3f41d29c	0.7571199
21	0x3fb9d0c7	1.4516839
22	0xbe8a3535	-0.2699372
23	0x3c96a1a6	0.018387627
24	0xbf0ec383	-0.5576708
25	0xbf99decb	-1.2021116
26	0xbfc34132	-1.5254271
27	0xbcd06658	-0.025439426
28	0x3b01aba1	0.0019786137
29	0x4006b658	2.1048794
30	0xbca67c3a	-0.020322908
31	0xbfe306e8	-1.7736483
32	0x3d0d22ae	0.0344569
33	0xbf2fc6de	-0.6866282
34	0x4054f7a8	3.3276157
35	0x3b8d62a3	0.004314737
36	0x3f7388de	0.9513072
37	0x3c7dfc48	0.015502043
38	0x3cb0b1a1	0.021569075
39	0xc0373ea2	-2.8631978
40	0x3fe407db	1.7814897
41	0xbce8739d	-0.028375441
42	0xbf997efd	-1.1991879
43	0xbeab40bd	-0.3344783
44	0xbf983da5	-1.1893812
45	0xbb010748	-0.0019688178
46	0xbb7b7ba6	-0.003837326
47	0x3cc62b44	0.024190553
48	0x3fd9284c	1.6965423
49	0xbee68521	-0.45023444
50	0xbc4cc661	-0.012498469
51	0x3cef8096	0.02923612
52	0x3cd21ed1	0.02564946
53	0x3c6e0d05	0.014529471
54	0xbf937ebc	-1.1523051
55	0xbcad8815	-0.021183053
56	0x3ceb8dfc	0.028754227
57	0x3cce2721	0.025165142
58	0x3be666ef	0.0070313136
59	0x408081b3	4.0158324
60	0xbcb86691	-0.022509845
61	0xbf56810d	-0.83790666
62	0x3fc61c23	1.5477337
63	0xbe7306fa	-0.2373313
64	0xbc5fe09d	-0.013664392
65	0xbf33da37	-0.70254844
66	0x3fbde37b	1.4835047
67	0xbc5a3c1a	-0.013319993
68	0xbf2c0259	-0.6719108
69	0xbfe01c10	-1.7508564
70	0x3ce843eb	0.028352698
71	0x3f400ffe	0.750244
72	0x394191d5	0.00018460241
73	0xbca2037f	-0.019777058
74	0xbe2e1ab1	-0.1700237
75	0x3c37392b	0.0111830635
76	0xbf7ad494	-0.9798062
77	0xbbd984be	-0.0066381386
78	0xbfb6f5c9	-1.4293758
79	0xbe81f576	-0.25382584
80	0xbb55d982	-0.0032630865
81	0x38c010be	9.158392e-05
82	0xbf91f854	-1.1403909
83	0x3ce22898	0.027607247
84	0xbf501a66	-0.8129028
85	0xbc2824f9	-0.010262721
86	0xbb98888d	-0.00465495
87	0x3cc03e87	0.023467315
88	0xbd0143ac	-0.031558678
89	0x3b5916b4	0.0033125104
90	0xbb65c0e9	-0.003505761
91	0xbfc09855	-1.5046488
92	0x3ba6d9a3	0.0050918623
93	0xbbef8ff3	-0.0073108613
94	0x3c76f2a1	0.015072496
95	0x3ee4c5df	0.44682214
96	0xbbb4ce96	-0.005517791
97	0xbced3309	-0.028955
98	0xbe7a5fd0	-0.24450612
99	0x3be21ac7	0.0069001648
100	0xbc86867c	-0.016421549
101	0xbf6084fe	-0.8770293
102	0xbd6acd17	-0.057324495
103	0xbf8a0ec8	-1.0785761
104	0x3c1cefe2	0.009578677
105	0x40192347	2.3927782
106	0xbfdbe511	-1.717928
107	0x3fc7af54	1.5600381
108	0xb9119466	-0.0001388356
109	0xbeb37105	-0.35047165
110	0x3ea2fc98	0.3183334
111	0x3ee52148	0.44751954
112	0x3cc43597	0.023951335
113	0xbf23ca9c	-0.6398103
114	0xbcbb74c3	-0.022882825
115	0xc02b4c9e	-2.6765513
116	0x3a687d02	0.0008868725
117	0xbe762790	-0.2403853
118	0xbfc4364c	-1.532907
119	0x3ed850e8	0.42249227
120	0x3c81c69f	0.01584178
121	0xbcae6da0	-0.021292508
122	0xbf383d69	-0.71968704
123	0x3f8ac2a6	1.0840652
124	0xbf8b032c	-1.0860343
125	0xbf843a2f	-1.0330256
126	0xbe98477e	-0.29742044
127	0x3cff875b	0.031192472
128	0x3d23df6d	0.040007997
129	0xbee3726a	-0.44423229
130	0x3cebc316	0.028779548
131	0xbe7bbf12	-0.24584606
132	0x3cedac09	0.029012697
133	0xbb94946e	-0.0045342958
134	0x3ab2ec0a	0.0013650667
135	0xbe985389	-0.29751232
136	0xbcdbead6	-0.026845377
137	0x3c9b79ef	0.01897904
138	0xbeff3a0a	-0.49848968
139	0xbec9d45c	-0.3941983
140	0xbea93ae1	-0.33052734
141	0xbfa0d689	-1.2565471
142	0x3f0e1bda	0.5551125
143	0x3b0f7bcc	0.0021893857
144	0xc0120158	-2.281332
145	0xbee90ad7	-0.45516083
146	0xbf46fd29	-0.7773004
147	0x3fe7155b	1.8053392
148	0x3ee27b41	0.4423466
149	0xc05c0d94	-3.4383287
150	0x3ea7ba4c	0.3275932
151	0xbe96a73b	-0.29424462
152	0x3f8204ae	1.0157678
153	0xbd1a24cf	-0.03763276
154	0xbf95b47b	-1.1695703
155	0xbfc1c5a3	-1.5138439
156	0x3c48337b	0.012219305
157	0xbc3e8664	-0.011628721
158	0xbfa3ae4d	-1.2787567
159	0xbca231b6	-0.019799095
160	0xbe33cdb8	-0.17558944
161	0x3fd672f4	1.6753831
162	0xbeff5961	-0.49872878
163	0x3cd4e093	0.025985992
164	0xc019315b	-2.3936374
165	0xbcbf0e9b	-0.023322394
166	0xbf440f5c	-0.76585937
167	0xbf902573	-1.1261429
168	0xbbeb1d8c	-0.007175153
169	0x3cf11160	0.02942723
170	0xbeb01a14	-0.34394896
171	0x3e9e5298	0.3092239
172	0xbf9eb297	-1.2398251
173	0xbf3c4142	-0.73537076
174	0xbb398f32	-0.002831411
175	0x3ca0600e	0.019577052
176	0xbbc77fec	-0.0060882475
177	0xbe40f0f5	-0.18841918
178	0x3e9be895	0.30450884
179	0x3f537cfe	0.826126
180	0xbcd6ffda	-0.026245046
181	0xbf7c66f9	-0.98594624
182	0xc0015f6b	-2.0214489
183	0x3be86047	0.0070915553
184	0xbfd7d20d	-1.6860977
185	0xbf9273ad	-1.1441551
186	0xbca4f19c	-0.02013474
187	0x3bb580f6	0.005539055
188	0xbf84ffae	-1.0390527
189	0x3cb2fdcb	0.021849534
190	0xbd07d34b	-0.03316049
191	0x3ce2333a	0.027612317
192	0xbd006514	-0.031346396
193	0xbccd20e5	-0.0250401
194	0xbf73e5c5	-0.95272475
195	0xbfd7a130	-1.6846066
196	0xbf8b2da2	-1.0873301
197	0xbf9dd408	-1.2330332
198	0xbeb07a08	-0.34468102
199	0xbfba24a4	-1.4542432
200	0xbf8d04f3	-1.1017135
201	0xbcdce882	-0.026966337
202	0xbf765d98	-0.9623656
203	0x3fb2c53a	1.3966439
204	0xbf8b53f8	-1.0885
205	0xbeb724b2	-0.35770184
206	0xbc6a3109	-0.014293917
207	0x3ce1bdfd	0.027556414
208	0x3c9455cd	0.01810732
209	0xbf924d7b	-1.1429895
210	0x3c94bb97	0.018155856
211	0x3bd9ebeb	0.006650438
212	0x3c559ef9	0.01303839
213	0x3f062c52	0.5241138
214	0x3c816d69	0.015799241
215	0x3f255e46	0.64596975
216	0x3f1e34e2	0.6179944
217	0xbc53f29b	-0.01293626
218	0xbf978f30	-1.1840572
219	0x3b247d78	0.00250992
220	0xbcddb100	-0.02706194
221	0xbcf83585	-0.030298958
222	0xbf531d65	-0.8246673
223	0xbf48a944	-0.7838328
224	0xc01174e3	-2.2727592
225	0x40129d86	2.2908645
226	0xbf514b98	-0.8175597
227	0xbf2003d2	-0.6250583
228	0xbcc1c5d7	-0.023653908
229	0xbf969772	-1.1764967
230	0x3c4bacab	0.012431304
231	0x3cd1da43	0.02561677
232	0xbf571e09	-0.84030205
233	0xbfd805f4	-1.6876817
234	0x3fab1cb7	1.3368138
235	0x3f8fcb1f	1.1233863
236	0x3fa4c8d1	1.2873784
237	0xbf595687	-0.84897655
238	0xbccd0168	-0.025025085
239	0xbbba1cdf	-0.0056797112
240	0xbfa5fab5	-1.2967135
241	0xbe72a7b9	-0.23696794
242	0x3fd97c8f	1.6991137
243	0xbced969b	-0.029002478
244	0xbf5bf8e9	-0.8592668
245	0xbc942ecc	-0.01808872
246	0xbc9c49e5	-0.019078204
247	0xbf7e378b	-0.993035
248	0xbf8a2716	-1.0793178
249	0x3bcbaf60	0.0062159747
250	0xbf8d6df8	-1.1049185
251	0xbbb4ab9d	-0.005513622
252	0xbd04bb28	-0.03240505
253	0x3f8db1d9	1.10699
254	0x40030fb6	2.047834
255	0xbf4bd1e5	-0.7961715
