expTD3_BipedalWalker-v2.pyBipedalWalkerHardcore-v3./critic_1.pth (torch, 530647 bytes, 5 tensors)

fc1.weight f4 [400, 28]
-0.06921418 -0.18516806 -0.10308544 0.21250089 -0.37343207 0.12509538 0.31348845 0.14605975
-0.39534724 -0.1302204 0.21080726 -0.32058784 -0.015528139 -0.41000202 -0.2906469 -0.32712373
-0.5137594 -0.46915242 -0.3853029 -0.6540648 -0.41157377 -0.46177593 -0.4868651 -0.54593873
-0.0016531523 0.17698155 0.035789665 -0.09512955 0.42727116 4.0891285 1.1362506 -2.8492773
-0.73465616 0.21910912 -0.17781903 1.5568963 -1.9653518 -1.2200551 -0.5846274 -3.329059
-0.24054477 0.9300426 -2.5016553 -1.9599103 0.033949498 -1.4896481 -2.7577956 -3.7437887
-2.5601406 -2.5398006 -3.1636403 -1.7866875 1.1697779 -0.18377271 -0.43615708 0.69815207
4.8359923 8.627227 -2.571539 -0.6396628 3.7513716 -0.14251873 0.640343 0.58822805
-0.17483759 0.4367339 0.35721043 0.7296353 0.028140197 -0.05999374 -0.39018276 -0.21127544
-0.2766351 1.1721008 0.0595087 -0.1489184 0.7131039 1.3850594 1.8594762 -1.1738856
-0.053796217 0.12442261 0.058206484 0.1904866 0.45261517 0.24675775 1.9469916 -0.82217646
-0.20298745 -1.8482457 -0.7355786 -2.5512104 -0.9367338 1.3079995 0.58534104 0.9007452
0.7459368 -1.1563352 -1.7554474 -1.2677668 -1.7772583 -1.123271 -0.7312683 -0.4315112
-0.2583528 -1.4359981 -1.2453891 -1.1739529 -0.71014655 -2.4590902 1.6708239 -2.9865282
-0.8908686 -1.3553306 2.1013546 2.0659792 -1.0739813 1.0295223 3.9379885 -1.377538
1.8144608 -1.7597262 -0.8064258 3.19642 -2.291354 0.6000437 -1.0377828 -1.2059367
-1.4916204 -2.467911 -0.80265355 -0.41791463 -1.2546037 -1.4818507 -0.8323229 -0.78568155
-0.3260815 -0.024472682 0.27538967 -0.06947484 1.7552389 2.274614 0.7378768 -0.9476369
-1.7111614 -0.9134871 -0.85599583 -0.100827105 -0.18880548 1.2427375 1.5767893 -0.105629005
0.382249 0.26388887 -1.4111544 -1.8750982 -1.8542407 -2.0905383 -1.9594383 -1.8953401
-2.1633422 -2.6725917 -2.7627275 -1.5600545 -0.88127935 0.7565935 -0.018619694 0.14187711
1.6267655 3.2468565 0.21937984 -1.5365186 0.063068 0.37932006 0.55583215 1.4736842
-0.57093984 2.2604992 0.45713532 -0.46290734 0.78307956 0.48047298 -1.7396866 -3.2141855
-3.2456212 -0.6422008 0.4758263 2.7884269 1.976166 -3.6520653 -0.57525843 -0.3602451
-0.07508381 0.0029230043 -0.17300707 -0.13868494 0.022417286 -0.184291 -0.05299795 -0.103076406
0.028651323 0.014627246 0.038614295 -0.085225195 -0.012085791 -0.07628455 -0.07469062 -0.0345356
-0.036892943 -0.12058709 0.0056686006 -0.039849766 0.11344667 0.0039191875 0.043395475 0.11826358
-0.14248149 -0.23005709 -0.23588732 -0.15233107 -0.025975943 -0.004471428 -0.049336433 -0.021352291
1.2362057 0.80876267 4.6059723 5.019302 -0.6546539 0.5182601 0.82057303 -3.7346866
-1.3890723 -0.6984937 -2.4260383 -0.8323206 0.3309693 -0.5919195 -1.5741907 -1.2312199
-1.9275663 -0.6894547 -0.2575378 -0.34132946 -0.61129147 -2.1645885 -2.246118 -0.6539491
-1.9334724 0.0023505972 0.6803479 -0.57371056 0.015725711 -0.009860235 0.218844 -0.3831065
00000000: 2ac0 8dbd b29c 3dbe 761e d3bd d599 593e
00000010: 7d32 bfbe 0119 003e 8f81 a03e b090 153e
00000020: f46a cabe 7f58 05be dcdd 573e 1724 a4be
00000030: bc69 7ebc c9eb d1be accf 94be c37c a7be
00000040: bc85 03bf bf34 f0be 6c46 c5be ca70 27bf
00000050: ccb9 d2be e56d ecbe 6246 f9be a4c2 0bbf
00000060: 96ae d8ba a73a 353e 2f98 123d 48d3 c2bd
00000070: 49c3 da3e 24da 8240 a970 913f 8f5a 36c0
00000080: 6d12 3cbf 245e 603e 3116 36be 6148 c73f
00000090: a690 fbbf c42a 9cbf 24aa 15bf 4d0f 55c0
000000a0: 5e51 76be 4617 6e3f 1f1b 20c0 57de fabf
000000b0: a10e 0b3d caac bebf b97f 30c0 3c9a 6fc0
000000c0: 58d9 23c0 188c 22c0 1579 4ac0 2db2 e4bf
000000d0: 48bb 953f ea2e 3cbe fb4f dfbe 18ba 323f
000000e0: 73c0 9a40 1f09 0a41 1894 24c0 f1c0 23bf
000000f0: 7916 7040 6ef0 11be 85ed 233f 1d96 163f
00000100: a008 33be 969b df3e 49e4 b63e 61c9 3a3f
00000110: 4586 e63c ffbb 75bd 09c6 c7be 9758 58be
00000120: 1ea3 8dbe 6607 963f 65bf 733d 117e 18be
00000130: fa8d 363f a049 b13f 5103 ee3f e241 96bf
00000140: 6c59 5cbd 48d1 fe3d ec69 6e3d eb0e 433e
00000150: 2dbd e73e 10ae 7c3e 0537 f93f 287a 52bf
00000160: f1db 4fbe 5193 ecbf e14e 3cbf 0847 23c0
00000170: c9cd 6fbf 876c a73f e9d8 153f 3d97 663f
00000180: b7f5 3e3f cb02 94bf 80b2 e0bf 2f46 a2bf
00000190: 337d e3bf 58c7 8fbf 6634 3bbf 09ef dcbe
000001a0: d146 84be c9ce b7bf e968 9fbf 1744 96bf
000001b0: 2acc 35bf bc61 1dc0 8fdd d53f 4723 3fc0
000001c0: f70f 64bf 797b adbf 987c 0640 0139 0440
000001d0: 3878 89bf 63c7 833f 0108 7c40 2a53 b0bf
000001e0: 4040 e83f b53e e1bf ec71 4ebf 2592 4c40
000001f0: 8ba5 12c0 779c 193f 11d6 84bf 225c 9abf
00000200: 6bed bebf 41f2 1dc0 b47a 4dbf e8f8 d5be
00000210: db96 a0bf 49ad bdbf 1d13 55bf 6d22 49bf
00000220: 28f4 a6be ef7a c8bc e0ff 8c3e d348 8ebd
00000230: abab e03f 4793 1140 7ee5 3c3f 5598 72bf
00000240: 5607 dbbf 4ada 69bf 8b22 5bbf 717e cebd
00000250: 3956 41be 0612 9f3f 3bd4 c93f 0554 d8bd
00000260: 24b6 c33e 711c 873e b5a0 b4bf 3803 f0bf
00000270: c257 edbf 61cb 05c0 e0ce fabf 819a f2bf
00000280: 3374 0ac0 be0b 2bc0 87d0 30c0 deaf c7bf
00000290: 869b 61bf 1db0 413f 5488 98bc 3c48 113e
000002a0: da39 d03f 7fcc 4f40 1ca5 603e a4ac c4bf
000002b0: cc29 813d 3d36 c23e 044b 0e3f afa1 bc3f
000002c0: 1d29 12bf 05ac 1040 a40d ea3e 3102 edbe
000002d0: e777 483f 8e00 f63e 0dae debf 37b5 4dc0
000002e0: 42b8 4fc0 4667 24bf 819f f33e 9675 3240
000002f0: 02f3 fc3f 70bb 69c0 2344 13bf 0c72 b8be
00000300: 8ac5 99bd e08f 3f3b c428 31be 6d03 0ebe
00000310: 75a4 b73c c8b6 3cbe 6114 59bd b919 d3bd
00000320: 2eb6 ea3c 1ea7 6f3c 062a 1e3d 8c8a aebd
00000330: 7b03 46bc 133b 9cbd 65f7 98bd 3475 0dbd
00000340: 0e1d 17bd 5df6 f6bd abbf b93b 8239 23bd
00000350: ba56 e83d 876c 803b 74bf 313d 2d34 f23d
00000360: abe6 11be 1694 6bbe 728c 71be adfc 1bbe
00000370: 80cb d4bc 0f85 92bb 0015 4abd 00eb aebc
00000380: fd3b 9e3f 120b 4f3f 2064 9340 1f9e a040
00000390: 6697 27bf b2ac 043f 1311 523f 1b05 6fc0
000003a0: 1fcd b1bf 7cd0 32bf 3644 1bc0 f612 55bf
000003b0: cf74 a93e 0988 17bf 157f c9bf 9d98 9dbf
000003c0: 7eba f6bf 1a80 30bf ffdb 83be bcc2 aebe
000003d0: 997d 1cbf 9e88 0ac0 66c0 0fc0 3569 27bf
000003e0: 067c f7bf 7a0c 1a3b 482b 2e3f b2de 12bf
000003f0: 35d3 803c d38c 21bc a418 603e 8926 c4be

fc1.bias f4 [400]
-0.22692332 -1.5297574 -1.3160853 -0.7476263 -0.8782411 0.40010503 0.061070275 -0.20054074
-1.2517835 -0.25289863 -0.32883963 -0.53880924 -0.19223249 -1.522172 0.3447023 -1.3335235
-1.4328167 0.44983873 0.10381457 -0.22909053 -1.3514084 -0.40350935 1.3114648 -0.9497278
-1.3671331 0.15082803 -1.4577549 0.0500301 -0.6708777 -0.5342274 -1.2471254 0.18911605
-0.3522228 -1.2461013 0.2837497 -1.0661569 -1.4987031 -1.0018983 -0.5453269 -0.44437838
-0.31041566 -0.12506191 -0.7050447 -0.044218343 -0.15685049 -0.46804672 -0.2783551 -0.2106865
0.28325284 -0.8568906 -0.24418728 0.21215516 -0.5468008 0.57232994 -0.2688516 -0.9163738
-1.4182959 -0.42997652 -1.0441359 -0.54338455 -0.3403588 0.8794606 -1.1692308 -0.971014
-1.4910326 -1.0791832 -1.6895843 -0.6206107 -1.5332628 -1.3269022 -0.68058753 -1.3781548
-1.5560908 -0.18441924 -0.91608816 -1.6947899 -1.3788327 -1.7161864 -0.060586426 -0.039587807
0.13868174 -1.0679418 -0.5489766 -0.42922795 -1.9280857 0.0849958 -0.20291 -0.17233805
-0.5673108 0.106995024 -1.136409 -1.4826877 -0.48576632 -0.5340225 -1.2044861 -0.91785085
1.0807213 -0.1212591 -0.6290876 -0.256543 -0.31664988 -0.9583797 0.9832511 -1.5291431
-0.6631975 -0.5683158 -0.6691055 -0.2069916 -0.0015013193 -1.2412238 -1.063728 0.14991988
-1.6331494 -0.28911927 -0.27317727 -0.074023835 -1.2593081 -0.78473103 -2.5873375 0.2364539
0.16030832 -1.0733265 -0.86742055 -0.90017754 -1.1846502 -0.8878963 -0.6016079 -0.45508036
-0.6405893 0.08718778 -0.6595415 -2.186272 0.25509197 -0.36876756 -1.20575 -0.7501759
-0.71161646 -0.13794766 -0.1311663 -0.13756801 -1.5269728 -0.22355123 -0.24653634 0.16254297
-0.35781705 -3.961968 1.0915709 0.6572473 -0.06569875 -0.06366179 -0.585503 -0.11405962
-1.2974348 -0.19519565 0.69977623 0.46015626 -0.9630685 0.7204175 -0.014363037 -2.0932035
-0.29944345 -0.65721464 -0.9711502 -0.43012583 0.9006132 -0.59768784 0.42357424 0.511023
-0.24686298 -1.1442121 -0.8055379 -2.4259 -0.0072517158 -1.977036 -0.84671044 -2.097279
-0.50495195 -1.3770489 -2.026231 -0.356222 -0.39226556 -0.795533 -0.96026164 -1.5308809
-0.9639996 -0.43248835 -0.25059846 -0.37109512 -2.359926 -0.7658897 0.09124973 -0.9926667
-1.2424608 -0.66198593 -2.0488877 -0.6028528 0.08511669 -1.8037121 -0.28313798 0.28693235
0.50544524 -0.5878802 -1.558388 0.30556425 -0.18555975 0.32490912 -1.3611627 -2.0464053
-1.3224905 0.60938793 -0.3889422 -0.79896635 -0.8936373 -0.52438486 0.14531064 -1.7960727
-0.46894822 -0.45886853 -1.1799515 -0.053978425 0.016634814 0.8456559 -0.2131603 -0.95297873
-0.1343417 -0.1669028 1.606466 -0.9355661 -0.604463 -1.9794835 -0.083464324 -1.8808035
-0.118312456 -0.11310652 -0.4287752 0.16928981 -1.8771065 -2.3699055 -1.7036129 -0.5468968
-4.0517015 -0.68708247 -1.2919958 0.11567301 -1.3702041 -1.7071145 0.19352481 -0.7346187
1.0588701 -0.49820292 -0.2053698 -0.19673654 0.15080655 0.099715576 0.5179423 -0.5806904
00000000: 965e 68be 17cf c3bf 7c75 a8bf 7064 3fbf
00000010: 69d4 60bf 91da cc3e d324 7a3d 8d5a 4dbe
00000020: 713a a0bf ee7b 81be ab5d a8be 67ef 09bf
00000030: 98d8 44be 88d6 c2bf d27c b03e e6b0 aabf
00000040: 8a66 b7bf 4351 e63e bc9c d43d b596 6abe
00000050: f3fa acbf c798 cebe 14de a73f 5c21 73bf
00000060: 38fe aebf aa72 1a3e b697 babf 5dec 4c3d
00000070: a4be 2bbf 20c3 08bf cea1 9fbf a3a7 413e
00000080: 8c56 b4be 3f80 9fbf a447 913e d477 88bf
00000090: 81d5 bfbf 343e 80bf 8b9a 0bbf 9085 e3be
000000a0: cdee 9ebe 3b10 00be cf7d 34bf 4b1e 35bd
000000b0: 6a9d 20be d2a3 efbe 8f84 8ebe 34be 57be
000000c0: 8406 913e 2f5d 5bbf 3b0c 7abe 343f 593e
000000d0: 23fb 0bbf 3784 123f eba6 89be 7997 6abf
000000e0: b88a b5bf e225 dcbe 3fa6 85bf 401b 0bbf
000000f0: 8243 aebe 5424 613f 5ba9 95bf 6094 78bf
00000100: 28da bebf ad22 8abf 4c44 d8bf 58e0 1ebf
00000110: f541 c4bf eed7 a9bf fc3a 2ebf 6067 b0bf
00000120: fc2d c7bf 66d8 3cbe c184 6abf e0ee d8bf
00000130: 977d b0bf ffab dbbf 7929 78bd d326 22bd
00000140: 9602 0e3e 51b2 88bf bb89 0cbf c4c3 dbbe
00000150: 83cb f6bf 4712 ae3d a4c7 4fbe 6379 30be
00000160: 483b 11bf 3520 db3d da75 91bf b6c8 bdbf
00000170: 5db6 f8be b3b5 08bf 9a2c 9abf 46f8 6abf
00000180: 1355 8a3f b156 f8bd e30b 21bf 9b59 83be
00000190: ef1f a2be 5f58 75bf 58b6 7b3f f6ba c3bf
000001a0: 50c7 29bf 257d 11bf 804a 2bbf 9bf5 53be
000001b0: ebc7 c4ba 6ce0 9ebf 3d28 88bf 9984 193e
000001c0: 0a0b d1bf 7107 94be e4dd 8bbe cf99 97bd
000001d0: 0231 a1bf 22e4 48bf f096 25c0 f920 723e
000001e0: dd27 243e c362 89bf 460f 5ebf 0972 66bf
000001f0: 9ea2 97bf 2c4d 63bf fa02 1abf 4b00 e9be
00000200: a9fd 23bf 828f b23d b6d7 28bf e1eb 0bc0
00000210: 6a9b 823e 1acf bcbe 0456 9abf 870b 40bf
00000220: 7f2c 36bf 2742 0dbe 7550 06be a1de 0cbe
00000230: d873 c3bf 9dea 64be 0674 7cbe aa71 263e
00000240: cc33 b7be e290 7dc0 98b8 8b3f 5c41 283f
00000250: 118d 86bd 1d61 82bd 86e3 15bf 1798 e9bd
00000260: 5812 a6bf 5ee1 47be 8924 333f 9a99 eb3e
00000270: a88b 76bf 486d 383f f252 6bbc 0cf7 05c0
00000280: a750 99be 383f 28bf 4d9d 78bf 7439 dcbe
00000290: 968e 663f 1202 19bf b9de d83e 67d2 023f
000002a0: a6c9 7cbe 8b75 92bf bb37 4ebf f241 1bc0
000002b0: cd9f edbb 840f fdbf 04c2 58bf d239 06c0
000002c0: 8844 01bf 2343 b0bf c5ad 01c0 bb62 b6be
000002d0: 08d7 c8be 0da8 4bbf b5d3 75bf e8f3 c3bf
000002e0: aec8 76bf 1d6f ddbe 714e 80be 2e00 bebe
000002f0: 0709 17c0 5911 44bf 23e1 ba3d 681f 7ebf
00000300: f508 9fbf e977 29bf fa20 03c0 9054 1abf
00000310: a951 ae3d 0ae0 e6bf 76f7 90be cce8 923e
00000320: dc64 013f 517f 16bf 4279 c7bf eb72 9c3e
00000330: 6003 3ebe 7d5a a63e 943a aebf 4ef8 02c0
00000340: 5e47 a9bf d900 1c3f 6f23 c7be 0f89 4cbf
00000350: 6ac5 64bf 163e 06bf 50cc 143e b6e5 e5bf
00000360: fb19 f0be d1f0 eabe a708 97bf 7b18 5dbd
00000370: bc45 883c e87c 583f b246 5abe 6af6 73bf
00000380: df90 09be 91e8 2abe aea0 cd3f 4381 6fbf
00000390: 16be 1abf b75f fdbf 58ef aabd 2bbe f0bf
000003a0: cd4d f2bd 64a4 e7bd 6c88 dbbe 4f5a 2d3e
000003b0: 0745 f0bf 88ac 17c0 fd0f dabf 6e01 0cbf
000003c0: 8aa7 81c0 a3e4 2fbf 1e60 a5bf f9e5 ec3d
000003d0: d962 afbf ba82 dabf 5e2b 463e f90f 3cbf
000003e0: 0e89 873f 7414 ffbe 764c 52be 4e75 49be
000003f0: 086d 1a3e ae37 cc3d de97 043f 20a8 14bf

fc2.weight f4 [300, 400]
-0.000999965 -0.060036913 -0.047153216 0.011132295 -0.032275137 -0.021802818 -0.015996765 -0.034602385
-0.065557465 -0.027273685 -0.042300157 -0.014424154 -0.047412295 -0.05013231 -0.07166081 -0.030107716
0.056749187 -0.01303462 -0.05062997 0.00834742 -0.012349909 -0.018610384 -0.047840673 -0.026748648
-0.013041659 -0.045554288 -0.0243166 -0.060214367 0.028024644 0.015030101 -0.06551395 0.0013349154
-0.05090799 -0.04224011 0.02652423 0.043372445 -0.050401144 -0.01941333 -0.015382378 -0.012251864
-0.10708574 -0.011181726 -0.049910028 -0.033502944 -0.005969345 -0.017868064 -0.0063232374 0.0102646565
-0.039758578 -0.060951173 -0.036441136 0.009454228 0.030118138 0.04932669 0.015190342 -0.013168309
-0.053123277 -0.035280142 -0.013359136 -0.018525675 -0.03757922 -0.039938044 -0.030883055 -0.052191563
-0.025000812 -0.056863952 -0.02281435 0.036946896 -0.043741528 0.06388675 -0.047982164 0.0048491037
-0.052192576 0.008350175 -0.07657201 -0.04080333 0.03899983 -0.058533892 -0.006284283 0.0037658394
-0.02257202 0.022097463 -0.022205897 0.034310807 -0.039626166 -0.044884432 0.021215823 -0.0600479
-0.03581668 0.004786141 -0.0077859983 0.017451959 -0.030518528 0.027959056 0.033883326 0.012009615
-0.028045962 -0.02809796 0.034899328 0.0017477237 -0.0016278285 -0.032944743 0.0011722429 0.022462046
0.02874564 -0.023594039 0.016181622 0.027614905 -0.04924623 -0.05095665 0.046152834 -0.017035574
0.0046528443 -0.04125903 0.022482365 -0.0052617854 -0.05096026 0.0005401286 -0.0058631077 -0.032575436
0.005782239 -0.10678359 -0.018690199 -0.016405964 -0.023572326 0.018000096 -0.05628632 -0.04403025
0.0008656405 -0.01685509 -0.010180993 -0.02786225 -0.04981483 0.02616467 -0.06796886 -0.09811361
-0.05331865 0.043035362 -0.006377695 0.011176631 -0.07368595 -0.018374652 0.026112977 -0.021347051
0.006608225 0.03385366 -0.097386226 -0.04173586 -0.08717728 0.011798348 0.0076973177 0.022048447
-0.02692994 0.002538474 -0.0069428594 -0.03896679 0.0072595906 -0.0048431796 0.018504042 0.04979153
-0.0059491694 -0.028892824 -0.023302302 -0.0432794 -0.06582334 0.03349318 -0.06162038 -0.0031630243
-0.0004272162 -0.02437984 -0.030412782 -0.045616757 -0.016978899 -0.03616427 -0.020955592 -0.0073216595
-0.040346976 -0.033974115 -0.038215302 -0.05617108 -0.05751237 0.001128571 -0.06820591 -0.00858804
-0.036767796 -0.006511969 -0.02151063 0.02198239 0.028299982 -0.0120601775 0.008661622 -0.051696256
-0.038892698 -0.015744891 -0.023873828 -0.0477411 0.02526621 0.015653722 -0.08216235 0.023850422
-0.026812557 -0.016099231 0.0052294023 0.019136218 0.035653424 0.031096537 -0.017005967 -0.024558086
-0.00460091 -0.020109762 -0.01820904 -0.06964675 -0.008069873 0.017698105 -0.0027593737 -0.031037066
-0.054908365 -0.045681804 -0.02460914 -0.043352466 -0.010294872 -0.07273229 0.00463943 0.016717847
0.0020370656 -0.054817714 -0.048879653 -0.017855572 -0.011073331 -0.020097708 0.029355297 -0.024670826
-0.01880529 -0.0010137806 -0.0114070065 0.01229614 -0.053484045 -0.025710335 -0.02283155 -0.018353457
-0.06635516 -0.01946961 0.010681581 -0.021483555 0.041375395 -0.08416575 -0.072050996 0.051224966
-0.01715411 0.024873877 -0.10992071 -0.036912866 0.062892996 -0.003440607 -0.035986464 -0.006005615
00000000: 4211 83ba 44e9 75bd bb23 41bd 3b64 363c
00000010: ef32 04bd d39b b2bc a60b 83bc 3bbb 0dbd
00000020: fe42 86bd 106d dfbc ee42 2dbd 4953 6cbc
00000030: 6533 42bd 8957 4dbd e7c2 92bd 75a4 f6bc
00000040: d671 683d 298f 55bc 5f61 4fbd 9ec3 083c
00000050: 4657 4abc ce74 98bc 95f4 43bd fb1f dbbc
00000060: afac 55bc 2297 3abd 9b33 c7bc 57a3 76bd
00000070: f093 e53c d040 763c 2e2c 86bd 54f8 ae3a
00000080: e684 50bd f703 2dbd 5849 d93c 4ea7 313d
00000090: 6e71 4ebd b408 9fbc 5f06 7cbc 0bbc 48bc
000000a0: c54f dbbd 8f33 37bc 756e 4cbd 623a 09bd
000000b0: 7f9a c3bb 0c60 92bc 2933 cfbb 172d 283c
000000c0: e4d9 22bd f0a7 79bd 4d43 15bd e8e5 1a3c
000000d0: 50ba f63c c90a 4a3d eae0 783c e4bf 57bc
000000e0: cb97 59bd e981 10bd 47e0 5abc 28c3 97bc
000000f0: abec 19bd 1396 23bd 76fe fcbc d2c6 55bd
00000100: 81ce ccbc 2dea 68bd 29e5 babc a155 173d
00000110: 512a 33bd 0ed7 823d f288 44bd 3be5 9e3b
00000120: e2c7 55bd 2ccf 083c c9d1 9cbd 6421 27bd
00000130: 49be 1f3d 3cc1 6fbd 63ec cdbb 4dcc 763b
00000140: f5e8 b8bc bd05 b53c 24e9 b5bc 7d89 0c3d
00000150: 0c4f 22bd bdd8 37bd cecc ad3c c9f4 75bd
00000160: 83b4 12bd 10d5 9c3b b021 ffbb 69f7 8e3c
00000170: fe01 fabc 640a e53c 3ec9 0a3d fac3 443c
00000180: a5c0 e5bc b12d e6bc 99f2 0e3d e013 e53a
00000190: dc5c d5ba 11f1 06bd f2a5 993a 5302 b83c
000001a0: fa7b eb3c 4948 c1bc 528f 843c a738 e23c
000001b0: 6ab6 49bd ecb7 50bd c10a 3d3d 308e 8bbc
000001c0: e376 983b 3bff 28bd f02c b83c 0e6b acbb
000001d0: b5bb 50bd 6b97 0d3a 501f c0bb d26d 05bd
000001e0: f078 bd3b 5bb1 dabd 301c 99bc cd65 86bc
000001f0: c01a c1bc f074 933c 7c8c 66bd 1059 34bd
00000200: 27ec 623a b013 8abc 2ece 26bc 603f e4bc
00000210: a30a 4cbd 4a57 d63c 4233 8bbd caef c8bd
00000220: a864 5abd d945 303d fcfb d0bb 301e 373c
00000230: a9e8 96bd 7086 96bc e2ea d53c 03e0 aebc
00000240: cf89 d83b 23aa 0a3d 6e72 c7bd 39f3 2abd
00000250: 008a b2bd dc4d 413c c839 fc3b f29e b43c
00000260: 2d9c dcbc 875c 263b ed80 e3bb a49b 1fbd
00000270: dce1 ed3b 89b3 9ebb ca95 973c 34f2 4b3d
00000280: 40f1 c2bb a5b0 ecbc 78e4 bebc bd45 31bd
00000290: 63ce 86bd 2530 093d a765 7cbd be4a 4fbb
000002a0: fdfb dfb9 3bb8 c7bc 3a24 f9bc a3d8 3abd
000002b0: 5517 8bbc fc20 14bd 10ab abbc 88ea efbb
000002c0: df42 25bd 7128 0bbd a687 1cbd a513 66bd
000002d0: 1792 6bbd 8fec 933a 8aaf 8bbd dab4 0cbc
000002e0: d499 16bd 5b62 d5bb 1037 b0bc 6a14 b43c
000002f0: 5dd5 e73c 0d98 45bc 7ae9 0d3c 74bf 53bd
00000300: f34d 1fbd 6efb 80bc 0c93 c3bc 2c8c 43bd
00000310: 15fb ce3c 3c3c 803c bc44 a8bd f661 c33c
00000320: 02a6 dbbc 89e2 83bc 685b ab3b 8fc3 9c3c
00000330: 5309 123d 2abe fe3c 1950 8bbc 0a2e c9bc
00000340: 3bc3 96bb 3abd a4bc 202b 95bc f5a2 8ebd
00000350: 8037 04bc 9efb 903c 9cd6 34bb 7241 febc
00000360: 98e7 60bd d81c 3bbd 1b99 c9bc 5b92 31bd
00000370: d3ab 28bc abf4 94bd 5c06 983b def3 883c
00000380: 4a80 053b 8a88 60bd 0836 48bd d945 92bc
00000390: eb6c 35bc f3a3 a4bc 857a f03c 791a cabc
000003a0: 8d0d 9abc d5e0 84ba 74e4 3abc c075 493c
000003b0: 1612 5bbd 7b9e d2bc 3b09 bbbc fd59 96bc
000003c0: 37e5 87bd bb7e 9fbc cc01 2f3c 48fe afbc
000003d0: 3f79 293d 185f acbd 798f 93bd 45d1 513d
000003e0: c786 8cbc 4dc4 cb3c 1c1e e1bd f231 17bd
000003f0: 0bce 803d cf7b 61bb 8b66 13bd c0ca c4bb

fc2.bias f4 [300]
-0.055220854 0.7693226 -1.8289211 -0.05989775 0.001029149 -0.00012382041 -0.08219301 0.66384476
-0.025725862 0.50670743 -0.107999 1.9273059 -0.06663357 -0.047040485 0.053433385 -0.030500304
-0.13456513 1.604117 -0.11178442 -0.54458356 -0.25600114 -0.099364094 -0.08583734 1.558648
-0.06904986 1.6143353 0.69530654 -0.02779145 1.3505508 0.2314297 -0.08395681 -0.062389545
2.4567783 -0.016071951 0.34113884 0.03143305 0.29015642 -0.5437243 0.39669243 0.053620454
0.49940744 -0.007210743 -0.10660859 -1.1424361 -0.046004515 -0.10741986 -0.09958062 -0.10481999
4.5856137 -0.12682845 -0.051441554 0.13556373 -0.031046085 -0.11302794 -0.90429395 0.004757007
3.7570424 -0.039646845 -0.07250079 -0.0749473 -0.075930566 2.818331 -0.094205745 0.88488376
1.9788777 0.0019750004 -1.8135982 -1.0136726 0.11153972 1.778626 -0.06078054 1.5661235
-0.018533483 0.77125454 -0.04473954 -0.069358 -0.21881613 -0.01427513 -0.025358308 -1.3024762
-0.38129565 3.7027936 -0.021614378 -1.0090965 0.061695103 -0.06740876 4.884914 -0.12949882
-0.009927106 -3.4563408 0.2805677 0.83457935 0.022433916 -0.04347664 -0.032566663 0.030841552
5.5760946 3.7821832 -0.094453745 0.47218952 -0.04913202 -0.0825334 -0.07761872 -0.037543915
-0.06196087 0.009565691 -0.033603456 1.9696599 -0.075824626 1.9131567 -0.083941676 2.8681526
-0.038483094 -0.24784987 -0.021157775 -0.15105166 1.6304243 -0.08176534 -0.09073752 -0.62056726
-0.0694651 -0.050222017 -0.086475275 -0.09085944 0.15439682 -0.11785655 -0.34710842 0.09990884
0.4240231 0.05105221 0.028012602 0.38744524 0.007523686 -0.06806144 -0.124212936 -0.3741485
0.9110306 3.9768007 -0.0337466 -0.0437475 -0.26772955 -0.054587893 -0.10150141 -0.013998513
2.108259 -0.07916955 3.9176886 -0.06282157 -0.036433596 -0.4629153 -0.10365493 -0.08341236
-0.31266752 -0.08220071 -0.7866127 0.315472 0.15031853 0.117129706 -0.13829885 -0.82391053
1.8281413 -0.027976632 -0.11860611 -0.19251065 -0.047633357 -0.089978896 -0.08515052 -0.12093799
-0.124142244 -0.07073783 -0.10847332 -0.17441057 0.35629553 1.1509039 0.31200153 0.07135325
-0.18628852 -0.041559972 -0.068274714 -0.064999126 -0.05085275 -0.009085651 -0.8229665 4.129946
-0.069369145 0.8727442 -0.059552696 -0.058007583 -0.052832555 -0.030551372 1.3192056 -0.35370332
-0.102288276 -0.035528284 -0.110780515 -0.0021572243 0.06457992 -0.002815131 -0.06619854 -0.092314
-0.018174395 -0.09397621 0.0077953706 0.464167 -0.06332272 0.6009032 -0.022915462 -0.02951148
-0.585842 0.44875586 1.1116893 -0.14151825 -0.58662206 -0.0314288 -0.32477647 -0.08105782
-0.034427162 -0.0960458 -0.14367704 -0.56245375 -0.6805716 -0.02443027 -0.08877926 -0.036522593
-0.0481406 -0.11525144 -0.44185072 -0.059548303 -0.089907594 -0.057056967 -0.04327361 -0.15413247
-0.055670988 -0.06443383 -0.16180593 -0.44400868 1.0242912 -0.016708016 0.040180933 -0.4159447
-0.06438932 0.18437658 -0.07655469 -0.085453816 -0.35331348 0.007965825 -0.1017952 -0.072364196
-0.024712715 0.9149121 -0.084994204 -0.054152094 -0.33948755 0.18057805 1.1220624 -0.2804706
00000000: 432f 62bd 53f2 443f 161a eabf 5857 75bd
00000010: 83e4 863a cad5 01b9 cf54 a8bd bbf1 293f
00000020: 0bbf d2bc 94b7 013f 942e ddbd f6b1 f63f
00000030: 2e77 88bd 86ad 40bd f7dc 5a3d c6db f9bc
00000040: 71cb 09be b553 cd3f 3bef e4bd d469 0bbf
00000050: 9512 83be 677f cbbd 7dcb afbd c781 c73f
00000060: 036a 8dbd 8aa2 ce3f 9cff 313f e5aa e3bc
00000070: d9de ac3f e8fb 6c3e 8cf1 abbd 2e8c 7fbd
00000080: db3b 1d40 53a9 83bc c0a9 ae3e f1bf 003d
00000090: 628f 943e 8431 0bbf 451b cb3e 1fa1 5b3d
000000a0: 55b2 ff3e 1948 ecbb 9b55 dabd 593b 92bf
000000b0: 3b6f 3cbd f2fe dbbd edf0 cbbd ddab d6bd
000000c0: 59bd 9240 51df 01be 61b4 52bd 38d1 0a3e
000000d0: 5c54 febc 317b e7bd cf7f 67bf abe0 9b3b
000000e0: 6273 7040 bb64 22bd 4b7b 94bd f87d 99bd
000000f0: 7c81 9bbd 895f 3440 f1ee c0bd be87 623f
00000100: dd4b fd3f 026f 013b fc23 e8bf 06c0 81bf
00000110: f06e e43d 04aa e33f 04f5 78bd bc76 c83f
00000120: 88d3 97bc f070 453f cf40 37bd 910b 8ebd
00000130: 5611 60be 3ce2 69bc 3abc cfbc 8ab7 a6bf
00000140: 2f39 c3be 92fa 6c40 a310 b1bc 132a 81bf
00000150: 01b4 7c3d 9b0d 8abd 3751 9c40 579b 04be
00000160: 4da5 22bc b034 5dc0 92a6 8f3e fea6 553f
00000170: 55c7 b73c 9014 32bd 9f64 05bd 6ca7 fc3c
00000180: 5e6f b240 4a0f 7240 f770 c1bd d3c2 f13e
00000190: a83e 49bd 4507 a9bd 90f6 9ebd a6c7 19bd
000001a0: aeca 7dbd 6bb9 1c3c c7a3 09bd d11d fc3f
000001b0: f149 9bbd 52e2 f43f 9de9 abbd d08f 3740
000001c0: 73a0 1dbd 5bcc 7dbe 1253 adbc 49ad 1abe
000001d0: beb1 d03f 9674 a7bd 98d4 b9bd 7fdd 1ebf
000001e0: b843 8ebd 9ab5 4dbd f319 b1bd 8414 babd
000001f0: 331a 1e3e c65e f1bd 32b8 b1be 029d cc3d
00000200: 8e19 d93e 1f1c 513d af7a e53c 395f c63e
00000210: 4189 f63b cc63 8bbd 5a63 febd 6490 bfbe
00000220: 4d39 693f e783 7e40 e039 0abd 9430 33bd
00000230: d913 89be 8e97 5fbd f9df cfbd 055a 65bc
00000240: b7ed 0640 a523 a2bd 69bb 7a40 98a8 80bd
00000250: 653b 15bd 3c03 edbe 0949 d4bd 19d4 aabd
00000260: f515 a0be d958 a8bd 735f 49bf 8c85 a13e
00000270: 1aed 193e b3e1 ef3d 379e 0dbe cdeb 52bf
00000280: 8900 ea3f 402f e5bc c3e7 f2bd 8321 45be
00000290: 321b 43bd db46 b8bd 6563 aebd 56ae f7bd
000002a0: 4a3e febd ffde 90bd 4327 debd af98 32be
000002b0: 5e6c b63e d250 933f aabe 9f3e a721 923d
000002c0: 6bc2 3ebe ca3a 2abd 9dd3 8bbd 431e 85bd
000002d0: f94a 50bd fbdb 14bc efad 52bf 8528 8440
000002e0: 6911 8ebd 2a6c 5f3f 87ed 73bd 5c99 6dbd
000002f0: f366 58bd df46 fabc bbdb a83f 9a18 b5be
00000300: 847c d1bd 1b86 11bd e5e0 e2bd 3860 0dbb
00000310: 7a42 843d 107e 38bb 1a93 87bd 1f0f bdbd
00000320: 78e2 94bc 9976 c0bd 4f70 ff3b 4ca7 ed3e
00000330: 58af 81bd cbd4 193f 35b9 bbbc 0fc2 f1bc
00000340: bef9 15bf 54c3 e53e d64b 8e3f 29ea 10be
00000350: dd2c 16bf 7cbb 00bd 1a49 a6be a401 a6bd
00000360: 7f03 0dbd a9b3 c4bd 1320 13be f8fc 0fbf
00000370: f139 2ebf fd21 c8bc e7d1 b5bd b798 15bd
00000380: 142f 45bd f208 ecbd 423a e2be ece8 73bd
00000390: 7921 b8bd 91b4 69bd ab3f 31bd e7d4 1dbe
000003a0: 4307 64bd e2f5 83bd 74b0 25be 1b55 e3be
000003b0: f91b 833f 40df 88bc c394 243d b4f6 d4be
000003c0: 8cde 83bd 37cd 3c3e b5c8 9cbd 6902 afbd
000003d0: 81e5 b4be 1783 023c 007a d0bd ae33 94bd
000003e0: 5272 cabc ae37 6a3f 7111 aebd 96ce 5dbd
000003f0: 50d1 adbe 74e9 383e be9f 8f3f d899 8fbe

fc3.weight f4 [1, 300]
-0.00789539 -0.9288593 0.91887784 -0.028897263 -0.30014127 -1.2630202 -0.0219905 -0.34803528
0.022230832 0.6793107 0.01227786 -0.9127066 0.010515944 -0.013118202 -0.29800868 -0.011216795
-0.0064511364 -1.5624553 -0.026750602 0.5769134 -1.2092193 -0.014394707 -0.0071862363 -1.4941092
-0.006358902 -1.050803 -0.91436934 -0.02130929 -0.8290056 -0.7991941 -0.02477695 -0.0022778285
1.2240477 0.0065611317 -1.0850135 1.2308018 -1.3719137 0.44459072 1.1353058 -0.26923206
-1.4848474 -0.015342523 0.030982058 1.9463822 -0.03115183 -0.027172066 -0.006540307 0.01925259
-0.8649404 0.008504783 0.013721978 -2.7288752 -0.0005181966 -0.01786169 0.9279096 -0.026491903
-1.3776443 0.023565354 -0.038062114 0.011882102 -0.020443294 -1.673739 -0.021371827 -1.6109948
-1.3712573 -0.0075988634 0.4415872 -0.38654754 -0.4495756 -1.0133785 0.006848377 -1.9863445
-0.3705445 -1.2296815 0.00964092 0.0123793 -0.94016486 -0.013979502 -0.2208829 0.6624388
1.1963371 -1.4828147 -0.72587407 0.13923371 -0.4765355 -0.026868625 -1.3240322 -0.021474157
0.008010202 1.0087702 1.3632925 -0.92757493 0.012060858 0.0069434373 0.023991913 -0.29701853
-0.8802951 -1.3410838 0.0057227425 -0.70695966 -0.014286636 0.009377216 0.003485537 0.019089634
0.0497913 0.0054593883 -0.013272644 -0.7540761 -0.018644165 -0.978743 -0.015319053 -1.1649677
-0.0026199361 1.3773254 0.008606813 0.003739701 -1.0685153 0.014824279 -1.8688937 -1.8996427
-0.00749667 -0.19732042 0.031151526 0.002881015 1.5075132 0.018441413 -1.0054436 -0.40643823
-1.4214183 -0.21605943 -0.21083364 2.2680597 -0.34566483 -0.027928052 0.003767022 1.2280455
-1.1542275 -1.8638214 0.003890209 0.0214132 -1.2785358 0.02589167 0.017148579 -0.3696974
-0.7378148 0.028710436 -0.64731854 -0.006262677 0.020818036 0.7829684 0.015800364 -0.10059883
-0.48177755 -0.007880376 3.114882 2.5553606 2.1090708 -0.34199676 0.018015668 0.043173656
-1.1534277 -0.009643648 0.5470755 1.1108737 -0.22334108 -0.010604312 -0.012568578 -0.84437895
-0.0090071075 -0.0076976824 0.010529272 1.1412152 -1.9360828 -0.4739327 -0.2848462 -0.58565855
-0.06964593 -0.33075842 -0.0012373059 -0.34949902 0.013732693 -0.001454847 -0.8533057 -1.2667245
0.013035612 -1.8381184 0.014806075 0.028242618 -0.0077709295 0.0034755687 -0.8174815 -0.7337381
-0.022301598 -0.022935575 -0.013491688 -0.20805582 -1.1109767 -0.02206389 0.02507744 0.026239598
-0.28165677 -0.29243407 -0.28431764 -0.48577455 -0.023804247 1.0870489 -0.055618577 -0.029536646
0.67488176 -0.7831719 -0.82145905 -0.031640433 1.5468004 0.022210902 0.77482164 -1.287538
-2.5435305 0.008547899 -0.037256178 -1.518783 1.3961521 0.029052414 0.0012825292 0.007875816
-0.010855013 -0.30066684 0.7341177 0.019245613 -0.014182047 0.030347958 -0.018917672 -0.017825235
-0.0063175405 0.022336824 1.1262172 -1.276079 -0.6838578 -0.09291661 -1.6352527 -1.5470356
-0.20661198 -1.2253377 -0.02675034 -0.0090866 -1.1800107 -0.35525715 0.012376722 -0.023320684
-0.012550153 1.8806095 0.00093036063 -0.033061385 0.8781842 0.9315775 -0.9499426 1.1730593
00000000: aa5b 01bc b9c9 6dbf 943b 6b3f f4b9 ecbc
00000010: 1eac 99be a5aa a1bf 6c25 b4bc ae31 b2be
00000020: 6f1d b63c 4ee7 2d3f 1429 493c 24a7 69bf
00000030: 114b 2c3c baed 56bc 9894 98be a6c6 37bc
00000040: 0e64 d3bb 89fe c7bf 1424 dbbc 99b0 133f
00000050: b3c7 9abf c7d7 6bbc 857a ebbb f83e bfbf
00000060: 565e d0bb b680 86bf 1c14 6abf d290 aebc
00000070: b639 54bf fc97 4cbf 08f9 cabc 9f47 15bb
00000080: 98ad 9c3f c3fe d63b b9e1 8abf ea8a 9d3f
00000090: de9a afbf 65a1 e33e b351 913f c9d8 89be
000000a0: 7b0f bebf 355f 7bbc 16ce fd3c 0d23 f93f
000000b0: 1f32 ffbc f497 debc 1250 d6bb 9cb7 9d3c
000000c0: bc6c 5dbf a557 0b3c 26d2 603c e4a5 2ec0
000000d0: 96d7 07ba ae52 92bc 7c8b 6d3f 8c05 d9bc
000000e0: a656 b0bf 210c c13c 05e7 1bbd 26ad 423c
000000f0: b278 a7bc 143d d6bf f813 afbc 1435 cebf
00000100: 5c85 afbf e3ff f8bb b817 e23e 8fe9 c5be
00000110: c62e e6be 63b6 81bf 5a68 e03b 8940 febf
00000120: 02b8 bdbe 3466 9dbf f3f4 1d3c 8cd2 4a3c
00000130: a5ae 70bf 480a 65bc 202f 62be 9795 293f
00000140: 9321 993f dfcc bdbf e2d2 39bf 4893 0e3e
00000150: 76fc f3be 971b dcbc e379 a9bf 92ea afbc
00000160: 393d 033c 621f 813f 5e80 ae3f 8d75 6dbf
00000170: e89a 453c c685 e33b b08a c43c d012 98be
00000180: 055b 61bf a2a8 abbf d885 bb3b 4ffb 34bf
00000190: 7f12 6abc e5a2 193c 9b6d 643b dd61 9c3c
000001a0: f6f1 4b3d abe4 b23b 8175 59bc 220b 41bf
000001b0: a6bb 98bc e78e 7abf c4fc 7abc a91d 95bf
000001c0: 3cb3 2bbb 334c b03f 9703 0d3c c515 753b
000001d0: 1cc5 88bf 88e1 723c e937 efbf 7e27 f3bf
000001e0: a0a6 f5bb 5d0e 4abe 7c31 ff3c 69cf 3c3b
000001f0: 31f6 c03f 7212 973c 60b2 80bf ac18 d0be
00000200: 09f1 b5bf af3e 5dbe c6e4 57be e427 1140
00000210: fbfa b0be 5fc9 e4bc 24e0 763b 9830 9d3f
00000220: babd 93bf b391 eebf e0f2 7e3b bc6a af3c
00000230: 10a7 a3bf c41a d43c 2d7b 8c3c fa48 bdbe
00000240: 6ee1 3cbf 2632 eb3c abb6 25bf 2437 cdbb
00000250: 968a aa3c 9e70 483f c46f 813c c206 cebd
00000260: 8cab f6be b11c 01bc 3a5a 4740 078b 2340
00000270: 04fb 0640 331a afbe 9895 933c dcd6 303d
00000280: 85a3 93bf 6400 1ebc 240d 0c3f 1c31 8e3f
00000290: 86b3 64be b5bd 2dbc 70ec 4dbc 3829 58bf
000002a0: 8c92 13bc d73c fcbb f882 2c3c 5713 923f
000002b0: 90d1 f7bf 4fa7 f2be 5cd7 91be b8ed 15bf
000002c0: 86a2 8ebd 2b59 a9be 192d a2ba 89f1 b2be
000002d0: 17ff 603c 91b0 beba 3e72 5abf 0724 a2bf
000002e0: 5293 553c 7747 ebbf 2e95 723c 105d e73c
000002f0: 48a3 febb 5ec6 633b 7846 51bf 43d6 3bbf
00000300: d7b1 b6bc 63e3 bbbc 3e0c 5dbc 960c 55be
00000310: 7c34 8ebf 55bf b4bc 346f cd3c 6df4 d63c
00000320: 5135 90be ebb9 95be 1592 91be 71b7 f8be
00000330: 2001 c3bc 6b24 8b3f 4ed0 63bd d6f6 f1bc
00000340: 0dc5 2c3f f47d 48bf 244b 52bf 6699 01bd
00000350: 8efd c53f a3f3 b53c b65a 463f 0cce a4bf
00000360: 34c9 22c0 7d0c 0c3c ef99 18bd 7b67 c2bf
00000370: 1db5 b23f 54ff ed3c 8a1a a83a 9109 013c
00000380: 39d9 31bc 01f1 99be 23ef 3b3f faa8 9d3c
00000390: d15b 68bc 489c f83c 3cf9 9abc 3a06 92bc
000003a0: 5f03 cfbb b7fb b63c e327 903f 8f56 a3bf
000003b0: 4e11 2fbf 104b bebd f64f d1bf 4305 c6bf
000003c0: 1792 53be ded7 9cbf 8723 dbbc f6df 14bc
000003d0: 970a 97bf 44e4 b5be bcc7 4a3c 050b bfbc
000003e0: 289f 4dbc d0b7 f03f 72e3 733a 606b 07bd
000003f0: aed0 603f dd7b 6e3f 702f 73bf cf26 963f
