expTD3_BipedalWalker-v2.pyBipedalWalkerHardcore-v3./critic_2_target.pth (torch, 530647 bytes, 5 tensors)

fc1.weight f4 [400, 28]
0	0x3f3659af	0.71230596
1	0x3f4903d0	0.7852144
2	0xbfa32d17	-1.2748135
3	0xc02d800e	-2.7109408
4	0xbf7a973b	-0.9788701
5	0x3f3545e7	0.7080979
6	0x4049d3a0	3.1535416
7	0xbf5eb749	-0.8699842
8	0xc0033965	-2.050378
9	0xbf0c4b44	-0.54802346
10	0xbfc42810	-1.5324726
11	0x3f953485	1.1656653
12	0xbfd06031	-1.6279355
13	0xbd390868	-0.045174032
14	0x3dcd4cb0	0.100243926
15	0xbf98f706	-1.1950386
16	0xbfbbbc98	-1.4666929
17	0xbfce9fc1	-1.6142503
18	0xbff74b7c	-1.9319911
19	0xbfe5857b	-1.793136
20	0xbfa7865f	-1.3087882
21	0xbe8bef15	-0.27330843
22	0xbf15d3e6	-0.58526456
23	0xbee9d7bb	-0.45672402
24	0x3ed53422	0.41641337
25	0x3ec0d160	0.3765974
26	0x3f099e1d	0.53756887
27	0x3e48a7a0	0.19595194
28	0x4030ba53	2.7613723
29	0x3f3fef46	0.7497448
30	0xbfae065d	-1.3595692
31	0xbce72881	-0.028217556
32	0x3faf07b6	1.3674228
33	0xbea75477	-0.3268163
34	0xbff8e0a6	-1.9443557
35	0xbf9275b7	-1.1442174
36	0x3f03fe0f	0.5155954
37	0xbf085dbc	-0.5326803
38	0x3f6101b2	0.8789321
39	0xbfc79abc	-1.5594096
40	0xbef22924	-0.47297013
41	0x3f033d00	0.51264954
42	0xbf6b6098	-0.91944265
43	0xbf81e801	-1.0148927
44	0x3fda1f7f	1.7040862
45	0x3f9d4f08	1.2289743
46	0x3f7bcef1	0.9836264
47	0x3f144cdf	0.57929796
48	0xbf89bd48	-1.0760889
49	0x3ece02ce	0.40236515
50	0x3f20dc09	0.62835747
51	0xbf59b150	-0.8503618
52	0xbca2148c	-0.019785188
53	0xbf01959d	-0.50618917
54	0xbf23f006	-0.6403812
55	0xbf72405f	-0.9462947
56	0xbfffddf1	-1.9989606
57	0xc000f672	-2.0150418
58	0xc0b82fb7	-5.7558246
59	0xc0325a0d	-2.7867463
60	0x3f224f32	0.6340209
61	0xc0543923	-3.3159873
62	0xbd88aabe	-0.066731915
63	0xbfa65c22	-1.2996867
64	0x3e111218	0.14167058
65	0xbea1a5a6	-0.31571692
66	0x3f890678	1.0705099
67	0xc0a7bf15	-5.2420754
68	0xbe553957	-0.20822655
69	0xbf59a91c	-0.85023665
70	0xbf6ef22b	-0.9333827
71	0xbf693d43	-0.911091
72	0xbf1983cc	-0.5996673
73	0xbfd72297	-1.6807431
74	0xbff4e276	-1.913161
75	0xbfcc4f8c	-1.5961776
76	0xbfca4d15	-1.5804774
77	0xbf3c961c	-0.7366655
78	0xbf39da72	-0.72598946
79	0xbf4470ab	-0.7673442
80	0xbf8ad0d2	-1.0844977
81	0xbda2ef15	-0.079557575
82	0x3f60ba07	0.87783855
83	0xbec03cb6	-0.3754632
84	0x3feeda8a	1.8660443
85	0x3ff158d3	1.8855232
86	0xbf99f1cd	-1.2026917
87	0xc018793d	-2.3823998
88	0x3e4f1428	0.20222533
89	0x3f190a8d	0.59781724
90	0x3e15066e	0.14553234
91	0xbfe5fc3a	-1.7967598
92	0x401b6805	2.4282238
93	0x3fa472df	1.2847556
94	0xbf8eb3ac	-1.1148582
95	0xbf6b98f2	-0.9203025
96	0x3f7a57f3	0.9779045
97	0x3ebb3e07	0.3657076
98	0xc059a98a	-3.4009728
99	0xc030bc30	-2.761486
100	0xc0323fb0	-2.7851372
101	0xc00cab5d	-2.1979592
102	0xc0145f3e	-2.3183131
103	0xc0156b36	-2.3346686
104	0xc022c6bf	-2.5433805
105	0xc00ef09d	-2.2334359
106	0xc00b0e15	-2.1727345
107	0xc0091565	-2.1419308
108	0xbe7431bc	-0.23847097
109	0xbd1253cd	-0.03572445
110	0x3f5a8f39	0.8537479
111	0xbf07ced5	-0.53049976
112	0xbf0234d7	-0.5086188
113	0xbfa987b7	-1.3244542
114	0xc0148857	-2.3208215
115	0xbd8c7a65	-0.068592824
116	0xbf78bcd2	-0.97163117
117	0xbe80449c	-0.25052345
118	0x3fbd94ef	1.4811076
119	0xbfff2466	-1.9932983
120	0x40173dbe	2.3631434
121	0xbf8651f2	-1.0493758
122	0xbff5c72c	-1.9201407
123	0xc04d803a	-3.2109513
124	0x3e3a1244	0.1817103
125	0xbf463927	-0.7743096
126	0xbf67f89f	-0.9061374
127	0xbf2ef65a	-0.6834465
128	0xbe983ffc	-0.29736316
129	0x3d32f888	0.04369405
130	0xbf05ff6c	-0.5234287
131	0xbf9a0f0c	-1.2035842
132	0xbfea5dd8	-1.8309889
133	0xbfb726b2	-1.4308684
134	0xbf8563d2	-1.0421088
135	0xbfd46646	-1.6593711
136	0x3f424b0a	0.7589575
137	0xbeb70046	-0.35742396
138	0x3e9195d3	0.2843462
139	0x3fc1d21c	1.5142245
140	0xbfa8aea9	-1.3178302
141	0xc0614cfa	-3.5203233
142	0x40849d5a	4.144208
143	0xc04bec54	-3.1862993
144	0xbf2e7bdb	-0.6815774
145	0x3f8b9276	1.0904071
146	0x4028ec7d	2.639434
147	0xbf286659	-0.6578117
148	0x3dddb12e	0.1082481
149	0x3f13d843	0.57751864
150	0x3f728835	0.94739085
151	0x3f69935b	0.9124047
152	0xbf7d934e	-0.99052894
153	0x3f3203d4	0.6953709
154	0xbf0c20ef	-0.5473775
155	0xbf2cd445	-0.675114
156	0xc0424185	-3.035249
157	0xbf80b2f4	-1.0054612
158	0xbd807a63	-0.062733434
159	0xbf9b538c	-1.2134871
160	0xbfee68eb	-1.8625768
161	0xc0049341	-2.0714877
162	0xbf06f4b3	-0.5271713
163	0xbf95108c	-1.1645675
164	0x401cbe04	2.4490976
165	0xc008b4ad	-2.1360276
166	0x3f9e99d8	1.2390699
167	0x3fa5f756	1.2966106
168	0x3d933006	0.07186894
169	0x3fd13883	1.6345371
170	0xbfb2ff4d	-1.3984162
171	0xbffede5f	-1.9911612
172	0x3ffee562	1.9913752
173	0xbfc6ad48	-1.5521631
174	0x400b2050	2.1738472
175	0x3f855a53	1.041819
176	0xc0615392	-3.5207257
177	0x402dd12b	2.7158916
178	0x3f2e940c	0.6819465
179	0x3f3ab3c8	0.72930574
180	0x402e4360	2.7228622
181	0x3fd93784	1.6970067
182	0xbf0d7585	-0.55257446
183	0xbfbbd850	-1.4675388
184	0xbfdef0f6	-1.7417285
185	0xbffa16e3	-1.9538234
186	0xbf52f728	-0.8240838
187	0x3e28134b	0.1641361
188	0x3e19d521	0.15022708
189	0xbeea9142	-0.45813948
190	0xbe5ca650	-0.21547818
191	0xbe640049	-0.22265734
192	0xbe5d067c	-0.21584505
193	0xbfcc6d9c	-1.597095
194	0x3e3a9c9d	0.18223806
195	0x3faaf466	1.3355834
196	0x3f2a3714	0.6649029
197	0xc03a337a	-2.9093919
198	0xbe3dca6e	-0.18534252
199	0xbf785508	-0.9700475
200	0x40526dd7	3.287954
201	0xbfd2511e	-1.6431005
202	0x3f08bb74	0.5341103
203	0x3f2df5fd	0.67953473
204	0x3fb52abf	1.415367
205	0xbfc6d548	-1.5533838
206	0xbf06a8eb	-0.526015
207	0xbfe899d0	-1.817194
208	0xbdafb9f4	-0.085803896
209	0xbf353547	-0.7078442
210	0x3eb9fbdb	0.36324963
211	0x3f4ae022	0.7924825
212	0xbfb584bc	-1.4181132
213	0xc01c3657	-2.4408166
214	0xbf1189c7	-0.56850857
215	0xbf8bb8e9	-1.0915805
216	0xbf198340	-0.59965897
217	0xbfb86947	-1.4407128
218	0xbee95293	-0.45570812
219	0xbf7ddf88	-0.99169207
220	0xbf987737	-1.1911381
221	0x3fb26337	1.3936528
222	0xbed6c261	-0.41945174
223	0xbe6b192c	-0.22958821
224	0xbe6c45cd	-0.23073502
225	0x408f2735	4.473536
226	0xc0cdb538	-6.4283714
227	0xbfb82a13	-1.438784
228	0x3f6cc45c	0.9248712
229	0x3fdd0aef	1.7268962
230	0x3eea864f	0.45805594
231	0xbeb81a12	-0.3595739
232	0xbf0df473	-0.55451125
233	0xbfcdbd20	-1.6073341
234	0xbf6d1af4	-0.9261925
235	0x3e5fa9e9	0.2184216
236	0xbf200e4f	-0.62521833
237	0xbf8bfa9c	-1.0935855
238	0x3f083db0	0.5321913
239	0x3fa4a089	1.2861491
240	0x4000369e	2.0033336
241	0x3fad4829	1.3537647
242	0x3f107d77	0.56441444
243	0xbfd6e1e7	-1.678769
244	0xbff8b036	-1.9428775
245	0x3e8484e3	0.25882635
246	0xbfaa522d	-1.3306328
247	0xbf153615	-0.5828565
248	0x3ee55110	0.44788408
249	0xbefe8033	-0.49707183
250	0xbef33e2a	-0.47508365
251	0x3ea452fe	0.32094568
252	0xbfb2a0a2	-1.3955271
253	0xc0bd2026	-5.9101744
254	0x40c43bc8	6.1322975
255	0xbe1655c7	-0.14681159

fc1.bias f4 [400]
0	0xbf60956b	-0.87727994
1	0xc01ed5fd	-2.4818108
2	0xbf8f4b70	-1.1194897
3	0xbf854bdd	-1.0413777
4	0xbf8ea5bf	-1.1144332
5	0xbf3051f1	-0.6887503
6	0xbf9ea554	-1.2394204
7	0xbf907adb	-1.1287493
8	0x3d0907c4	0.03345467
9	0xbea76bcc	-0.3269943
10	0xbf9761c5	-1.1826712
11	0x3d6b752b	0.057484787
12	0xbd387dc5	-0.04504182
13	0xbfc91fae	-1.5712793
14	0x3fc58261	1.5430413
15	0xbed55178	-0.41663718
16	0xbe8a021d	-0.26954737
17	0xbed4551e	-0.4147119
18	0xbfa5f65f	-1.2965811
19	0xbf5bd692	-0.85874283
20	0xbe01e1ec	-0.12683839
21	0xbf9dae43	-1.2318805
22	0xbf0569c4	-0.5211451
23	0xbea3d1dd	-0.3199605
24	0x3ee98c0d	0.45614663
25	0xbfd11e6b	-1.6337408
26	0x3d49d672	0.049276777
27	0xbff70b32	-1.9300292
28	0x3ef78aae	0.48347992
29	0xbfb24ad0	-1.3929081
30	0xbf3f59ea	-0.7474657
31	0xbfae8bcb	-1.3636411
32	0xbe95fbbe	-0.29293627
33	0xbfcf66a4	-1.6203198
34	0x3c8ff079	0.017570721
35	0xbeac9997	-0.3371093
36	0xbe827d36	-0.25486153
37	0xbfa6e338	-1.3038092
38	0xbfb3a4d8	-1.4034681
39	0xbf1daaee	-0.61588943
40	0xbfc47717	-1.5348843
41	0xbfd97c18	-1.6990995
42	0xbd2907c4	-0.04126717
43	0xbf097c89	-0.5370565
44	0xbf764c0a	-0.96209776
45	0xbc1f53f6	-0.009724608
46	0xbe34de00	-0.17662811
47	0xbf46265b	-0.77402276
48	0xbf99f3a2	-1.2027476
49	0xbfe1c9a0	-1.7639656
50	0x3e5d3af3	0.21604519
51	0xbdffdae4	-0.12492922
52	0xbf65efaf	-0.89818853
53	0xc000dc2c	-2.0134382
54	0xbdc84919	-0.09779567
55	0xbf00f5b2	-0.503749
56	0xc0155cb8	-2.333784
57	0xbecf3f9c	-0.40478218
58	0x3e9b9bf0	0.30392408
59	0xbe0b88d3	-0.13626413
60	0xbf923c29	-1.142461
61	0xbd0e7ca8	-0.03478685
62	0xbdc20919	-0.094743915
63	0xbfbb8798	-1.4650755
64	0xbdf1e0c4	-0.11810449
65	0xbf129e65	-0.5727294
66	0xbfbbdc02	-1.4676516
67	0xbea23759	-0.31682852
68	0xbeeb6ba3	-0.45980558
69	0xbf063d09	-0.5243688
70	0xbef889af	-0.48542544
71	0xbfab7af7	-1.3396901
72	0xbef5791a	-0.47943956
73	0x3f857d9d	1.0428959
74	0xbcba8180	-0.022766829
75	0xbea4419c	-0.32081306
76	0xbf659ab7	-0.896892
77	0xbd8742fd	-0.06604574
78	0xbfbd12c4	-1.4771352
79	0xbef3164b	-0.47477946
80	0xbf19ad0e	-0.60029685
81	0xbf500731	-0.81260973
82	0xbf7578c4	-0.958874
83	0xbef3e21f	-0.47633454
84	0xbf2d1f94	-0.6762631
85	0xbf54f6e0	-0.831892
86	0xbf019fa6	-0.5063423
87	0xbd5a8daa	-0.053357758
88	0x3e6067e7	0.21914636
89	0xbf91a1ae	-1.1377466
90	0x3e504867	0.2034012
91	0xbf9a5506	-1.2057197
92	0xbef26649	-0.47343662
93	0xbe2dd78f	-0.1697676
94	0xbf55a8b0	-0.8346052
95	0xbdeeba83	-0.11656668
96	0x3ecc9812	0.3995977
97	0xbf1f92ae	-0.6233319
98	0x3cd7f279	0.026360737
99	0xbe6b3683	-0.22970013
100	0x3e02ffe5	0.12792929
101	0x3cb4097f	0.021977184
102	0xbd2188b2	-0.039437003
103	0xbfd159fe	-1.6355588
104	0xbfc16055	-1.5107523
105	0xbeb36007	-0.350342
106	0xbec0a765	-0.37627712
107	0xbfdc876a	-1.7228825
108	0xbe5b3ee7	-0.21410714
109	0xbe495831	-0.19662549
110	0xbf839432	-1.0279601
111	0xbeda6cda	-0.42661172
112	0xbf12393e	-0.57118595
113	0xbe769b65	-0.24082716
114	0xbfe8689b	-1.8156923
115	0xbea3bf10	-0.31981707
116	0xbde9c113	-0.11413779
117	0xbfdf1a97	-1.742999
118	0xbf944744	-1.1584249
119	0xbd2d5387	-0.042315986
120	0xbe71eaef	-0.23624776
121	0xbf283fca	-0.65722334
122	0xbf8e707e	-1.112808
123	0x3ef98a43	0.48738298
124	0xbfc35b61	-1.5262262
125	0xbe4bcea9	-0.19903053
126	0x3d1069f5	0.0352573
127	0xbfd18ba9	-1.6370746
128	0xbfa5b7e8	-1.2946749
129	0xc03925e2	-2.8929372
130	0x3f6f9510	0.93586826
131	0xbf1c0704	-0.60948205
132	0xbf24a1dd	-0.64309484
133	0xbfd49d08	-1.6610422
134	0x3e1dc11e	0.154057
135	0x3ef1a6ca	0.47197562
136	0xc0457c73	-3.0857208
137	0xbee21ff3	-0.44165
138	0xbec55b19	-0.38546064
139	0xbe8e4715	-0.27788606
140	0xbe2f885f	-0.17141865
141	0xbf8a4739	-1.0802985
142	0xbe8523de	-0.26003927
143	0xbf21258f	-0.62947935
144	0xbc29cfb0	-0.010364458
145	0x3de3e766	0.1112812
146	0xbf92d35e	-1.1470754
147	0x3eb1329a	0.34608918
148	0x3a927c4b	0.0011175958
149	0xbe8cce7a	-0.2750128
150	0xbf9133f1	-1.1343976
151	0xbf52fc63	-0.8241636
152	0xbf353385	-0.7078174
153	0xbe83b346	-0.25722712
154	0xbfa67679	-1.3004905
155	0xbede6b5f	-0.43441293
156	0xbf49494b	-0.7862746
157	0xbe12bc7e	-0.14329717
158	0x3f4a9a91	0.791421
159	0xc00b0c48	-2.1726246
160	0x3ddfd219	0.10928745
161	0xbf91f330	-1.140234
162	0xbd9cb25d	-0.076512076
163	0xbeac24fe	-0.33621973
164	0xbf862766	-1.0480773
165	0x3ec43295	0.3831984
166	0xbfda6680	-1.706253
167	0x3ec4d6c7	0.38445112
168	0x3f72f5f9	0.94906574
169	0xbfbc8b41	-1.4729997
170	0xbf04c2c0	-0.51859665
171	0xbed486f3	-0.41509208
172	0xbf6c2710	-0.92247105
173	0xbe753f44	-0.23949915
174	0xbf88dfc2	-1.0693285
175	0xbe14657e	-0.14491841
176	0xbff6d3f4	-1.9283433
177	0x3f04ba14	0.5184643
178	0xbf78aef4	-0.9714196
179	0x3e4860d7	0.19568191
180	0xbe9fb8c1	-0.31195644
181	0xbf3989ad	-0.724757
182	0xbe49cb6a	-0.19706503
183	0xbf05295b	-0.5201623
184	0xbec0a13a	-0.37623006
185	0xbf9ecba6	-1.2405899
186	0xbea7c0f7	-0.32764408
187	0xc006e3f4	-2.1076632
188	0xbe9b8d86	-0.3038141
189	0xbd9b722e	-0.075901374
190	0xbf5f5ada	-0.87248003
191	0x3e218def	0.157768
192	0xbdf33137	-0.11874621
193	0xbfba64b1	-1.4561979
194	0xc0316215	-2.7716115
195	0xbeb6fe88	-0.35741067
196	0x3f53f22c	0.827914
197	0xbff5383c	-1.9157786
198	0xc012a5d5	-2.2913716
199	0xbdce8adb	-0.10085078
200	0xbe055f28	-0.1302458
201	0xbf3bcf28	-0.7336297
202	0xbe80d1c5	-0.2516004
203	0xbca8b142	-0.020592336
204	0xbfd923f2	-1.6964095
205	0xbf55ced9	-0.8351875
206	0xbf360938	-0.71107817
207	0x3dd702bc	0.104985684
208	0x3ec19969	0.37812355
209	0xbfcc2df9	-1.595153
210	0xbf0cddd3	-0.55025977
211	0xbddcf2f2	-0.10788526
212	0xbf26c786	-0.651482
213	0x3f954d50	1.1664219
214	0xbf1ce60e	-0.61288536
215	0xbe8c44d3	-0.2739626
216	0xbfee75bf	-1.8629683
217	0xbee7f738	-0.453058
218	0xbf90c81f	-1.1311072
219	0xbf9e528c	-1.2368941
220	0xbe85b543	-0.26114854
221	0xbf7a1c52	-0.97699463
222	0xbf33d9d8	-0.7025428
223	0xbf86368e	-1.0485399
224	0x3c6ca9fd	0.014444825
225	0xbf9630d9	-1.1733657
226	0xbf959742	-1.1686785
227	0xc003082d	-2.047374
228	0xbf2b61df	-0.66946214
229	0xbdd827fd	-0.10554502
230	0xbe81b38d	-0.253323
231	0x3d99182c	0.074753135
232	0xbea68ef0	-0.32530928
233	0xbfc7cbaf	-1.5609034
234	0x3e7f8e6c	0.24956673
235	0xbd5ae372	-0.053439565
236	0xbfac323b	-1.3452829
237	0xbd4b2459	-0.04959521
238	0xbe3feed0	-0.18743443
239	0xbfa6366f	-1.2985362
240	0xbeece584	-0.46268857
241	0x3e9675d6	0.29386777
242	0xbf0e5a78	-0.55606794
243	0xbf7dc6a6	-0.9913124
244	0xbfc85933	-1.5652221
245	0xbe277b2f	-0.16355585
246	0xbe60ee7b	-0.21965973
247	0xbfefc6fc	-1.87326
248	0xbfc8c114	-1.5683923
249	0xbf39e73d	-0.72618467
250	0x3bce34b8	0.0062929057
251	0xbf4aa000	-0.7915039
252	0x3ec14691	0.3774915
253	0xbe8e18fd	-0.2775344
254	0x3ed7f28e	0.42177242
255	0x3e8f3e98	0.27977443

fc2.weight f4 [300, 400]
0	0xbfb86b5f	-1.4407767
1	0x3f2f753d	0.68538266
2	0xbf86a4b0	-1.0519009
3	0x40109295	2.2589467
4	0x3f69bc51	0.91302973
5	0xbffe96f1	-1.9889814
6	0x3fb81664	1.4381833
7	0x3ed5965c	0.41716278
8	0xbe843e8b	-0.25828966
9	0xbf9286c1	-1.1447374
10	0x3fb2243c	1.3917308
11	0xbf228a5b	-0.63492364
12	0x40a52c5c	5.161665
13	0x3f616293	0.8804104
14	0xbf600d82	-0.8752061
15	0xbfd8414e	-1.689493
16	0x3db1a117	0.086733036
17	0xbf9c738b	-1.2222761
18	0x403ac298	2.918127
19	0xc031793f	-2.7730253
20	0x3f4ce0eb	0.800307
21	0x3ed7e721	0.42168525
22	0xc09fba46	-4.9914885
23	0xbf1af457	-0.60529083
24	0xc10ecf4c	-8.92561
25	0xbfa52947	-1.2903222
26	0x40580dec	3.3758497
27	0xc01796c9	-2.3685782
28	0x3f5135f8	0.81722975
29	0x3ea2fd73	0.3183399
30	0x3f472087	0.7778401
31	0x3fa74c2d	1.3070122
32	0xbd717d8c	-0.05895762
33	0x3f21d731	0.6321898
34	0x3ed06821	0.40704444
35	0xbed83d79	-0.422344
36	0x3f02d0b5	0.5109971
37	0x3f8594c6	1.0436027
38	0x3ff3daee	1.9051187
39	0xbf4af708	-0.7928319
40	0x4033be3a	2.8084855
41	0xc03a402b	-2.9101665
42	0xc07a1973	-3.9078033
43	0x3ee78ea8	0.45226026
44	0x3fddfa64	1.7342038
45	0x3f97e9ba	1.1868203
46	0x3dfe4634	0.12415734
47	0xbfe19ee1	-1.7626611
48	0x3fe89396	1.817004
49	0xc0e3c85a	-7.118207
50	0x3f67edff	0.9059753
51	0xbd69ecd2	-0.057110615
52	0xc0732958	-3.7993984
53	0xbfeba61b	-1.8410066
54	0xbe01831c	-0.1264767
55	0xbf3aa589	-0.72908837
56	0xbf518f70	-0.81859493
57	0xc0108540	-2.258133
58	0xbdb9d5b6	-0.09073965
59	0xbd5a2898	-0.05326137
60	0xbf11f13d	-0.57008725
61	0x3e4252f5	0.18976958
62	0x3d6d9013	0.057998728
63	0x40002626	2.0023284
64	0x3dca82a0	0.09888196
65	0x3f7af1a6	0.98024976
66	0xbfe7d2e4	-1.8111234
67	0xbf9c36a0	-1.220417
68	0xbe618542	-0.2202349
69	0x3e72f7f8	0.23727405
70	0xbf9f9076	-1.2465961
71	0x3ff185c0	1.8868942
72	0xbf68cd2a	-0.90938056
73	0xc00978b2	-2.1479917
74	0x40832139	4.0978055
75	0xbfac4a87	-1.3460244
76	0xbfa925fe	-1.3214719
77	0xbd55704a	-0.05210904
78	0x3f97dc1f	1.1864051
79	0xbd975e9a	-0.07391091
80	0x3f31d188	0.69460344
81	0xbf732d14	-0.9499066
82	0xbfbc9268	-1.473218
83	0x3ec283a4	0.3799106
84	0x3ff02fef	1.8764628
85	0x3feebaca	1.8650753
86	0xbfc5ba13	-1.544741
87	0x3d55c702	0.05219174
88	0x3f6f3285	0.9343646
89	0xc04291d0	-3.0401497
90	0x3f419987	0.7562489
91	0x3f97e97e	1.1868131
92	0x3ffc944d	1.9732758
93	0x3e2ab087	0.16668902
94	0x3dbffa13	0.0937387
95	0x3dd2eafa	0.102987245
96	0x3fd8496b	1.6897405
97	0x401f9dfe	2.494018
98	0x3cba546f	0.02274534
99	0xbde3ca82	-0.1112261
100	0xbfd593f9	-1.6685783
101	0x3c1b2e35	0.009471466
102	0xbd871578	-0.06595892
103	0x3c2126e9	0.009835937
104	0xc03721f7	-2.861448
105	0x3f6bfd28	0.9218316
106	0xbf8b97d2	-1.0905707
107	0x3fc6a5fb	1.5519403
108	0xbe7d7231	-0.24750592
109	0x3dd69ea2	0.104794756
110	0x3ff40854	1.9065042
111	0x3b314357	0.0027048194
112	0xbf661f63	-0.8989164
113	0xc09a85e6	-4.828845
114	0x3e46ca0c	0.19413012
115	0x3fafc13d	1.3730847
116	0xbd72665c	-0.05917965
117	0x3ea1a584	0.3157159
118	0xbf7041e5	-0.9385055
119	0xbe109425	-0.14119013
120	0x40115081	2.2705386
121	0xbf1ea230	-0.6196623
122	0x4014d39e	2.325416
123	0xbf8b4835	-1.0881411
124	0xbe7579db	-0.23972265
125	0x3da3936e	0.07987104
126	0x3e860b46	0.26180476
127	0xbfa8594f	-1.3152255
128	0x3f6d003e	0.92578495
129	0x3f377c41	0.7167397
130	0xbf30f13b	-0.6911809
131	0x3da75d64	0.0817211
132	0xc00c236e	-2.1896625
133	0x3f1690d2	0.5881473
134	0xbfa5864c	-1.2931609
135	0xbd52190a	-0.05129341
136	0xbf819543	-1.0123676
137	0x3c1c2b55	0.009531816
138	0x3ee519aa	0.44746143
139	0xbe25bee7	-0.16186105
140	0x3ebbae87	0.3665659
141	0x4031295f	2.76815
142	0xbf03f45c	-0.5154474
143	0x3ecf4179	0.4047964
144	0x3ddc7b8e	0.10765754
145	0xbd49aa62	-0.049234755
146	0xc0d2ba89	-6.5852704
147	0xc05843b8	-3.3791332
148	0x3ebfb1f7	0.37440464
149	0x3f0ee773	0.55821913
150	0x404e6808	3.2250996
151	0x40533966	3.3003783
152	0x3f8efb58	1.1170454
153	0x3e6d4c1a	0.23173562
154	0x3e7a9a42	0.24472907
155	0x3fed363a	1.8532174
156	0xbfc5538f	-1.5416125
157	0xbdeb7052	-0.11496033
158	0xbf819d45	-1.012612
159	0x3f30373b	0.68834275
160	0x3fc16b9b	1.5110964
161	0x3f4a5196	0.7903074
162	0x3d37451f	0.044743653
163	0x3fa26eb6	1.2690036
164	0x3f3cf38b	0.7380912
165	0x3fc640b9	1.5488502
166	0xc00d8740	-2.21138
167	0x3f0ae2b6	0.54252183
168	0x3f9d759a	1.2301514
169	0xbf15a14e	-0.58449256
170	0xbecf2742	-0.4045964
171	0x3d00d416	0.03145226
172	0x3d36a712	0.044592924
173	0xbd3c5a68	-0.045984656
174	0xbfcbc9ee	-1.5920999
175	0x3df6e5ec	0.12055573
176	0x3f45fc09	0.773377
177	0xc03341cc	-2.800891
178	0xbe41b711	-0.1891749
179	0x3f12b969	0.57314163
180	0x40655df6	3.58386
181	0xbf81bd93	-1.0135978
182	0xc00c1c53	-2.1892288
183	0x3f088004	0.53320336
184	0xbec0b5ea	-0.3763879
185	0xbfc87705	-1.5661322
186	0xbeac86d6	-0.33696622
187	0xbeae0170	-0.33985472
188	0xbf165a46	-0.58731496
189	0xbc191c85	-0.0093451785
190	0x3efbeb30	0.4920287
191	0x3ec5a2d4	0.3860079
192	0x3e040675	0.12893088
193	0x3ffd3480	1.9781647
194	0x3f7eb77b	0.9949872
195	0xbcb45f6f	-0.022018163
196	0x3f2e2de7	0.6803879
197	0xbf9cd34e	-1.2251985
198	0xbffd8d0c	-1.9808669
199	0xbe3ebc7a	-0.18626586
200	0x3fb0530a	1.3775342
201	0x3f1cf63e	0.61313236
202	0xbbd06992	-0.006360241
203	0x3f629906	0.88514745
204	0x3f3bd408	0.7337041
205	0xbf46c66d	-0.77646524
206	0x400fd4bc	2.2473593
207	0x3ea41b5e	0.3205213
208	0x3fbce87a	1.4758446
209	0xc01f205e	-2.4863505
210	0x403057f0	2.7553673
211	0x3f71aba3	0.9440252
212	0x3f8b802d	1.0898491
213	0x3f372856	0.7154592
214	0x3fbe70c7	1.4878167
215	0x3ffc3433	1.970343
216	0x3fb27a35	1.3943545
217	0x3e3636e3	0.17794375
218	0x3d3fa6ea	0.04679004
219	0xbfca8de9	-1.5824558
220	0x3eb044f2	0.344276
221	0xbffcca16	-1.9749172
222	0xbe7e104b	-0.24810903
223	0x3f3045cf	0.6885652
224	0x3fedb566	1.8570983
225	0xc0047eb3	-2.070233
226	0x3f845f2c	1.0341544
227	0x3fd7b4c1	1.6852037
228	0xc0053085	-2.0810864
229	0x409bb0ae	4.8653173
230	0x3e08640c	0.13319415
231	0xc057b86b	-3.370631
232	0x3e3fc49b	0.18727343
233	0xbf22ce9b	-0.63596505
234	0x3efce6f5	0.49394956
235	0xbfcc9ad4	-1.598475
236	0xbf05a3bb	-0.5220296
237	0xbea28c26	-0.3174755
238	0xbe7ad044	-0.2449351
239	0x3e868205	0.26271072
240	0xc075fc6f	-3.8435323
241	0x3ff0967c	1.8795924
242	0xc001e103	-2.0293586
243	0xbc1d0aff	-0.009585141
244	0xbe840f3a	-0.25792867
245	0xbef7c0c3	-0.48389253
246	0x3d3c8f87	0.046035316
247	0xc0455f3b	-3.0839374
248	0xbeaa421d	-0.33253565
249	0xbfbefebb	-1.4921488
250	0x3e15faf5	0.14646514
251	0x3ff15714	1.8854699
252	0x3ccb6aad	0.02483114
253	0x3d3faba0	0.046794534
254	0xbe4022a7	-0.18763219
255	0x3e00ccf5	0.12578185

fc2.bias f4 [300]
0	0xbf57378c	-0.8406913
1	0xbe158116	-0.14600024
2	0xbd848a1d	-0.064716555
3	0xbd00e615	-0.031469423
4	0xbfe33f02	-1.7753603
5	0xbfb4ef30	-1.4135494
6	0x405de751	3.4672434
7	0xbdb39450	-0.08768523
8	0xbd0c3e87	-0.03423932
9	0x3f3e925f	0.74442095
10	0xbd857ddd	-0.06518147
11	0xbd93e626	-0.07221632
12	0xbf306ed8	-0.68919134
13	0xbd11a8b6	-0.035561286
14	0x3d657ce2	0.0560273
15	0xbe7880dc	-0.24267906
16	0xbd9d6ade	-0.07686399
17	0x3f31087c	0.6915357
18	0xbdb25bd0	-0.08708918
19	0x3dc88544	0.097910434
20	0x3f12d68b	0.57358617
21	0xbf6567ad	-0.8961132
22	0x3bc0ba24	0.0058815647
23	0xbda889bf	-0.08229398
24	0x3ea3936e	0.31948417
25	0x3f816ecc	1.0111938
26	0x40b0d0db	5.525495
27	0xbbaff10f	-0.0053693126
28	0xbd8c812d	-0.06860576
29	0xbf5969ab	-0.8492686
30	0xbdb1c2b0	-0.08679712
31	0x3e37c120	0.17944765
32	0xbdbc1030	-0.09182775
33	0x409b5b49	4.854893
34	0xbfd0feca	-1.6327755
35	0xbd5d9572	-0.0540976
36	0xbf1721b9	-0.5903583
37	0xbd834b5d	-0.06410859
38	0xbd2ee76f	-0.04270118
39	0x4008468d	2.129306
40	0xbf7674a3	-0.96271724
41	0xbe0aa3d5	-0.1353906
42	0x3f50e5c9	0.81600624
43	0x408fa27b	4.488584
44	0x3e15b57e	0.14620015
45	0xbd973b46	-0.073843524
46	0xbd1bce5e	-0.038038604
47	0xbc401b59	-0.01172527
48	0xbdeb75cb	-0.114970766
49	0xbeab50af	-0.33459994
50	0x39beba37	0.00036378365
51	0xbdece9ab	-0.11568006
52	0xbd97f536	-0.07419817
53	0xbd3675d0	-0.04454595
54	0x3f45ec8b	0.7731406
55	0x3ba43c2e	0.005012057
56	0xbd567e9a	-0.05236683
57	0xbd320900	-0.043465614
58	0xbb71e894	-0.003691231
59	0xbf04561e	-0.51693904
60	0xbd1b3476	-0.037891828
61	0xbf262b7f	-0.6491012
62	0xbf833570	-1.0250683
63	0xbe0b8665	-0.13625486
64	0xbcde09da	-0.027104307
65	0xbe30b528	-0.17256606
66	0x3f8a00a4	1.0781446
67	0xbd5af33a	-0.053454615
68	0x405d6e3f	3.459854
69	0x406791b9	3.6182692
70	0xbd00bfcd	-0.031432915
71	0xbfd7f59a	-1.6871827
72	0xbd01cbc5	-0.03168847
73	0x3fbf9fe7	1.4970673
74	0xbe088cad	-0.13334914
75	0xbde89f3b	-0.11358496
76	0xbe6fb22b	-0.2340781
77	0xbd2a583f	-0.041588064
78	0xbe8e1a8d	-0.27754632
79	0x3d9b9555	0.07596842
80	0xbddedb3a	-0.10881658
81	0xbe11f79e	-0.14254615
82	0x3e231f06	0.15929803
83	0xbd33db68	-0.043910414
84	0x3fd48f49	1.6606227
85	0xbdd9d9fa	-0.10637279
86	0xbde9bd2b	-0.11413034
87	0xbc015695	-0.007894178
88	0x3b4bdb28	0.003110597
89	0xbd9a511e	-0.07535003
90	0xbdd26ba2	-0.102744356
91	0x3ea3d5d6	0.3199908
92	0x3b6ebcda	0.0036428482
93	0xbd791484	-0.06081058
94	0xbd7d05e4	-0.061773196
95	0xbf321b31	-0.6957274
96	0xbdbeffc0	-0.09326124
97	0xbd0309bd	-0.03199171
98	0xbc58d762	-0.013234945
99	0xbabe9198	-0.001453924
100	0xbd858fd5	-0.065215744
101	0x40073ef5	2.1132176
102	0xbe0487c5	-0.12942417
103	0x4060a1e6	3.5098815
104	0xbcba0b00	-0.022710323
105	0xbe9bdd57	-0.30442306
106	0xbebfb690	-0.37443972
107	0xbe172ce9	-0.14763226
108	0xbd5f4642	-0.054510362
109	0x3f2e3f76	0.68065584
110	0xbf0c264f	-0.54745954
111	0xbe6899d9	-0.22714938
112	0xbd9971ae	-0.07492386
113	0x3e2caac6	0.1686202
114	0xbaa05e57	-0.0012235147
115	0x405a46f1	3.41058
116	0xbe16821e	-0.14698073
117	0xbc27e677	-0.010247818
118	0x40273c15	2.613042
119	0x3f6e3694	0.9305203
120	0xbdc26869	-0.09492571
121	0xbd7957b4	-0.060874656
122	0x3f59df1c	0.8510606
123	0x3f1c8acf	0.61149305
124	0x3ed092fa	0.40737134
125	0x3e8fcf44	0.2808782
126	0x3c011044	0.007877413
127	0xbdad3c17	-0.08458727
128	0xbd1e8356	-0.03869947
129	0xbeda650a	-0.42655212
130	0xbca8ae77	-0.020591004
131	0xbe0edddd	-0.13951822
132	0xbdfd3974	-0.12364474
133	0xbde07563	-0.1095989
134	0xbc3663d8	-0.011132203
135	0xbbb952a0	-0.0056556016
136	0xbd877f25	-0.06616048
137	0xbded011b	-0.115724765
138	0x40783380	3.8781433
139	0x3d5a0041	0.0532229
140	0xbc512daa	-0.012767235
141	0x4092611a	4.574353
142	0xbf7dfd8c	-0.99215007
143	0xbbae21c7	-0.005314085
144	0x4005bbbb	2.0895832
145	0x404373c6	3.0539412
146	0xbe0e36ad	-0.13888045
147	0xc038a73a	-2.8852067
148	0x3b866a0f	0.0041019986
149	0xbe2a056f	-0.16603635
150	0x3e46f54a	0.19429508
151	0x3c3833e7	0.011242843
152	0xbe7ab991	-0.2448485
153	0xbd3efa48	-0.046625406
154	0x40269ead	2.6034348
155	0xbf7fa36c	-0.99858737
156	0xbd7c034c	-0.06152658
157	0xbcbbeab0	-0.022939056
158	0x3fc522a8	1.5401201
159	0xbcb0ca40	-0.021580815
160	0xbd357e28	-0.044309765
161	0xbf02e7ff	-0.5113525
162	0x3fecfb33	1.851416
163	0xbd5c063a	-0.053716876
164	0x3f3e69aa	0.7437998
165	0xbd307450	-0.043079674
166	0x4093b5b0	4.6159286
167	0xbf787844	-0.9705851
168	0xba5e17ea	-0.00084721914
169	0xbe03aaad	-0.12858076
170	0xbecdb241	-0.4017506
171	0xbed5fd85	-0.41794983
172	0x3e0b908c	0.13629359
173	0x3ea1c106	0.31592578
174	0xbd9ba686	-0.07600121
175	0xbdc2ea19	-0.09517307
176	0xbcfd17dc	-0.030895166
177	0xbd82c36d	-0.06384931
178	0xbf372020	-0.71533394
179	0x3da0fdd4	0.07860914
180	0xbddc3e7a	-0.10754104
181	0x3f4f4df8	0.80978346
182	0x40167987	2.3511674
183	0xbd110c76	-0.035412274
184	0x3fdcb084	1.7241368
185	0xbcc1ab59	-0.023641275
186	0xbdb87c90	-0.090081334
187	0xbd26b68f	-0.040701445
188	0xbe851dd4	-0.2599932
189	0xbdc06e29	-0.093960114
190	0xbd31b310	-0.043383658
191	0xbd9df396	-0.07712476
192	0xbdeeeedb	-0.11666652
193	0xbd19bd76	-0.0375342
194	0x3ff46c26	1.9095504
195	0x3feb0565	1.8361021
196	0xbecf0c59	-0.40439108
197	0xbebca630	-0.3684554
198	0xbdabcf3f	-0.083891384
199	0x3e4c910f	0.1997721
200	0x3f9aaa2d	1.2083184
201	0xbdb17b98	-0.08666152
202	0x3e9c9bd5	0.3058764
203	0xbf3204a0	-0.6953831
204	0x3f09d404	0.53839135
205	0x3d37a5b7	0.044835772
206	0x3c09676c	0.008386474
207	0xbdb53710	-0.08848393
208	0xbddaef52	-0.10690178
209	0x3f14b60a	0.5809027
210	0xbd230b7f	-0.039805885
211	0xbd44eb61	-0.048076037
212	0xbd24a737	-0.04019853
213	0x3e5fc5c5	0.21852787
214	0xbe0e400d	-0.13891621
215	0xbf0f2197	-0.5591063
216	0xbf4968ca	-0.7867552
217	0xbd6b248b	-0.057407897
218	0x40779e40	3.8690338
219	0xbd85a5b5	-0.06525747
220	0xbca60c3f	-0.020269511
221	0xbd93685e	-0.07197641
222	0x3def1daa	0.1167558
223	0x3d5944c1	0.053044084
224	0xbf397690	-0.72446537
225	0xbfa5cd17	-1.2953213
226	0x3f973af2	1.1814864
227	0x3ef07b36	0.46969002
228	0xbdd53e4a	-0.10412271
229	0x3d96f7dd	0.07371495
230	0xbd847695	-0.0646793
231	0xbd92299e	-0.07136844
232	0x3dfa2143	0.122133754
233	0x3ed6aba9	0.4192784
234	0xbe9ebd2e	-0.31003708
235	0xc033d32e	-2.8097644
236	0x3d83cabd	0.06435154
237	0x3ef3a83b	0.47589287
238	0xbcf122ec	-0.029435597
239	0xbdc379d9	-0.09544725
240	0x40073bc0	2.1130219
241	0xbce6a4fb	-0.02815484
242	0xbef18e1e	-0.4717874
243	0xbd94d856	-0.07267825
244	0x401c188d	2.4389985
245	0xbdbaacb8	-0.09114975
246	0xbd9a8e0e	-0.07546626
247	0xbdf4d282	-0.11954214
248	0x3fc6dc62	1.5536005
249	0xbb809bab	-0.003924807
250	0xbf09dfbd	-0.5385702
251	0xbd6e0ea3	-0.058119427
252	0xbd80ad0d	-0.06283007
253	0xbf2636e2	-0.64927495
254	0xbf6030ce	-0.8757447
255	0x3eeacf93	0.45861492

fc3.weight f4 [1, 300]
0	0x3f7c4835	0.9854768
1	0xbf681a6a	-0.90665305
2	0x3cd6c67a	0.026217688
3	0xbcba0588	-0.022707716
4	0x3f06fa77	0.5272593
5	0x3ca1c80f	0.019748716
6	0xbf7ce5bf	-0.98788065
7	0xbeb2959f	-0.34879777
8	0xba3bb76f	-0.00071608176
9	0xbf9f33e5	-1.2437712
10	0x3cb71080	0.022346735
11	0x3bc09dd0	0.0058781877
12	0x3f476e58	0.77902746
13	0xbe879694	-0.2648207
14	0xc024a66e	-2.572658
15	0xbf8d4b84	-1.103867
16	0xbe8ec734	-0.27886355
17	0xbf312a2a	-0.6920496
18	0xbc822bdd	-0.015890056
19	0x3fb58247	1.4180382
20	0x3f4488a1	0.7677098
21	0x3fb999ec	1.4500098
22	0xbe74a648	-0.23891556
23	0x3c96a15e	0.018387493
24	0xbf0ec414	-0.5576794
25	0xbf99df0d	-1.2021195
26	0xbfc3e058	-1.5302839
27	0xbcd065aa	-0.025439102
28	0x3b01aaf5	0.0019785736
29	0x4007480f	2.113773
30	0xbca67bf7	-0.020322783
31	0xbfe1c68e	-1.7638719
32	0x3d0d221d	0.03445636
33	0xbf305294	-0.68876004
34	0x4054f7f9	3.327635
35	0x3b8d622d	0.004314682
36	0x3f7ed9f4	0.9955132
37	0x3c7dfcc3	0.015502158
38	0x3cb0b140	0.021568894
39	0xc036f2f2	-2.8585782
40	0x3fe4083a	1.781501
41	0xbce87442	-0.028375749
42	0xbf997fbd	-1.1992108
43	0xbea5d6d1	-0.32390454
44	0xbf99dc6c	-1.2020392
45	0xbb0107ac	-0.001968841
46	0xbb7b7b5c	-0.0038373088
47	0x3cc62ae9	0.024190383
48	0x3fd928a1	1.6965524
49	0xbee685ba	-0.450239
50	0xbc4cc651	-0.012498454
51	0x3cef802b	0.02923592
52	0x3cd21e4a	0.025649209
53	0x3c6e0c4c	0.014529299
54	0xbf940279	-1.1563255
55	0xbcad87df	-0.021182952
56	0x3ceb8e03	0.02875424
57	0x3cce26a9	0.025164919
58	0x3be66742	0.0070313523
59	0x40802a57	4.0051684
60	0xbcb865e8	-0.02250953
61	0xbf5681b9	-0.8379169
62	0x3fc6752a	1.5504506
63	0xbe73074b	-0.23733251
64	0xbc5fe02a	-0.013664285
65	0xbf33da9f	-0.70255464
66	0x3fc0d962	1.506634
67	0xbc5a3c69	-0.013320067
68	0xbf2cd500	-0.6751251
69	0xbfdef8be	-1.741966
70	0x3ce843d3	0.028352654
71	0x3f401068	0.75025034
72	0x39419191	0.00018460142
73	0xbca20436	-0.019777399
74	0xbe2e1abe	-0.17002389
75	0x3c373920	0.011183053
76	0xbf7ad4f3	-0.97981185
77	0xbbd9840a	-0.0066380547
78	0xbfb6f5ef	-1.4293803
79	0xbe81f5f4	-0.2538296
80	0xbb55d8fa	-0.0032630549
81	0x38c01069	9.15833e-05
82	0xbf91f865	-1.1403929
83	0x3ce2288b	0.027607223
84	0xbf501aa9	-0.8129068
85	0xbc2824f7	-0.010262719
86	0xbb988816	-0.0046548946
87	0x3cc03f48	0.023467675
88	0xbd01430d	-0.031558085
89	0x3b5916aa	0.003312508
90	0xbb65c1a2	-0.003505804
91	0xbfc09920	-1.504673
92	0x3ba6d9b6	0.005091871
93	0xbbef9092	-0.0073109353
94	0x3c76f26c	0.015072446
95	0x3ee66918	0.45002055
96	0xbbb4cf27	-0.0055178585
97	0xbced3253	-0.02895466
98	0xbe7a608b	-0.2445089
99	0x3be21b42	0.006900222
100	0xbc8685ed	-0.016421283
101	0xbf608354	-0.8770039
102	0xbd6acdd2	-0.05732519
103	0xbf8a2fdd	-1.0795857
104	0x3c1cef6e	0.009578569
105	0x40190ee1	2.3915331
106	0xbfdbe569	-1.7179385
107	0x3fc8113d	1.5630261
108	0xb9119466	-0.0001388356
109	0xbeb37127	-0.35047266
110	0x3ea4245e	0.32058996
111	0x3ee52d49	0.44761112
112	0x3cc43559	0.02395122
113	0xbf23cae6	-0.63981473
114	0xbcbb757f	-0.022883175
115	0xc02ac054	-2.6679888
116	0x3a687da2	0.00088688184
117	0xbe762813	-0.24038725
118	0xbfc5594a	-1.5417874
119	0x3ed63eb5	0.41844717
120	0x3c81c714	0.015841998
121	0xbcae6e56	-0.021292847
122	0xbf3a5a6b	-0.72794217
123	0x3f8acd44	1.0843892
124	0xbf8b0325	-1.0860335
125	0xbf843a6c	-1.0330329
126	0xbe984805	-0.29742447
127	0x3cff8813	0.031192815
128	0x3d23dffe	0.040008537
129	0xbee37302	-0.44423681
130	0x3cebc323	0.028779572
131	0xbe7bbf53	-0.24584703
132	0x3cedab6b	0.029012403
133	0xbb94945e	-0.0045342883
134	0x3ab2ec57	0.0013650757
135	0xbe9853bd	-0.29751387
136	0xbcdbeae2	-0.0268454
137	0x3c9b7936	0.018978696
138	0xbeff173f	-0.49822423
139	0xbec9d530	-0.39420462
140	0xbea93b16	-0.33052891
141	0xbf9f971e	-1.2467992
142	0x3f0e1c1c	0.5551164
143	0x3b0f7bad	0.0021893785
144	0xc01252fe	-2.2863154
145	0xbee92cb0	-0.45541906
146	0xbf46fdd8	-0.77731085
147	0x3fe6218f	1.7978991
148	0x3ee315d4	0.4435259
149	0xc05c0e09	-3.4383566
150	0x3ea76c09	0.32699612
151	0xbe96a79d	-0.29424754
152	0x3f819e55	1.0126444
153	0xbd1a255d	-0.03763329
154	0xbf966a56	-1.1751201
155	0xbfc1c5e8	-1.5138521
156	0x3c483339	0.012219244
157	0xbc3e86a7	-0.011628783
158	0xbfa3c3c3	-1.2794117
159	0xbca23187	-0.019799007
160	0xbe33ce1f	-0.17559098
161	0x3fd519ad	1.6648461
162	0xbf018194	-0.50588346
163	0x3cd4e151	0.025986345
164	0xc0188796	-2.3832755
165	0xbcbf0e98	-0.023322389
166	0xbf43dbac	-0.7650707
167	0xbf9025fd	-1.1261593
168	0xbbeb1d83	-0.007175149
169	0x3cf110f4	0.02942703
170	0xbeb01a77	-0.3439519
171	0x3e9ef52e	0.31046432
172	0xbf9eb2fd	-1.2398373
173	0xbf3c4167	-0.73537296
174	0xbb398ec8	-0.0028313864
175	0x3ca05fe7	0.01957698
176	0xbbc77f89	-0.0060882014
177	0xbe40f168	-0.18842089
178	0x3e9be8ed	0.30451146
179	0x3f55c44f	0.8350267
180	0xbcd6ff82	-0.026244882
181	0xbf7c674b	-0.9859511
182	0xbfff2538	-1.9933233
183	0x3be85ff3	0.007091516
184	0xbfd6894d	-1.6760651
185	0xbf9273d5	-1.1441599
186	0xbca4f16f	-0.020134656
187	0x3bb58147	0.0055390927
188	0xbf83fee5	-1.0312163
189	0x3cb2fd88	0.021849409
190	0xbd07d384	-0.0331607
191	0x3ce232b3	0.027612066
192	0xbd006497	-0.03134593
193	0xbccd202a	-0.025039751
194	0xbf6eadb9	-0.9323383
195	0xbfd7f717	-1.6872281
196	0xbf8b2e1c	-1.0873446
197	0xbf9dd455	-1.2330424
198	0xbeb07a8f	-0.34468505
199	0xbfbadb92	-1.4598258
200	0xbf8d0534	-1.1017213
201	0xbcdce802	-0.026966099
202	0xbf765dfb	-0.9623715
203	0x3fb1e382	1.3897555
204	0xbf8b5464	-1.0885129
205	0xbeb724cf	-0.3577027
206	0xbc6a30cb	-0.01429386
207	0x3ce1be4a	0.027556557
208	0x3c945516	0.018106978
209	0xbf9408c1	-1.1565171
210	0x3c94bb6e	0.01815578
211	0x3bd9ecb9	0.006650534
212	0x3c559e62	0.01303825
213	0x3f05b52b	0.52229565
214	0x3c816e04	0.01579953
215	0x3f253bbd	0.6454428
216	0x3f1e0c15	0.61737186
217	0xbc53f242	-0.012936177
218	0xbf951b81	-1.1649019
219	0x3b247dce	0.00250994
220	0xbcddb0ca	-0.027061839
221	0xbcf83514	-0.030298747
222	0xbf532135	-0.82472545
223	0xbf48a9f8	-0.7838435
224	0xc0117525	-2.272775
225	0x4011eedb	2.2802036
226	0xbf4ecde3	-0.8078291
227	0xbf21cf18	-0.63206625
228	0xbcc1c521	-0.023653569
229	0xbf96ab2f	-1.1770991
230	0x3c4bac49	0.012431213
231	0x3cd1d98a	0.025616426
232	0xbf571ec1	-0.840313
233	0xbfd57ae5	-1.667813
234	0x3faab6bb	1.3337015
235	0x3f8feded	1.1244484
236	0x3fa4a4e8	1.2862825
237	0xbf5956b9	-0.84897953
238	0xbccd00e9	-0.025024848
239	0xbbba1cf7	-0.0056797224
240	0xbfa52d8d	-1.2904526
241	0xbe72a7fb	-0.23696892
242	0x3fd80286	1.687577
243	0xbced9653	-0.029002344
244	0xbf5c8b43	-0.86149997
245	0xbc942ece	-0.018088724
246	0xbc9c49ce	-0.019078162
247	0xbf800188	-1.0000467
248	0xbf8a32ad	-1.0796715
249	0x3bcbb030	0.0062160715
250	0xbf8d6eac	-1.1049399
251	0xbbb4ab38	-0.005513575
252	0xbd04bb54	-0.032405213
253	0x3f8e5367	1.1119202
254	0x40030ffc	2.0478506
255	0xbf4d6c42	-0.80243313
