expTD3_BipedalWalker-v2.pyBipedalWalkerHardcore-v3./critic_1_target.pth (torch, 530647 bytes, 5 tensors)

fc1.weight f4 [400, 28]
00000000: edbf 8dbd 489c 3dbe c21d d3bd 2299 593e
00000010: 4f33 bfbe cf18 003e 4682 a03e 7d91 153e
00000020: 696a cabe 5d58 05be 29de 573e be24 a4be
00000030: 5c69 7ebc 82eb d1be f6ce 94be 377c a7be
00000040: 2d85 03bf a434 f0be 0146 c5be 7f70 27bf
00000050: c2b9 d2be 736d ecbe bc45 f9be 8dc2 0bbf
00000060: c1ae d8ba f73a 353e 8d98 123d 70d3 c2bd
00000070: 91c3 da3e dcda 8240 3d71 913f 3f5b 36c0
00000080: c011 3cbf f35d 603e 7f16 36be d848 c73f
00000090: 7490 fbbf 552b 9cbf 7daa 15bf 690f 55c0
000000a0: 7b51 76be 0218 6e3f 271b 20c0 54de fabf
000000b0: dc0e 0b3d 28ac bebf 407f 30c0 f399 6fc0
000000c0: f7d8 23c0 5f8b 22c0 7978 4ac0 c3b1 e4bf
000000d0: adbb 953f 6f2f 3cbe 6950 dfbe 57ba 323f
000000e0: b502 9b40 7309 0a41 49d1 23c0 f54c 1fbf
000000f0: e2d1 6f40 702b 08be 1a3f 263f 4f8c 163f
00000100: aa70 31be c438 de3e 3c87 b73e 37df 3a3f
00000110: 9395 e43c abcd 4bbd 7ab6 c4be fc65 52be
00000120: 5d1d 8bbe 509d 963f 6c77 843d e0eb 12be
00000130: 23f4 373f 867d b13f 71a0 ed3f 462e 96bf
00000140: d77d 76bd 1b29 043e e26d 583d 72f0 333e
00000150: a0e0 de3e cd4e 6d3e 0265 fa3f 9256 55bf
00000160: 24ac 4fbe bea5 ecbf 3759 33bf 8ded 23c0
00000170: 2dac 6ebf 1d69 a93f 69c6 183f b2e6 633f
00000180: bdcf 3b3f 497d 94bf 097b e0bf 1a6d a2bf
00000190: 0f88 e3bf a3ae 8fbf c139 3bbf b111 debe
000001a0: 7040 85be 7485 b8bf f7b0 9fbf 45fd 95bf
000001b0: 7c1c 36bf 618e 1dc0 a663 d73f d458 3fc0
000001c0: 20f5 67bf e892 aebf e275 0640 c850 0340
000001d0: 261e 89bf 0dd3 833f bc5e 7c40 d35e b2bf
000001e0: 70d3 e63f 33a1 debf bf95 4dbf 287a 4c40
000001f0: a9d3 13c0 8a4b 133f 3397 85bf b7ce 9abf
00000200: f82f bfbf 2f08 1ec0 4933 4dbf 68e2 d5be
00000210: 6419 a1bf c27b bdbf 09a3 53bf 5d79 46bf
00000220: 2cc4 a1be 2223 e0bc 4ef1 933e 26ea 8abd
00000230: 12ac e03f 9d93 1140 78e5 3c3f 2399 72bf
00000240: 8907 dbbf 13da 69bf e122 5bbf 297e cebd
00000250: 3156 41be 8611 9f3f a1d3 c93f 5a53 d8bd
00000260: 01b6 c33e b41c 873e 48a0 b4bf a402 f0bf
00000270: 0b57 edbf 35cb 05c0 b4ce fabf ec99 f2bf
00000280: 2d74 0ac0 270b 2bc0 80d0 30c0 31af c7bf
00000290: ea9b 61bf d0b0 413f dd88 98bc 9d48 113e
000002a0: ff81 d03f 604a 4f40 1a6a 663e e98f c5bf
000002b0: 5ee5 923d 2943 c13e 51d0 0c3f a5f9 bb3f
000002c0: 14e2 11bf 0e13 1140 f093 f13e 1a98 eebe
000002d0: 5843 4f3f b890 fb3e f256 ddbf c10b 4dc0
000002e0: 7610 4fc0 eaca 21bf 55b6 fa3e fd5c 3340
000002f0: 5159 fe3f 24ff 68c0 1c95 10bf 61cb b3be
00000300: 5c5f 93bd 60e5 633a 2ec4 39be cf74 11be
00000310: 28a4 b73c 5fb7 3cbe 5214 59bd d919 d3bd
00000320: 62b6 ea3c 73a6 6f3c 452a 1e3d 3e8b aebd
00000330: 1103 46bc bd3b 9cbd cdf7 98bd ed74 0dbd
00000340: 951d 17bd 54f6 f6bd ffbf b93b cf38 23bd
00000350: 5a57 e83d ca6c 803b 8fbf 313d 5b34 f23d
00000360: 6ee6 11be 7b93 6bbe 648c 71be 76fc 1bbe
00000370: 39cc d4bc 0685 92bb 4015 4abd 56eb aebc
00000380: 3409 9f3f bae4 4f3f 61ce 9340 d63e a040
00000390: 6f90 2abf b5f3 023f 5906 503f 6a79 6fc0
000003a0: c692 afbf 3f7f 33bf e9b2 1bc0 a073 57bf
000003b0: c8b3 ac3e a1f3 19bf e38b c8bf 69a5 9cbf
000003c0: bbcc f5bf ea1d 2fbf 5c26 80be 7d66 aabe
000003d0: c711 1abf 09ef 09c0 4e5a 0fc0 e962 25bf
000003e0: 1a6d f8bf 7ada 1ebc 268a 2a3f e888 16bf
000003f0: 8dd2 803c 768d 21bc 3219 603e 4827 c4be
-0.069213726 -0.18516648 -0.1030841 0.21249822 -0.37343833 0.12509464 0.3134939 0.1460628
-0.3953431 -0.13021989 0.21080841 -0.32059282 -0.015528049 -0.4099999 -0.2906415 -0.32711956
-0.51375085 -0.46915162 -0.3852997 -0.6540603 -0.41157347 -0.46177253 -0.48686016 -0.54593736
-0.0016531573 0.17698275 0.035790015 -0.09512985 0.4272733 4.089216 1.1362683 -2.8493192
-0.73464584 0.21910839 -0.17782019 1.5569105 -1.9653459 -1.2200724 -0.5846327 -3.3290656
-0.2405452 0.93005383 -2.5016572 -1.9599099 0.033949718 -1.4896288 -2.7577667 -3.7437713
-2.5601175 -2.5397565 -3.163603 -1.7866749 1.1697899 -0.1837747 -0.43616036 0.6981558
4.8440804 8.627307 -2.5596488 -0.622268 3.7471852 -0.1329782 0.64940035 0.58807844
-0.17328134 0.43402684 0.35845363 0.7299685 0.027903354 -0.049756687 -0.3842047 -0.20546716
-0.2717084 1.1766758 0.064680904 -0.14347792 0.718569 1.3866432 1.8564588 -1.1732872
-0.060178604 0.12906305 0.052839167 0.17572191 0.4353075 0.23174591 1.9562075 -0.8333522
-0.2028051 -1.848808 -0.70058006 -2.561374 -0.9323147 1.3235203 0.5967775 0.8902389
0.7336386 -1.1600734 -1.7537547 -1.2689545 -1.7775897 -1.122517 -0.73135 -0.43372872
-0.26025724 -1.4415727 -1.247588 -1.1717917 -0.71137214 -2.461815 1.6827285 -2.9897966
-0.90608406 -1.3638582 2.100945 2.0518055 -1.0712326 1.0298783 3.9432821 -1.3935188
1.8033276 -1.7392944 -0.8030662 3.1949558 -2.3097937 0.5753714 -1.0436767 -1.2094334
-1.4936514 -2.4692495 -0.8015638 -0.41774297 -1.2585874 -1.4803393 -0.82670647 -0.77528936
-0.3159498 -0.027360503 0.28895038 -0.067829415 1.7552512 2.2746346 0.7378764 -0.9476492
-1.7111675 -0.9134838 -0.85600096 -0.10082657 -0.18880536 1.2427223 1.5767709 -0.10562773
0.38224795 0.26389086 -1.4111414 -1.8750806 -1.8542188 -2.0905278 -1.9594331 -1.8953223
-2.1633408 -2.6725557 -2.7627258 -1.5600339 -0.8812853 0.7566042 -0.018619949 0.14187856
1.6289672 3.2389145 0.22501412 -1.5434543 0.071726546 0.37746552 0.55005366 1.468556
-0.5698559 2.266788 0.4718318 -0.4660042 0.80962133 0.4913385 -1.7292159 -3.2038424
-3.2353797 -0.6320025 0.48967233 2.8025506 1.9871007 -3.6405725 -0.5647752 -0.35116103
-0.07195923 0.00086935423 -0.18141243 -0.14204715 0.022417143 -0.18429326 -0.052997895 -0.103076644
0.02865142 0.014627087 0.03861453 -0.08522652 -0.012085692 -0.07628582 -0.07469139 -0.034535337
-0.036893446 -0.12058702 0.0056686397 -0.0398491 0.11344786 0.0039192187 0.043395575 0.11826392
-0.14248058 -0.23005478 -0.23588711 -0.15233025 -0.025976287 -0.004471424 -0.04933667 -0.021352451
1.2424684 0.81208384 4.6189427 5.0076704 -0.6662664 0.5115312 0.81259686 -3.7417855
-1.3716667 -0.7011604 -2.4327948 -0.84160805 0.33730912 -0.60137373 -1.566769 -1.2237979
-1.9203104 -0.6840502 -0.25029266 -0.33281317 -0.60183376 -2.1552145 -2.2398868 -0.6460405
-1.9408295 -0.009695644 0.6661705 -0.5880265 0.015725398 -0.009860387 0.21884611 -0.3831122

fc1.bias f4 [400]
00000000: 635e 68be 01cf c3bf ac17 a8bf 16d1 3dbf
00000010: 72f0 5ebf a0da cc3e 46f0 8e3d f959 4dbe
00000020: 404d 9fbf 4d7b 81be 375d a8be 8cb2 09bf
00000030: a1d8 44be ac0c c2bf a43d ae3e 3f2e abbf
00000040: bee1 b4bf 2a7d eb3e 3961 c63d b45d 68be
00000050: 25c5 abbf f830 ccbe 4234 a83f b615 71bf
00000060: 17fe aebf 27a2 143e 3dda bdbf 1bf4 683d
00000070: aa71 2cbf bf15 08bf 2646 a2bf 51a7 373e
00000080: 33c4 b4be 828c 9fbf bdeb 913e 7fca 89bf
00000090: 61c9 bfbf 4929 7dbf 7785 15bf 9589 e7be
000000a0: 00a3 9bbe d30f 00be ea24 35bf ee8d e7bc
000000b0: d79c 20be 53a3 efbe 1343 89be 22be 57be
000000c0: a7aa 923e fbdd 59bf 533f 6fbe 9503 4a3e
000000d0: cdfa 0bbf b905 123f b5a6 89be 2397 6abf
000000e0: 7a02 b7bf 02cc ddbe bb45 85bf b60f 0abf
000000f0: 4920 b5be 879d 5f3f 2758 94bf e7c6 76bf
00000100: 49be bebf 2c24 89bf ba43 d8bf 7b39 1ebf
00000110: d945 c3bf f5b8 aabf c73a 2ebf dcff aebf
00000120: 6104 c9bf f5e0 54be 851b 69bf 1612 d9bf
00000130: 0058 b4bf 87cc dcbf 5c29 78bd 9726 22bd
00000140: b777 123e f4f1 86bf 0b6f 0cbf cc77 dfbe
00000150: 06a3 f4bf ce40 b93d 4e57 44be fe18 3abe
00000160: 7039 10bf 5aea d43d d93b 92bf b101 bebf
00000170: 22ff fabe 6b9c 0abf e1f9 9abf 03f8 6abf
00000180: 88e7 8b3f cd15 08be 63dd 21bf 6d59 83be
00000190: 8f1f a2be 93d2 72bf 5673 7e3f b1ba c3bf
000001a0: 4f9f 28bf 1770 11bf 6f4a 2bbf 62f5 53be
000001b0: bcd1 aabc 5a92 9dbf ac28 88bf 62d0 0b3e
000001c0: 34d3 d0bf 82ef 94be b53d 90be 2cb7 96bd
000001d0: 7f30 a1bf ba7d 45bf 8927 25c0 a617 653e
000001e0: f771 183e 6295 88bf 4701 5fbf d5fe 63bf
000001f0: 7e84 98bf 0500 63bf fe02 1abf 027d e9be
00000200: ffd5 23bf 9af1 bf3d 17d7 28bf ad0a 0cc0
00000210: e7f3 813e 8ba2 b9be a6e6 98bf 01e4 3bbf
00000220: bb75 34bf adb4 08be 0550 06be f2d0 0cbe
00000230: cf3d c3bf 03ea 64be 991a 83be 1727 283e
00000240: a833 b7be 2c90 7dc0 2923 8c3f ba80 263f
00000250: 2b29 a3bd 7656 62bd 8e40 16bf 3b93 d3bd
00000260: 8171 a5bf 3601 4abe 418d 313f 5673 e93e
00000270: 18aa 72bf edad 363f 4e70 b1bb a877 05c0
00000280: 1650 99be fc80 28bf 2897 77bf 360b d7be
00000290: 1f4e 663f f601 19bf 8aed d13e 9e34 013f
000002a0: 68bf 7fbe e3e0 95bf 8a76 51bf 3441 1ac0
000002b0: 7ab2 90bb 7cbf fcbf 5aa0 5bbf 682a 06c0
000002c0: dd4c fabe 819a b0bf e227 01c0 3876 b6be
000002d0: 8c64 c5be 2f2a 49bf 64ab 75bf b9f3 c3bf
000002e0: cea9 77bf f75b debe bb55 82be 80ff bdbe
000002f0: 0741 16c0 627b 43bf 160e ba3d 2670 79bf
00000300: f0d2 9fbf 0972 27bf bf84 03c0 ac25 1dbf
00000310: 34fd ae3d 3952 e8bf ea32 97be 47a5 873e
00000320: ab99 003f e227 17bf 7082 c7bf bccf 9f3e
00000330: e18c 3dbe 265b a63e b72c adbf e1f2 02c0
00000340: 34a0 a9bf a764 1c3f 7946 ccbe 1ce1 4fbf
00000350: 437a 65bf f5e3 01bf 1d32 143e 10ce e4bf
00000360: 593e ecbe ddae e3be 6abe 95bf 7218 5dbd
00000370: 5c46 883c 7aba 573f 7a33 50be 6034 72bf
00000380: abf3 03be ffe7 2abe 0865 ce3f 9a60 72bf
00000390: 12cb 1cbf 8f9b fcbf 07ef aabd 9ca5 f1bf
000003a0: 3933 f4bd f894 ddbd 7288 dbbe 5e5d 333e
000003b0: 0b9e eebf cc6b 17c0 5292 d9bf 7db5 0ebf
000003c0: 1a83 81c0 8fe4 2fbf d37c a4bf 04fa ef3d
000003d0: 843c afbf 205e dbbf e8d2 493e ba6c 3bbf
000003e0: 3139 853f d0b9 fdbe bcb3 4fbe 1975 49be
000003f0: 144c 193e 1bad d83d 3257 063f b3ec 10bf
-0.22692256 -1.5297548 -1.3132224 -0.74147165 -0.8708564 0.40010548 0.06979422 -0.20053853
-1.244545 -0.25289384 -0.32883617 -0.53788066 -0.19223262 -1.5160117 0.34031403 -1.3373488
-1.4131391 0.4599393 0.096865125 -0.22691995 -1.3419539 -0.3988111 1.3140948 -0.94173753
-1.3671292 0.14514981 -1.4832226 0.056873422 -0.6736094 -0.5315818 -1.2677658 0.1793492
-0.35305938 -1.2464755 0.28500167 -1.0764922 -1.4983331 -0.9889112 -0.58406776 -0.45222154
-0.30397797 -0.12506036 -0.7075945 -0.02826592 -0.1568483 -0.46804294 -0.26808986 -0.21068624
0.28645822 -0.8510434 -0.23364 0.19727929 -0.54679567 0.5703998 -0.26885 -0.91636866
-1.4297631 -0.43319708 -1.0411905 -0.53930223 -0.35376194 0.8734974 -1.1589402 -0.9639725
-1.490182 -1.0714164 -1.6895669 -0.6180646 -1.5255691 -1.3337694 -0.6805844 -1.3671832
-1.5704461 -0.2078894 -0.91057616 -1.6958644 -1.4089355 -1.7249917 -0.06058632 -0.039587583
0.1430348 -1.0542588 -0.5485694 -0.43646085 -1.9112251 0.09045564 -0.19173929 -0.18173596
-0.5633764 0.103962615 -1.1424514 -1.4844266 -0.49022776 -0.54144925 -1.2107507 -0.91784686
1.0930033 -0.13289566 -0.63228434 -0.25654164 -0.31664702 -0.9485256 0.9939474 -1.5291349
-0.65868086 -0.5681166 -0.6691045 -0.20699075 -0.020851962 -1.2310288 -1.0637412 0.1365371
-1.6314454 -0.2908898 -0.2817208 -0.07359156 -1.2592925 -0.7714497 -2.580538 0.22372302
0.14887224 -1.0670588 -0.87111324 -0.8906072 -1.1915433 -0.88671905 -0.60160816 -0.45603186
-0.6399841 0.09372254 -0.659532 -2.1881516 0.25381395 -0.36256823 -1.1945388 -0.7339478
-0.7049214 -0.13350172 -0.13116463 -0.13751581 -1.5253237 -0.22354893 -0.2560623 0.16421162
-0.35781598 -3.9619246 1.094823 0.6504017 -0.079668365 -0.055258237 -0.5869225 -0.10330816
-1.2925264 -0.19727024 0.6935616 0.45595807 -0.9479079 0.7135914 -0.005414999 -2.0854282
-0.29943913 -0.65821815 -0.9671502 -0.4200074 0.89962953 -0.5976862 0.4100154 0.5047091
-0.2497536 -1.1709255 -0.818215 -2.4102297 -0.0044158073 -1.9745936 -0.8579155 -2.0963383
-0.48886767 -1.3797151 -2.0180593 -0.3563707 -0.38553274 -0.7857999 -0.95964646 -1.5308753
-0.96743476 -0.4342954 -0.25456032 -0.37108994 -2.347719 -0.7636014 0.09084718 -0.9743675
-1.2486248 -0.6540838 -2.0549772 -0.6138561 0.085443884 -1.8150092 -0.29531032 0.26493284
0.5023448 -0.5904523 -1.5586681 0.31213176 -0.18510772 0.32491416 -1.3529271 -2.0460742
-1.3252015 0.61091083 -0.39897516 -0.81202865 -0.8963968 -0.5073846 0.14472242 -1.7875385
-0.46141317 -0.44469348 -1.1698735 -0.05397839 0.016635112 0.84268916 -0.20332137 -0.9461117
-0.1288592 -0.16690062 1.6124582 -0.9467865 -0.6124736 -1.9734973 -0.08346372 -1.8878665
-0.119238324 -0.10819429 -0.42877537 0.17516086 -1.8641981 -2.3659544 -1.6997778 -0.5574568
-4.0472536 -0.6870813 -1.2850593 0.117176086 -1.3690343 -1.71381 0.1970936 -0.7321278
1.0408078 -0.49555826 -0.20283407 -0.19673575 0.14970428 0.10579892 0.524768 -0.56611174

fc2.weight f4 [300, 400]
00000000: c510 83ba cce8 75bd 6923 41bd 9f64 363c
00000010: 9d32 04bd 189b b2bc 140c 83bc 3dbb 0dbd
00000020: bd42 86bd 106d dfbc 5742 2dbd e352 6cbc
00000030: 6533 42bd d956 4dbd bec2 92bd 4ca4 f6bc
00000040: 2371 683d c28e 55bc b960 4fbd 24c4 083c
00000050: e156 4abc 8e74 98bc 81f4 43bd 8920 dbbc
00000060: 72ac 55bc d896 3abd f932 c7bc bca2 76bd
00000070: 8b93 e53c 1341 763c 152c 86bd d7f7 ae3a
00000080: ea84 50bd d703 2dbd 7149 d93c 1fa8 313d
00000090: e170 4ebd 2608 9fbc 3307 7cbc f1bb 48bc
000000a0: 6a4f dbbd e032 37bc 096e 4cbd 1d3a 09bd
000000b0: e199 c3bb 0c60 92bc a132 cfbb 8e2d 283c
000000c0: 7fd9 22bd 64a7 79bd 9642 15bd 55e6 1a3c
000000d0: f3ba f63c 510a 4a3d bbe1 783c b2bf 57bc
000000e0: 9297 59bd 6681 10bd 79e0 5abc 6ec2 97bc
000000f0: 56ec 19bd c795 23bd dbfe fcbc 3ac6 55bd
00000100: 21ce ccbc 74e9 68bd f8e4 babc 0e55 173d
00000110: 102a 33bd f5d6 823d f288 44bd fee4 9e3b
00000120: cac7 55bd dccf 083c bed1 9cbd cf20 27bd
00000130: f5be 1f3d 03c1 6fbd 11ec cdbb ebcc 763b
00000140: 60e8 b8bc d705 b53c 68e8 b5bc c489 0c3d
00000150: 6f4e 22bd 80d8 37bd 66cd ad3c 84f4 75bd
00000160: e6b3 12bd ded4 9c3b bc21 ffbb a4f7 8e3c
00000170: cb02 fabc d20a e53c 8dc8 0a3d 50c4 443c
00000180: 13c0 e5bc 732d e6bc 99f2 0e3d 3214 e53a
00000190: c25c d5ba f5f0 06bd 05a6 993a af02 b83c
000001a0: 0a7c eb3c 2148 c1bc cd8e 843c f238 e23c
000001b0: f1b5 49bd b2b7 50bd c10a 3d3d fc8e 8bbc
000001c0: ad77 983b effe 28bd a72d b83c b76a acbb
000001d0: 9abb 50bd 1498 0d3a 411f c0bb 756d 05bd
000001e0: 5878 bd3b d2b0 dabd be1b 99bc 1d65 86bc
000001f0: 091a c1bc a575 933c fb8b 66bd 6858 34bd
00000200: a2ec 623a 4d13 8abc ffcd 26bc eb3e e4bc
00000210: 090a 4cbd 8957 d63c cd32 8bbd 81ef c8bd
00000220: 4264 5abd 3746 303d aafb d0bb 8f1e 373c
00000230: 76e8 96bd 7086 96bc e2ea d53c 66e0 aebc
00000240: 098a d83b dcaa 0a3d 4172 c7bd eff2 2abd
00000250: e889 b2bd 604e 413c 3439 fc3b 7f9f b43c
00000260: 729b dcbc b65c 263b 4b80 e3bb 069b 1fbd
00000270: 1ae2 ed3b feb2 9ebb e595 973c d1f1 4b3d
00000280: e8f1 c2bb a3b0 ecbc 68e4 bebc bd45 31bd
00000290: cdcd 86bd bc30 093d f464 7cbd 114a 4fbb
000002a0: 82fb dfb9 c9b7 c7bc 2424 f9bc 78d8 3abd
000002b0: ad16 8bbc be20 14bd 87aa abbc 32eb efbb
000002c0: af42 25bd dd27 0bbd 8687 1cbd ab13 66bd
000002d0: eb91 6bbd 2ded 933a 05af 8bbd bdb4 0cbc
000002e0: 8e99 16bd 3a62 d5bb 1037 b0bc 7014 b43c
000002f0: aad5 e73c 0998 45bc 1cea 0d3c 7abf 53bd
00000300: 754e 1fbd 2dfb 80bc d992 c3bc d18b 43bd
00000310: 28fb ce3c be3c 803c 3744 a8bd 6862 c33c
00000320: 5aa5 dbbc 25e2 83bc 9e5b ab3b e6c2 9c3c
00000330: 9509 123d 83be fe3c b54f 8bbc 012e c9bc
00000340: f6c2 96bb 17bd a4bc 262b 95bc 7da2 8ebd
00000350: 4d37 04bc 9efb 903c 30d6 34bb bc40 febc
00000360: 73e7 60bd 701c 3bbd 0999 c9bc 4092 31bd
00000370: 57ab 28bc 76f4 94bd 2c07 983b 94f4 883c
00000380: fc80 053b 2388 60bd 9135 48bd be45 92bc
00000390: 306c 35bc 16a4 a4bc 2c7a f03c f119 cabc
000003a0: 8d0d 9abc d5e0 84ba 74e4 3abc e075 493c
000003b0: b211 5bbd 6a9e d2bc e808 bbbc 7e59 96bc
000003c0: b5e4 87bd 1e7e 9fbc fe01 2f3c 8ffd afbc
000003d0: 3f79 293d ff5e acbd 6e8f 93bd f2d0 513d
000003e0: a586 8cbc 80c4 cb3c 231e e1bd f231 17bd
000003f0: ddcd 803d 1b7b 61bb 0666 13bd 91ca c4bb
-0.0009999505 -0.060036466 -0.04715291 0.011132388 -0.03227483 -0.02180247 -0.01599697 -0.034602392
-0.06555698 -0.027273685 -0.042299595 -0.014424059 -0.047412295 -0.050131653 -0.071660504 -0.03010764
0.05674852 -0.013034524 -0.05062935 0.008347545 -0.012349815 -0.018610265 -0.0478406 -0.026748912
-0.013041602 -0.045554012 -0.024316298 -0.06021379 0.028024456 0.015030163 -0.06551377 0.0013349009
-0.050908007 -0.04223999 0.026524277 0.043373223 -0.05040062 -0.019413065 -0.015382576 -0.01225184
-0.107085064 -0.011181563 -0.049909625 -0.033502687 -0.0059692715 -0.017868064 -0.006323174 0.010264767
-0.0397582 -0.06095065 -0.036440454 0.0094543295 0.030118441 0.049326245 0.015190537 -0.013168262
-0.053123064 -0.035279654 -0.0133591825 -0.018525328 -0.037578903 -0.03993776 -0.030883243 -0.052190997
-0.025000634 -0.056863263 -0.022814259 0.03694635 -0.043741286 0.06388656 -0.047982164 0.0048490753
-0.052192487 0.008350339 -0.07657193 -0.040802773 0.03900047 -0.05853368 -0.006284245 0.0037658762
-0.022571743 0.022097511 -0.022205546 0.03431107 -0.03962558 -0.044884205 0.021216106 -0.06004764
-0.035816096 0.004786118 -0.007786004 0.017452069 -0.03051891 0.027959261 0.033882666 0.012009695
-0.02804569 -0.028097844 0.034899328 0.0017477332 -0.0016278254 -0.03294464 0.0011722451 0.022462217
0.02874567 -0.023593964 0.016181374 0.027615044 -0.04924578 -0.050956436 0.046152834 -0.017035954
0.0046529383 -0.04125875 0.022482706 -0.005261745 -0.05096016 0.00054013846 -0.0058631008 -0.03257509
0.0057821684 -0.10678257 -0.018689986 -0.016405636 -0.023571985 0.018000433 -0.05628584 -0.044029623
0.0008656477 -0.016854906 -0.010180949 -0.027862033 -0.049814258 0.026164787 -0.06796799 -0.09811307
-0.05331827 0.043035712 -0.006377657 0.011176719 -0.07368557 -0.018374652 0.026112977 -0.021347236
0.006608252 0.03385435 -0.09738589 -0.041735586 -0.0871771 0.011798471 0.007697249 0.02204871
-0.02692959 0.002538485 -0.006942784 -0.0389662 0.0072596194 -0.004843115 0.018504092 0.04979116
-0.0059492476 -0.02889282 -0.023302272 -0.0432794 -0.06582222 0.033493742 -0.061619714 -0.003162984
-0.00042721262 -0.024379628 -0.030412741 -0.045616597 -0.016978586 -0.036164038 -0.020955337 -0.0073217386
-0.040346798 -0.033973563 -0.038215183 -0.0561711 -0.057512205 0.0011285894 -0.06820492 -0.008588013
-0.036767535 -0.0065119537 -0.02151063 0.021982402 0.028300125 -0.012060174 0.008661773 -0.05169628
-0.03889318 -0.01574477 -0.023873733 -0.04774076 0.025266245 0.015653964 -0.08216136 0.023850635
-0.026812244 -0.016099045 0.0052294275 0.019135904 0.03565367 0.031096702 -0.01700578 -0.02455807
-0.004600878 -0.020109696 -0.018209051 -0.06964586 -0.008069825 0.017698105 -0.0027593486 -0.031036727
-0.054908227 -0.045681417 -0.024609106 -0.043352365 -0.010294757 -0.0727319 0.004639527 0.016718186
0.002037107 -0.05481733 -0.04887921 -0.017855521 -0.011073157 -0.020097774 0.029355131 -0.024670573
-0.01880529 -0.0010137806 -0.0114070065 0.01229617 -0.053483672 -0.025710303 -0.022831395 -0.01835322
-0.06635419 -0.019469317 0.010681627 -0.02148321 0.041375395 -0.084165566 -0.072050914 0.051224656
-0.017154047 0.024873972 -0.10992076 -0.036912866 0.06289265 -0.0034405652 -0.03598597 -0.006005593

fc2.bias f4 [300]
00000000: cb2e 62bd 20d2 443f 34d5 e9bf b456 75bd
00000010: 3ce5 863a 25d5 01b9 9f54 a8bd e6f1 293f
00000020: 72be d2bc 59d8 023f 522e ddbd 6d72 f63f
00000030: cd76 88bd 71ad 40bd 59dd 5a3d bcdb f9bc
00000040: 6dcb 09be e8f7 d03f b3ee e4bd 7d69 0bbf
00000050: 5512 83be f97e cbbd c7ca afbd 56c6 c73f
00000060: fd69 8dbd 8715 cf3f 6700 323f df41 d0bc
00000070: 402f ac3f 6afc 6c3e d7f0 abbd fc8b 7fbd
00000080: 8462 1d40 1da9 83bc 7eaa ae3e dad9 3f3d
00000090: 8d44 953e df3f 0bbf 907c ca3e 71a1 5b3d
000000a0: ee1c 013f f347 ecbb 6a55 dabd bca7 92bf
000000b0: b86e 3cbd 6afe dbbd 41f0 cbbd 22ab d6bd
000000c0: f60d 9240 4ddf 01be 4ab4 52bd bcbb 0d3e
000000d0: 4454 febc 0b7b e7bd bb7f 67bf 1de1 9b3b
000000e0: a90d 7040 4f64 22bd 967a 94bd 667d 99bd
000000f0: 0681 9bbd 7780 3440 49ee c0bd da87 623f
00000100: c4f4 fc3f 946f 013b cb23 e8bf 0dc0 81bf
00000110: 5a6f e43d 7aaa e33f 7cf4 78bd ea2d c53f
00000120: d6d2 97bc 8418 483f 2840 37bd ed0a 8ebd
00000130: 6311 60be e3e1 69bc 21bc cfbc 57b7 a6bf
00000140: b455 c7be ce1b 6d40 9010 b1bc 0d2a 81bf
00000150: a3b4 7c3d 0d0d 8abd c958 9c40 4d9b 04be
00000160: 27a5 22bc d756 5cc0 d228 933e c1a7 553f
00000170: 17c8 b73c f013 32bd 1564 05bd 23a8 fc3c
00000180: 84e0 b140 36da 7140 c170 c1bd 13c3 f13e
00000190: 693e 49bd bf06 a9bd 2ef6 9ebd 9ec7 19bd
000001a0: fcc9 7dbd 85b9 1c3c 95a3 09bd 13bd f83f
000001b0: 8e49 9bbd 13e3 f43f 07e9 abbd 89ba 3740
000001c0: fe9f 1dbd 54cc 7dbe bf52 adbc 4ead 1abe
000001d0: 1b20 cf3f 6774 a7bd 8f19 aebd 2edd 1ebf
000001e0: 2d43 8ebd 61b5 4dbd f019 b1bd 6014 babd
000001f0: 6493 1a3e 4c5e f1bd c0b7 b1be b09d cc3d
00000200: c919 d93e 791c 513d 527b e53c 1038 cb3e
00000210: bb89 f63b 3d63 8bbd 1c63 febd 4890 bfbe
00000220: ea39 693f fca4 7e40 9539 0abd 5030 33bd
00000230: d513 89be 8297 5fbd 49df cfbd bb59 65bc
00000240: f10f 0740 7723 a2bd 0180 7a40 5da8 80bd
00000250: c63a 15bd ab02 edbe fa48 d4bd afd3 aabd
00000260: af15 a0be 8758 a8bd bbbb 4bbf a685 a13e
00000270: ef4f 143e d2e1 ef3d 8d9d 0dbe c2eb 52bf
00000280: b432 ea3f c32e e5bc 9c2d eebd caf8 48be
00000290: 891a 43bd a846 b8bd 6763 aebd ecad f7bd
000002a0: 9c3d febd 5ede 90bd c226 debd 0444 2abe
000002b0: 1401 b23e 53fd 923f f5be 9f3e cd21 923d
000002c0: 08c2 3ebe 8f3a 2abd f5d2 8bbd c51d 85bd
000002d0: 524a 50bd 76db 14bc 42ad 52bf 512c 8440
000002e0: 2d11 8ebd 19cf 5e3f fcec 73bd ab98 6dbd
000002f0: e266 58bd c446 fabc 73b1 a83f 9818 b5be
00000300: ca7b d1bd 8e85 11bd ebe0 e2bd d55f 0dbb
00000310: 0443 843d 587d 38bb ad92 87bd e00e bdbd
00000320: 7ee2 94bc f975 c0bd a370 ff3b 82a7 ed3e
00000330: ddae 81bd 6e78 1d3f b0b8 bbbc 84c1 f1bc
00000340: 66f9 15bf fac3 e53e 8c4c 8e3f 16ea 10be
00000350: 5905 15bf 1dbb 00bd ba53 9ebe 1602 a6bd
00000360: 093d 15bd 21b3 c4bd b61f 13be 95fc 0fbf
00000370: 1ef4 2dbf 4221 c8bc c0d1 b5bd 8698 15bd
00000380: 912e 45bd ab08 ecbd ef34 e0be 4ce8 73bd
00000390: 2821 b8bd 93b4 69bd 703f 31bd 56d4 1dbe
000003a0: ab06 64bd adf5 83bd ccaa 20be 8b54 e3be
000003b0: 7c1c 833f b5de 88bc 3e95 243d 2ef6 d4be
000003c0: 3dde 83bd 07ce 3c3e 5ec8 9cbd ff01 afbd
000003d0: 08e5 b4be 5c83 023c fa79 d0bd 7e33 94bd
000003e0: 3972 cabc 6d31 6c3f 5f11 aebd 7ace 5dbd
000003f0: 9501 aebe ce71 3a3e 6304 8e3f bdfc 96be
-0.055220407 0.76883125 -1.826819 -0.05989714 0.0010291706 -0.00012381801 -0.08219265 0.6638473
-0.025725577 0.5111137 -0.107998505 1.925367 -0.066632845 -0.047040407 0.05343375 -0.030500285
-0.13456507 1.6325655 -0.11178341 -0.5445784 -0.25599924 -0.099363275 -0.085835986 1.5607402
-0.06904981 1.6178445 0.69531864 -0.025422035 1.345192 0.23143163 -0.08395546 -0.06238936
2.459138 -0.01607185 0.3411445 0.04683862 0.29153863 -0.54394335 0.3954816 0.05362076
0.5043477 -0.0072107255 -0.10660823 -1.1457438 -0.046004027 -0.10741885 -0.09957934 -0.1048186
4.564204 -0.12682839 -0.05144147 0.13841146 -0.03104604 -0.113027655 -0.90429276 0.00475706
3.7508337 -0.039646443 -0.07249944 -0.07494621 -0.07592969 2.8203409 -0.09420449 0.88488543
1.9762197 0.0019750344 -1.8135923 -1.0136734 0.11154051 1.77864 -0.060780033 1.5404637
-0.018533152 0.7816241 -0.04473892 -0.06935678 -0.21881633 -0.014275047 -0.025358262 -1.3024701
-0.38932574 3.704822 -0.021614343 -1.0090958 0.061695706 -0.067407705 4.885838 -0.12949868
-0.009927071 -3.4428003 0.2874208 0.834591 0.022434277 -0.043476045 -0.03256615 0.030841893
5.5586567 3.7789435 -0.09445334 0.47219142 -0.049131785 -0.0825324 -0.07761799 -0.037543885
-0.061960205 0.009565716 -0.03360327 1.9432701 -0.07582389 1.9131798 -0.08394056 2.8707602
-0.03848266 -0.24784976 -0.02115762 -0.15105173 1.6181673 -0.08176499 -0.08500969 -0.62056243
-0.069464065 -0.050221805 -0.08647525 -0.090859175 0.15095288 -0.11785564 -0.34710503 0.09991014
0.42402485 0.051052544 0.028012905 0.3969121 0.007523743 -0.068060376 -0.12421247 -0.37414765
0.91103995 3.9788198 -0.03374632 -0.043747246 -0.26772943 -0.05458785 -0.1015001 -0.013998444
2.110348 -0.07916921 3.9140627 -0.06282113 -0.036433004 -0.46291098 -0.10365482 -0.08341157
-0.31266543 -0.0822001 -0.7958333 0.31547278 0.14483617 0.11712994 -0.13829632 -0.8239099
1.8296723 -0.0279764 -0.11629793 -0.19626155 -0.047632728 -0.089978516 -0.08515053 -0.1209372
-0.12414095 -0.07073663 -0.10847236 -0.16627508 0.34766448 1.1483558 0.31200376 0.07135353
-0.18628705 -0.041559752 -0.06827346 -0.06499819 -0.050852127 -0.009085527 -0.8229562 4.1304097
-0.0693687 0.87034756 -0.059552178 -0.058006924 -0.05283249 -0.030551322 1.3179153 -0.35370326
-0.10228689 -0.03552776 -0.11078056 -0.0021572013 0.06458095 -0.0028150883 -0.06619773 -0.09231353
-0.018174406 -0.093975015 0.0077954098 0.4641686 -0.06332181 0.61511886 -0.022915214 -0.02951122
-0.58583677 0.4487608 1.111711 -0.14151797 -0.58211285 -0.031428445 -0.30923253 -0.081058666
-0.03643516 -0.096044786 -0.14367566 -0.56244785 -0.6795062 -0.024429921 -0.08877897 -0.03652241
-0.048140112 -0.11525091 -0.43790385 -0.059547707 -0.08990699 -0.057056975 -0.04327339 -0.15413031
-0.05567042 -0.06443343 -0.15690154 -0.4440044 1.0243068 -0.016707757 0.04018139 -0.4159407
-0.06438873 0.18437968 -0.076554045 -0.085453026 -0.35330987 0.007965889 -0.10179515 -0.07236384
-0.024712669 0.9226292 -0.08499407 -0.05415199 -0.33985582 0.18207476 1.1095089 -0.294897

fc3.weight f4 [1, 300]
00000000: 455b 01bc c47b 6ebf d70d 6b3f 3cb9 ecbc
00000010: 45ac 99be 26ab a1bf 9f25 b4bc 6732 b2be
00000020: c01c b63c e848 2e3f 8928 493c 2b1e 68bf
00000030: af4a 2c3c 8aed 56bc 5d95 98be 4fc7 37bc
00000040: d964 d3bb 7304 cbbf aa23 dbbc 05b1 133f
00000050: ddc7 9abf 73d7 6bbc 427b ebbb a068 bfbf
00000060: a15e d0bb 43ae 86bf aa14 6abf dd25 9bbc
00000070: 4c66 56bf 3898 4cbf 99f8 cabc 0d48 15bb
00000080: 615c 9e3f bafe d63b 54e2 8abf 3089 a03f
00000090: 30c4 b0bf 441e e33e 3f2c 903f 7cd9 89be
000000a0: e614 bfbf 0360 7bbc e4cd fd3c 0f31 f83f
000000b0: 2432 ffbc 4297 debc ba4f d6bb 6eb7 9d3c
000000c0: 73a9 59bf 4c58 0b3c 5ad2 603c adef 2ec0
000000d0: 34d8 07ba 3e52 92bc 2a8c 6d3f 7a05 d9bc
000000e0: 0af1 b0bf c00c c13c 96e6 1bbd 29ad 423c
000000f0: 4f78 a7bc ac8d d6bf f713 afbc 8035 cebf
00000100: c978 afbf 6cff f8bb 2218 e23e 10ea c5be
00000110: 022f e6be acb6 81bf 1b68 e03b fc6b fabf
00000120: 67b8 bdbe 449e 9ebf 25f5 1d3c 18d3 4a3c
00000130: 4baf 70bf d20a 65bc 922f 62be b695 293f
00000140: 4445 983f 585f c0bf 87d3 39bf a493 0e3e
00000150: 9bfc f3be 521b dcbc 6a7e aabf ceea afbc
00000160: 4c3d 033c dad3 833f 4793 ad3f 4a76 6dbf
00000170: 289b 453c c385 e33b 818a c43c e512 98be
00000180: 5e7f 60bf 9b60 acbf e785 bb3b affb 34bf
00000190: 5312 6abc e6a2 193c 036d 643b 3e61 9c3c
000001a0: 98f2 4b3d 88e4 b23b 3275 59bc 4c75 3ebf
000001b0: a6bb 98bc 6b8f 7abf 93fd 7abc e406 97bf
000001c0: 1fb3 2bbb 774c b03f dd02 0d3c 1415 753b
000001d0: 6266 88bf 04e1 723c 9d54 f1bf 1b28 f3bf
000001e0: 2ba7 f5bb 000f 4abe 5c31 ff3c 97cf 3c3b
000001f0: eb6f c13f de11 973c 84b2 80bf 1919 d0be
00000200: c7f1 b5bf 813f 5dbe 31e5 57be 48ea 1140
00000210: 77fb b0be 33c9 e4bc acdf 763b 0d31 9d3f
00000220: 4dbe 93bf 95d5 eebf a3f3 7e3b af6a af3c
00000230: bea7 a3bf 1a1a d43c ed7a 8c3c 7749 bdbe
00000240: 1bb9 3cbf d331 eb3c 3760 26bf d136 cdbb
00000250: 3f8a aa3c f070 483f 956f 813c 6807 cebd
00000260: 1bac f6be c41c 01bc 866f 4740 9e8b 2340
00000270: c486 0640 fe1a afbe e694 933c 87d7 303d
00000280: 1055 95bf dd00 1ebc 23e0 0b3f 7411 8e3f
00000290: 1ab4 64be ffbc 2dbc 11ec 4dbc f129 58bf
000002a0: 8e92 13bc 543c fcbb ef82 2c3c 728c 933f
000002b0: 9db5 f8bf 6f16 f2be 95d7 91be 75ee 15bf
000002c0: 44a3 8ebd 8e59 a9be 9e2d a2ba cff1 b2be
000002d0: e3fe 603c d7b0 beba 5172 5abf e0a0 a2bf
000002e0: 7193 553c 73db eabf 3c95 723c 935c e73c
000002f0: 2ca3 febb d3c5 633b d6dd 50bf 5fd6 3bbf
00000300: 30b1 b6bc e0e2 bbbc f20b 5dbc 110d 55be
00000310: 1c35 8ebf c0be b4bc d86f cd3c caf3 d63c
00000320: 9d35 90be 1dba 95be d592 91be 8bb7 f8be
00000330: c100 c3bc abd9 8d3f fbcf 63bd a4f6 f1bc
00000340: 56c5 2c3f 387e 48bf 994b 52bf c499 01bd
00000350: d782 c53f 58f3 b53c 449c 4b3f 7fcd a4bf
00000360: 7851 23c0 fd0b 0c3c 0d9a 18bd a067 c2bf
00000370: 7acd b23f 03ff ed3c ce1a a83a 040a 013c
00000380: 90d8 31bc cdf1 99be 7551 3c3f 96a8 9d3c
00000390: 0a5c 68bc 349c f83c 16f9 9abc ae05 92bc
000003a0: f902 cfbb 68fb b63c 4652 903f 4657 a3bf
000003b0: 9e11 2fbf 474b bebd 0950 d1bf 6805 c6bf
000003c0: 2992 53be fdd7 9cbf e222 dbbc 5edf 14bc
000003d0: d50a 97bf 7fe4 b5be 61c7 4a3c b00a bfbc
000003e0: b99e 4dbc 89b2 f23f d4e2 733a d56a 07bd
000003f0: 8f0a 643f e963 6d3f ef6a 74bf 6ada 923f
-0.0078952955 -0.931576 0.9181799 -0.02889692 -0.30014244 -1.2630355 -0.021990595 -0.3480408
0.022230506 0.68079996 0.012277731 -0.9067103 0.010515853 -0.013118157 -0.29801455 -0.011216952
-0.006451231 -1.5860733 -0.026750404 0.57691985 -1.2092243 -0.014394629 -0.0071863243 -1.4953804
-0.006358937 -1.052193 -0.9143778 -0.018938953 -0.8374984 -0.7991977 -0.024776744 -0.0022778541
1.2371942 0.0065611275 -1.085032 1.2541866 -1.3809872 0.44359028 1.1263503 -0.2692374
-1.4928253 -0.015342715 0.030981965 1.9389971 -0.031151839 -0.027171735 -0.006540266 0.019252505
-0.85024184 0.008504938 0.013722027 -2.7333786 -0.0005182058 -0.017861482 0.92792 -0.02649187
-1.3823559 0.02356565 -0.0380617 0.011882105 -0.02044311 -1.6761985 -0.021371825 -1.6110077
-1.3708736 -0.007598808 0.44159037 -0.38655138 -0.4495774 -1.0133872 0.006848348 -1.9564204
-0.3705475 -1.2392049 0.009640967 0.01237943 -0.94017476 -0.013979631 -0.22088459 0.66244066
1.1896138 -1.5029097 -0.7258839 0.13923508 -0.4765366 -0.026868496 -1.3319829 -0.021474268
0.00801022 1.0299027 1.356057 -0.9275862 0.012060918 0.006943436 0.023991825 -0.29701915
-0.87694347 -1.3466982 0.0057227495 -0.7069654 -0.014286595 0.009377217 0.0034855015 0.019089337
0.049791902 0.005459372 -0.01327257 -0.7439773 -0.018644165 -0.9787509 -0.015319246 -1.1798978
-0.0026199294 1.3773335 0.00860664 0.0037396597 -1.0656245 0.014824156 -1.8853947 -1.8996614
-0.0074967346 -0.19732285 0.031151466 0.0028810257 1.511228 0.018441137 -1.0054479 -0.40644148
-1.421441 -0.21606256 -0.21083523 2.2799244 -0.34566852 -0.02792797 0.003766994 1.2280594
-1.154245 -1.865893 0.0038902543 0.021413175 -1.2785566 0.025891352 0.01714846 -0.36970112
-0.7371995 0.028710281 -0.6499056 -0.006262638 0.020817874 0.7829733 0.015800277 -0.100600064
-0.4817818 -0.007880393 3.1161819 2.5553966 2.1019754 -0.3420028 0.018015336 0.043174293
-1.1666584 -0.0096437605 0.5463888 1.1099076 -0.22334328 -0.010604142 -0.01256849 -0.84439
-0.009007109 -0.0076976214 0.010529264 1.1527236 -1.9430424 -0.4728274 -0.2848479 -0.5856698
-0.06964734 -0.33076137 -0.0012373214 -0.3495011 0.013732645 -0.0014548552 -0.85330683 -1.2705345
0.013035641 -1.834822 0.014806088 0.028242385 -0.0077709164 0.0034755364 -0.81588495 -0.7337398
-0.022301286 -0.02293533 -0.0134916175 -0.20805766 -1.1109958 -0.022063613 0.025077745 0.026239295
-0.28165904 -0.29243556 -0.28432336 -0.48577532 -0.02380407 1.1082052 -0.055618268 -0.029536553
0.6748861 -0.78317595 -0.821466 -0.031640783 1.5430554 0.022210762 0.7953532 -1.2875212
-2.5518475 0.00854778 -0.03725629 -1.5187874 1.3968956 0.029052263 0.0012825371 0.007875923
-0.010854855 -0.30067292 0.73561794 0.019245427 -0.0141821 0.030347921 -0.018917602 -0.017824974
-0.006317493 0.022336677 1.1275108 -1.2761009 -0.68386257 -0.09291702 -1.635255 -1.54704
-0.20661224 -1.2253414 -0.026750032 -0.009086458 -1.1800181 -0.3552589 0.012376637 -0.023320526
-0.012550049 1.8960735 0.00093035144 -0.033060867 0.8907861 0.92730576 -0.9547567 1.1472905
